MLP_init_params.pt (torch, 49217 bytes, 2 tensors)

layer0.weight f4 [1000, 10]
0.17230295 0.07520133 0.12650082 0.008768088 -0.16187625 0.33374596 0.12683918 -0.1191997
-0.09464474 0.08665083 -0.14325477 0.031947944 -0.26274225 -0.07413663 0.13002 -0.27687836
-0.06459765 0.057087585 -0.030114848 -0.20531371 0.15809166 0.14293416 0.1025701 0.005741219
0.0800837 0.16655265 0.07069216 0.032343373 0.049510725 0.11557641 0.18483433 -0.09879938
0.028959379 0.11508705 -0.07481506 0.06637338 -0.021286458 0.032633234 0.093654945 -0.20821103
-0.031404722 0.051384002 0.037435487 0.003431174 0.11946531 -0.050607994 0.028376212 0.07499149
0.064188294 0.043044843 1.6276099e-06 -0.041802038 -0.15978354 -0.19278632 -0.07537435 0.11526882
-0.08651227 -0.13184735 -0.021721408 -0.3490422 0.19187926 -0.02979098 -0.029782036 0.0884626
-0.096759394 -0.107112974 0.027860373 0.08688476 0.14930215 0.10797969 0.1047362 0.054080322
0.08997898 0.18811682 0.13133222 0.31807646 -0.037843693 0.044326488 0.07063699 -0.17305598
0.009777984 0.20323844 -0.014527687 -0.01821104 -0.17335969 -0.18355739 -0.10412734 -0.117843196
0.0324422 0.07041127 0.08666869 0.013455699 -0.08364323 0.050168883 -0.20895512 -0.1076075
-0.086061224 -0.19734536 0.0032643762 0.0418935 0.00060463406 0.17657891 -0.070137225 0.008949436
-0.03277952 0.12388911 -0.08080638 0.114334084 -0.03179782 0.0076545635 0.045110304 -0.039314486
-0.004205106 0.102723025 -0.077786565 -0.051625498 0.15466507 -0.019708388 0.013353908 0.15766668
0.028902786 0.109152816 0.1483902 -0.08620309 -0.04624436 0.12621139 0.018049901 -0.007095663
0.08159572 0.13854785 0.21344683 -0.03971434 -0.06688982 0.08866105 0.12881997 0.23251659
-0.007038999 -0.010655605 0.03269663 0.11518124 -0.18290679 -0.08911056 -0.16573733 -0.14284971
-0.15139292 -0.10598709 -0.23554245 -0.06621521 -0.11369507 -0.28156176 -0.055813055 0.038048837
0.101807065 -0.0307323 -0.15663789 0.009886634 -0.11942876 -0.048580296 -0.04383988 -0.26934943
-0.1523845 -0.043586493 -0.047355905 -0.08785958 -0.1993903 -0.27113602 -0.024052223 -0.17261586
-0.09092101 0.1827212 0.0057053207 0.15492176 -0.021834183 -0.07561041 -0.093609266 0.027507236
-0.011209292 -0.015235675 -0.096108265 0.120850466 -0.014789542 0.0040502683 0.09733297 0.021356074
-0.038465988 0.12027859 -0.017047679 0.02913483 -0.013692673 -0.15461706 0.2775803 0.0073184404
-0.0618162 0.018529408 0.109619156 0.17362143 0.059876166 0.035931665 0.055232424 0.07714182
0.070209615 0.14579989 0.03514658 0.024463944 -0.15060028 0.06227315 0.04089826 -0.005287506
-0.07032863 0.18744786 -0.018895686 -0.08964601 0.0722253 -0.15858503 -0.21848382 0.081924826
-0.13983953 -0.11042334 -0.13540415 -0.07920217 0.050213795 0.07337682 -0.07727401 -0.0002633786
0.09476882 0.40160584 -0.12026838 -0.060827993 0.03563502 0.04628631 -0.088624045 0.042238437
-0.047273133 -0.12559591 -0.16663285 0.15679552 -0.09175032 -0.05767614 -0.06628841 -0.06720663
-0.034857992 0.05017189 -0.032150466 -0.10759303 -0.15443407 -0.2278306 0.025120791 -0.00830908
0.044867862 0.04733785 0.07600742 0.10746208 -0.019867118 -0.04419511 -0.16571078 -0.0010122259
00000000: 2f70 303e 2803 9a3d 6e89 013e 07a8 0f3c
00000010: e3c2 25be c0e0 aa3e 21e2 013e f91e f4bd
00000020: 1ad5 c1bd fe75 b13d 61b1 12be d9db 023d
00000030: 2786 86be f2d4 97bd f623 053e 00c3 8dbe
00000040: c64b 84bd acd4 693d 6ab3 f6bc c23d 52be
00000050: c8e2 213e 555d 123e 4610 d23d d620 bc3b
00000060: ec02 a43d c78c 2a3e 0dc7 903d 7c7a 043d
00000070: c2cb 4a3d 53b3 ec3d 3645 3d3e 5457 cabd
00000080: 383c ed3c c2b2 eb3d a338 99bd c4ee 873d
00000090: f060 aebc 6daa 053d 2ace bf3d 4635 55be
000000a0: 3da2 00bd 0878 523d f455 193d 8cdd 603b
000000b0: 3aaa f43d 544a 4fbd 3b75 e83c 2395 993d
000000c0: 2775 833d ca4f 303d 4074 da35 9d38 2bbd
000000d0: 4c9e 23be c769 45be de5d 9abd 0f12 ec3d
000000e0: 582d b1bd fe02 07be 18f1 b1bc a9b5 b2be
000000f0: ff7b 443e 370c f4bc 75f9 f3bc e12b b53d
00000100: ca29 c6bd 0c5e dbbd 703b e43c a3f0 b13d
00000110: aae2 183e 7524 dd3d ef7f d63d 5483 5d3d
00000120: e646 b83d b2a1 403e f47b 063e ebda a23e
00000130: fd01 1bbd b18f 353d 20aa 903d 9635 31be
00000140: d633 203c bd1d 503e 8905 6ebc 522f 95bc
00000150: 3485 31be 78f6 3bbe b740 d5bd c657 f1bd
00000160: 1de2 043d c933 903d 5b7f b13d 4b75 5c3c
00000170: 244d abbd e37d 4d3d 55f8 55be 5261 dcbd
00000180: de40 b0bd e714 4abe 25ef 553b 8598 2b3d
00000190: 4e80 1e3a 1ad1 343e 1ba4 8fbd a8a0 123c
000001a0: d143 06bd 93b9 fd3d d17d a5bd fd27 ea3d
000001b0: 6e3e 02bd 22d3 fa3b 95c5 383d 3a08 21bd
000001c0: fcca 89bb 7360 d23d 904e 9fbd 4275 53bd
000001d0: 8560 1e3e 7c73 a1bc 5aca 5a3c 6073 213e
000001e0: 89c5 ec3c 838b df3d 9af3 173e 3f8b b0bd
000001f0: ba6a 3dbd 8f3d 013e 63dd 933c bc82 e8bb
00000200: a81b a73d 7ddf 0d3e ce91 5a3e 81ab 22bd
00000210: 88fd 88bd ed93 b53d 62e9 033e d418 6e3e
00000220: 67a7 e6bb d994 2ebc e7ec 053d 24e4 eb3d
00000230: eb4b 3bbe 997f b6bd 0cb7 29be 3247 12be
00000240: bf06 1bbe c20f d9bd 0a32 71be d79b 87bd
00000250: f6d8 e8bd dd28 90be 3b9c 64bd 19d9 1b3d
00000260: 3980 d03d 4ec2 fbbc af65 20be 8cfb 213c
00000270: 1197 f4bd 22fc 46bd 7291 33bd 2be8 89be
00000280: af0a 1cbe c087 32bd 44f8 41bd b9ef b3bd
00000290: f92c 4cbe 57d2 8abe 2b09 c5bc 36c2 30be
000002a0: cb34 babd 441b 3b3e b3f3 ba3b cfa3 1e3e
000002b0: 9add b2bc a1d9 9abd 37b6 bfbd db56 e13c
000002c0: 2ea7 37bc 0d9f 79bc 69d4 c4bd 7380 f73d
000002d0: d64f 72bc 1db8 843b 8256 c73d eff2 ae3c
000002e0: 838e 1dbd 9f54 f63d 93a7 8bbc 2bac ee3c
000002f0: 3c57 60bc ef53 1ebe 011f 8e3e 87cf ef3b
00000300: fc32 7dbd fcca 973c 0280 e03d d1c9 313e
00000310: b640 753d 152d 133d 653b 623d 88fc 9d3d
00000320: 0fca 8f3d 914c 153e dcf5 0f3d 9c68 c83c
00000330: f636 1abe 2112 7f3d ef84 273d d142 adbb
00000340: 7508 90bd 55f2 3f3e 20cb 9abc 5498 b7bd
00000350: dcea 933d 1d64 22be 39ba 5fbe 34c8 a73d
00000360: 1832 0fbe a225 e2bd 63a7 0abe bf34 a2bd
00000370: fbac 4d3d 9646 963d d641 9ebd 1416 8ab9
00000380: 2816 c23d 489f cd3e 454f f6bd c626 79bd
00000390: 07f6 113d b796 3d3d 8680 b5bd 3602 2d3d
000003a0: 79a1 41bd 379c 00be cda1 2abe 018f 203e
000003b0: 97e7 bbbd d13d 6cbd 38c2 87bd a1a3 89bd
000003c0: 41c7 0ebd 0a81 4d3d 35b0 03bd bc59 dcbd
000003d0: f723 1ebe 6d4c 69be 1eca cd3c cf22 08bc
000003e0: 5dc7 373d 55e5 413d c7a9 9b3d 1415 dc3d
000003f0: 5ec0 a2bc ef05 35bd 16b0 29be aaac 84ba

layer1.weight f4 [2, 1000]
0.02851578 0.05313694 -9.4147545e-06 -0.019295154 0.023486191 0.010092265 0.012601823 -0.004353929
0.023328759 -0.028890945 -0.027789328 0.0047139623 -0.004730859 -0.012161246 -0.020156398 0.008098898
-0.0151239205 -0.021443743 -0.0096289 -0.0020220373 -0.01825661 0.0038914967 0.025558911 -0.0019137235
0.003870166 0.026628664 -0.02216039 -0.036288556 -0.01780461 0.000598215 0.007235632 -0.014805964
0.00827481 0.020763488 -0.0015473012 -0.010651159 0.0031959838 0.0060017547 -0.020922111 0.0064299162
-0.0006427303 -0.044329286 -0.008806355 -0.036767002 0.025760446 -0.017726388 -0.001005657 -0.02492944
-0.0054789525 0.005759861 -0.020517183 0.008176371 -0.008495544 0.02314186 -0.028547276 -0.008039643
0.01190909 -0.027576659 -0.0016044263 -0.013675359 -0.012946651 0.01663288 -0.0063703516 0.010004592
-0.00135694 -0.01231636 0.00875009 -0.006625183 0.011085553 0.010826827 -0.0015279964 -0.02291547
0.0055528614 0.02026175 0.002282817 -0.015569187 0.0055951104 0.010624985 -0.004134257 -0.01942223
0.022465281 -0.0119901495 0.027918668 0.025238702 0.0029201303 -0.0040290826 0.034682333 -0.00059364585
0.013591991 -0.020475531 0.0007675928 -0.030856613 -0.015521752 0.025893955 -0.012491331 -0.0038490077
-0.028042722 -0.009671092 -0.037371814 0.007421795 0.035495833 -0.019766001 -0.0133131705 0.02913401
0.016722059 -0.029290028 0.006320252 0.0076393248 0.026678804 -0.006517991 0.0008860444 0.026133189
-0.00041412376 -0.007300642 0.047621798 0.013258765 0.003942313 -0.007074814 -0.0057724207 0.022654723
0.036627334 0.013389655 0.006312897 -0.036010794 0.018082386 -0.0013164405 -0.032833103 0.011573356
0.022362467 0.01538847 -0.010671146 4.2800624e-05 -0.0043666773 0.010257219 -0.005499562 0.0041282005
0.004917583 -0.0022659493 0.058286566 0.011729784 0.023714595 -0.023164237 0.026667137 0.0033937613
0.01202151 -0.013735676 0.012945684 -0.037578266 -0.011529715 0.019425921 -0.00011741339 0.03934882
0.016684806 -0.007481141 0.012460691 -0.03581618 0.021494132 0.014892369 -0.020083059 0.015402379
-0.00067482935 0.0017329346 -0.02841641 -0.0035742018 0.018711045 -0.020898383 0.0043115458 0.019570159
0.035911776 -0.0017391822 0.00070372724 0.045204755 -0.0041402215 -0.040222533 0.028700262 -0.030853419
0.018192096 -0.03379655 0.002523284 0.021767728 0.0016226972 0.02573061 0.02090924 -0.0012909181
-0.002869662 0.007228074 0.003256456 -0.00785535 0.035734586 -0.0040640817 -0.003155934 -0.021990336
-0.011402381 0.028054731 -0.013084522 -0.028120512 -0.0013230593 0.048923872 0.015873209 0.045062795
0.00016314862 0.0042628227 -0.0069023264 -0.004785135 0.0055958442 0.022961235 -0.013574143 -0.0014004735
-0.00038926845 -0.036443427 -0.032685574 -0.018635072 -0.011847518 -0.009799215 -0.03147187 0.024721386
0.01283406 0.0071842857 -0.024618434 -0.023989791 0.03179111 0.005675566 0.020475816 -0.0011039446
-0.0048682354 -0.027226357 0.0068179364 -0.010405307 0.010428999 0.054199927 -0.013657735 0.01122623
-0.040983412 0.012672488 0.025659624 0.012513146 0.01841373 0.0072689364 0.017609008 -0.025108436
-0.0003876843 0.018290145 0.04070069 -0.007893873 0.01453097 0.018814895 0.0011627456 -0.025183663
0.035611782 -0.0048091183 -0.0050486373 -0.013111815 -0.024745695 -0.03254595 9.1295675e-05 0.013313058
00000000: ed99 e93c 1fa6 593d 10f4 1db7 df10 9ebc
00000010: 1d66 c03c 075a 253c e077 4e3c 67ab 8ebb
00000020: f41b bf3c b4ac ecbc 72a6 e3bc 9577 9a3b
00000030: 5205 9bbb f63f 47bc 081f a5bc 3eb1 043c
00000040: 52ca 77bc caaa afbc 89c2 1dbc 2884 04bb
00000050: e38e 95bc 7b08 7f3b ec60 d13c e8d5 faba
00000060: 9ca2 7d3b 5b24 da3c b589 b5bc 4fa3 14bd
00000070: f9da 91bc 87d1 1c3a e118 ed3b b794 72bc
00000080: 1293 073c 3118 aa3c d0ce caba 3382 2ebc
00000090: b673 513b 5eaa c43b d964 abbc 0cb2 d23b
000000a0: e67c 28ba a092 35bd 8848 10bc ff98 16bd
000000b0: 9207 d33c ee36 91bc 40d0 83ba d338 ccbc
000000c0: c988 b3bb 37bd bc3b a713 a8bc 30f6 053c
000000d0: e530 0bbc ff93 bd3c fadb e9bc b5b8 03bc
000000e0: 581e 433c 72e8 e1bc 9d4b d2ba 9d0e 60bc
000000f0: 311e 54bc ad41 883c 62be d0bb 4dea 233c
00000100: 5adb b1ba 8fca 49bc 8a5c 0f3c 1018 d9bb
00000110: 2ea0 353c 0163 313c 0d47 c8ba 39b9 bbbc
00000120: c7f4 b53b f8fb a53c 509b 153b e715 7fbc
00000130: 3057 b73b 6b14 2e3c a978 87bb 5e1b 9fbc
00000140: 1c09 b83c 5572 44bc b1b5 e43c 65c1 ce3c
00000150: a85f 3f3b 6506 84bb 100f 0e3d e69e 1bba
00000160: f1b0 5e3c 4dbc a7bc 4838 493a 02c7 fcbc
00000170: f24e 7ebc 8f1f d43c 71a8 4cbc a23f 7cbb
00000180: dab9 e5bc 8073 1ebc 3013 19bd 8732 f33b
00000190: 1464 113d 4fec a1bc 7c1f 5abc 73aa ee3c
000001a0: b3fc 883c a4f1 efbc 1e1a cf3b 4d53 fa3b
000001b0: 828d da3c df94 d5bb 6f45 683a 4515 d63c
000001c0: c01e d9b9 393a efbb 130f 433d 4b3b 593c
000001d0: 852e 813b d7d3 e7bb 9326 bdbb 6696 b93c
000001e0: 8b06 163d 4960 5b3c 6bdc ce3b 0e80 13bd
000001f0: 8321 943c 6a8c acba 017c 06bd 2c9e 3d3c
00000200: 7e31 b73c ec1f 7c3c 08d6 2ebc d284 3338
00000210: 5816 8fbb e50d 283c ab35 b4bb db45 873b
00000220: ad23 a13b 5280 14bb e5bd 6e3d 482e 403c
00000230: 1c45 c23c edc2 bdbc 0a75 da3c de69 5e3b
00000240: def5 443c 9a0b 61bc 221a 543c abeb 19bd
00000250: 21e7 3cbc 1c23 9f3c d53b f6b8 3a2c 213d
00000260: 93ae 883c 5c24 f5bb ed27 4c3c fdb3 12bd
00000270: 7614 b03c 1fff 733c 3a85 a4bc 435a 7c3c
00000280: 08e7 30ba a323 e33a 88c9 e8bc 283d 6abb
00000290: e847 993c 1633 abbc de47 8d3b 9951 a03c
000002a0: 3a18 133d 45f5 e3ba 567a 383a 9f28 393d
000002b0: b2aa 87bb 62c0 24bd d01c eb3c 4fc0 fcbc
000002c0: 9707 953c 406e 0abd ae5d 253b 3c52 b23c
000002d0: afb0 d43a 00c9 d23c db49 ab3c 0634 a9ba
000002e0: f010 3cbb 7bd9 ec3b 446a 553b bab3 00bc
000002f0: 6e5e 123d fd2b 85bb c9d3 4ebb 1425 b4bc
00000300: 0dd1 3abc 09d3 e53c 7760 56bc fd5c e6bc
00000310: 816a adba 6664 483d 8808 823c c493 383d
00000320: e012 2b39 26af 8b3b e92c e2bb 9fcc 9cbb
00000330: 585d b73b 3319 bc3c 1566 5ebc 1890 b7ba
00000340: ba16 ccb9 b445 15bd 4fe1 05bd 94a8 98bc
00000350: 181c 42bc e38c 20bc a6e8 00bd 8184 ca3c
00000360: f345 523c 286a eb3b 99ac c9bc 3d86 c4bc
00000370: 6537 023d 19fa b93b e6bc a73c 3cb2 90ba
00000380: b885 9fbb cf09 dfbc ff68 df3b 057b 2abc
00000390: 64de 2a3c be00 5e3d b1c4 5fbc 39ee 373c
000003a0: 39de 27bd 44a0 4f3c 2234 d23c f003 4d3c
000003b0: 64d8 963c 4230 ee3b c440 903c 35b0 cdbc
000003c0: 1b42 cbb9 37d5 953c c4b5 263d 4e55 01bc
000003d0: 4e13 6e3c b221 9a3c 4567 983a f84d cebc
000003e0: a9dd 113d cf95 9dbb 0a6f a5bb f0d2 56bc
000003f0: 7cb7 cabc e74e 05bd fe75 bf38 031f 5a3c
