MLP_init_params.pt (torch, 49217 bytes, 2 tensors)

layer0.weight f4 [1000, 10]
00000000: 91f1 013e 9aa6 2c3d 9729 ab3c 59c5 9fbc
00000010: 384d b7bd 9566 553e 237a f23d e1ec fcbc
00000020: d228 613d 4504 f6bd dffc dabd 91a2 98bc
00000030: 9f9b 4e3c 794a c03d c619 1bbe 8404 473d
00000040: 2f02 8a3c d0f6 5b3d 09b8 8ebd d004 d7bb
00000050: 2bdc 1d3d c4c6 403d d54a f6bc 0488 e73c
00000060: 16f6 63be 0370 a53b 950d d3bc d0c7 54bd
00000070: 03fe e1bc 6b57 b83d ee6a bdbd ff3d 17bc
00000080: 7d83 acbd b8f7 48be 78e7 16be 5431 09bd
00000090: 8fe1 46be c7d1 2cbe 95c4 b5bd 7da6 83be
000000a0: 4706 d0bd fc18 393e e7c3 42bd 21ed d4bd
000000b0: 1a9b 62be 6dff f7bc 6b74 343e aa2d d7bd
000000c0: bb22 98be 7f93 533e d2b0 53bd e689 053d
000000d0: 4161 32be 323d 52be f7df 3abe ba43 b23b
000000e0: bf28 40be dc13 1ebc 4f5e f1bd ecf6 d8bd
000000f0: dc6b 47bd 6651 f63d c0a7 343e 1e9f 16be
00000100: b353 1dbd 37d7 ae3d 98ee c73c f421 3cbe
00000110: d2be 6cbe 34db 3cbd 8941 d7bd 6088 8c3c
00000120: c1f1 19be d9cb fa3d 432e e7bd d3fe ad3e
00000130: 3504 8ebe cb16 a13c 66ce 84bd 9bdc 443e
00000140: dff9 cabd eb19 2cbc 14e6 4bbe 1417 063e
00000150: a3f5 0cbd 8c78 113e 94a8 89bd 230c f13d
00000160: e953 babd a7f1 c93e 019d 4b3c dec2 d0bd
00000170: ffce 48be 41d2 f43c 5bd5 dbbd 98bc 3ebe
00000180: 2f4b 29be 3d80 bdbc 59f6 c9bc 3946 193e
00000190: 390d 57bc 09e3 5c3e 6882 43bd 1c4f 9abe
000001a0: 3ea2 07be 32c3 26bc 3288 92be 3534 3dbe
000001b0: 7ce4 503d 5893 2b3d faac f23d 1acf 0b3e
000001c0: 1901 973d 4faa 07bc 7d20 04bd 6765 583e
000001d0: 609a b6bd d5c7 c6bd 87eb 00bd 3f92 9a3c
000001e0: 4ad5 6c3d 3833 41bd 6119 14bd 05b6 103e
000001f0: 35ad a63b 37c5 48bd f4b1 51bd 55d2 623d
00000200: 0024 2d3d 029a 433e 1bef 4c3e 33a6 8d3e
00000210: a160 8c3b 8f1c 44be 5a7c 55bd 8cc8 2bbe
00000220: 9f94 5a3e 7805 12be fddc cfbc bfdd 0e3e
00000230: c12d 273d 5e40 06bc b0af a1bc 100e 8c3d
00000240: aab6 19bd b619 ca3d 878c 09be ebfb c93d
00000250: cf60 583d 436d 81bd c022 febb 4ef8 94bd
00000260: f40b 30be b8e2 94bd 7aa0 7c3d a1c8 53bc
00000270: 162a 61be c31e a6bd 6c50 de3c 7ceb 52be
00000280: 0a07 473d 8012 86bc b3b9 aebc 5742 343c
00000290: 436c 32be d182 ae3d 31a0 e6bd 63ab 093d
000002a0: 3ef6 383d a44d b1bd 3929 af3c 5b5f 223e
000002b0: 38ce 963d 2e3b 95bd ffe6 aebd 4815 27be
000002c0: 2bab f1bd 2ffe 10bb 05a2 51bd 4cbd cb3d
000002d0: 35ed 273d ff2a b93d 6912 a2bd 56ae 27be
000002e0: 1f95 41be 0955 c83d a076 eebd 2f24 efbd
000002f0: 1a54 833d c834 bebc 22a4 42bd d23a 933d
00000300: eee4 e93d 0ed0 adbb 2ce1 473e 99a7 843e
00000310: 90e0 29bd 10a1 a9bc c1a4 69bc 6213 fcbd
00000320: 0624 c73d 101c 2b3d f985 0dbc 50c4 663e
00000330: 7656 94bc aac8 903d 6a53 c1bd a264 583e
00000340: bd01 373e a2f1 093e c393 9f3c 2e20 8d3d
00000350: 4ea9 60bd 320f 463e cfda b1bc 8347 af3d
00000360: 38b9 56bd eac7 913e e4f8 143e 6742 cd3d
00000370: 6c13 a4bd 70ed b43d a194 ef3c 3f1d 9ebe
00000380: 6c97 23bd 0f68 353c 7b23 193c 58f8 49be
00000390: d0d0 7fbe c137 60be 5d98 6d3d a5c8 1c3e
000003a0: 487a a73d 6979 933d 794b 073e 5c1f 303d
000003b0: 0c53 0e3e 19da 083e deb5 10bb 1249 543e
000003c0: 2603 b53d 3a7d bf3c 7969 6e3d 06dd 30bd
000003d0: 34a0 ae3c 5723 da3d 2983 dfbd f0ac a1bc
000003e0: 12e1 3a3c 6f6c 17be cf59 af3d e1a1 1f3d
000003f0: cd04 2ebd 6a54 16be 5098 1fbe af00 2b3e
0.12689807 0.04215107 0.020893855 -0.019503282 -0.08950275 0.20839913 0.11839702 -0.030874671
0.05497057 -0.12012533 -0.106927626 -0.018632205 0.012610345 0.093892045 -0.1514655 0.04858829
0.016846744 0.053702176 -0.06968696 -0.006561853 0.038540047 0.047064558 -0.03006498 0.0282631
-0.22261843 0.005048753 -0.025763312 -0.05194837 -0.027586943 0.09001049 -0.09248911 -0.00923109
-0.08423517 -0.19625747 -0.14736736 -0.03349431 -0.19421981 -0.16876899 -0.08875386 -0.25712958
-0.10157447 0.18075937 -0.04755011 -0.10396791 -0.22129479 -0.030273164 0.17622535 -0.105067566
-0.29713997 0.20661734 -0.0516823 0.032602213 -0.17419912 -0.20531157 -0.18249498 0.0054402025
-0.18765543 -0.0096482895 -0.11785566 -0.105939716 -0.048686847 0.12027244 0.17642117 -0.14709136
-0.0384099 0.08537143 0.024405763 -0.18372327 -0.23119667 -0.046107486 -0.10510547 0.017154872
-0.15033628 0.12245912 -0.112881206 0.33983478 -0.27737585 0.019664189 -0.0648468 0.1922478
-0.099109404 -0.010504226 -0.19911987 0.13094741 -0.034413945 0.14206141 -0.06721607 0.11769893
-0.09098036 0.3944218 0.012427569 -0.10193418 -0.19610213 0.029885413 -0.10734054 -0.1862663
-0.16532587 -0.023132438 -0.0246536 0.14968194 -0.013125711 0.21570982 -0.047731787 -0.3013848
-0.13245484 -0.010178374 -0.28619534 -0.18476947 0.05099915 0.041888565 0.11849399 0.13653222
0.07373256 -0.008280351 -0.032257546 0.21132432 -0.089161634 -0.09706084 -0.031474616 0.018868564
0.057820596 -0.047167987 -0.036157016 0.14131935 0.005086566 -0.049016204 -0.0511951 0.05537637
0.04227066 0.19101718 0.20013086 0.27665862 0.00428398 -0.19151519 -0.052120544 -0.16775721
0.21345757 -0.14259899 -0.02537393 0.13951777 0.04081512 -0.008194057 -0.019737095 0.0683862
-0.037527718 0.09868185 -0.13432513 0.09862503 0.0528267 -0.06319668 -0.0077556074 -0.07273923
-0.1719206 -0.07269806 0.06167648 -0.012926252 -0.21988711 -0.08111336 0.027137958 -0.20597643
0.048590697 -0.016366243 -0.021328783 0.011002145 -0.17424111 0.08521045 -0.11261023 0.033610713
0.04515671 -0.08657387 0.021381961 0.15856688 0.07363552 -0.07286678 -0.08540153 -0.16316712
-0.11800226 -0.0022124161 -0.051179904 0.09948215 0.040997703 0.09041404 -0.07913668 -0.16375098
-0.18904541 0.09781844 -0.1164372 -0.11676823 0.064125255 -0.023218527 -0.04751981 0.071889535
0.11420618 -0.005304343 0.1951949 0.25909117 -0.041473925 -0.020706683 -0.014260472 -0.123083845
0.09723668 0.04177481 -0.008637899 0.22535825 -0.018107634 0.07069524 -0.09439738 0.21132138
0.17871757 0.13471082 0.019479638 0.068909034 -0.05484896 0.19341734 -0.021710781 0.08558562
-0.052422732 0.28472835 0.14548069 0.10022431 -0.08011517 0.0883435 0.029245676 -0.30881688
-0.03993933 0.011072173 0.009346838 -0.19723642 -0.24982 -0.21896268 0.058006633 0.15310915
0.0817762 0.072008915 0.13212384 0.042998657 0.13898867 0.13364448 -0.0022081058 0.20730999
0.08838491 0.023375142 0.058206055 -0.043179534 0.021316625 0.10651272 -0.10913689 -0.019735783
0.0114062 -0.14787458 0.085620515 0.03897274 -0.042485047 -0.14680639 -0.15585446 0.1669948

layer1.weight f4 [2, 1000]
00000000: 8de0 9cbc 64e1 ab3b 65d5 693c 9f4b c0bc
00000010: 9807 653b 6971 253c f3ba a23c c46d 4c3c
00000020: ccf8 69bb 3f38 8c3c 65d8 21bc 90b1 eb3c
00000030: 00bf f6bc 69e3 8b3d 7abe 023c bf83 a03c
00000040: 7713 9dbc 07a1 2a3c 2563 cebc ae8d 9dbb
00000050: 50da 2c3c 548f 36b8 66d2 85bc 9f16 fcbc
00000060: 0915 ef3b 95fe 15bd fdd0 12bd db6b 1c3c
00000070: 49f9 9a3b d001 f33b f9cf a2bb 6a07 8abb
00000080: d90a 853c 980e 633b bdfa 13bc eb4c 1c3d
00000090: 070d 8a3c 39c3 acbb bd3c d03c d227 36bc
000000a0: 5a03 353d ebe6 0f3c 1042 36bc 5329 bdbb
000000b0: e69c a6bb b8e5 e13c 7f30 183c 7c04 a9bb
000000c0: 6128 98bc ad46 1c3c fecc 24bd 25ab a13c
000000d0: 169b 19bc ea75 303c 1764 f5bc d6b8 d33c
000000e0: 9fa9 6dbb ffed e6bb 60be 8dbc 6522 8eba
000000f0: abd4 273c 4ad1 9abc a3da 933c 1053 84bc
00000100: d659 e13c 2df3 7ebc 94dc 42bc 5dc8 2ebc
00000110: df7e e8bc c44e 79bd 1fdf 173c 5b00 90ba
00000120: 152e 483a ec9e fcbc 1359 af3b 39b8 713c
00000130: 87ca 16bd aa4d e3bc 0a39 5bbd efa7 04bd
00000140: fa05 b43b fda3 173d e90a d93c 7aa3 76bc
00000150: 0b95 603c 21d0 abbb ac1f b63c 8f13 9dbc
00000160: e28f afbb bf6f c9bc 11fc ad3b 3709 1bbd
00000170: 9ef2 88bc 1ea0 bfbc 44e7 363c ba06 fa3c
00000180: 61a6 8b3c 0e65 823b eb89 573c 9014 373d
00000190: 9bf7 43bc fd4d 693b 28ae 6c3c c84f 273d
000001a0: 90a0 353c 918c 09bc 4aa0 d9bc 1d85 c43c
000001b0: afcf 473b a647 eb3c 19a1 1abc 99e5 6fbd
000001c0: 50c0 89bc 20c8 65bb 5e05 bc3b 73fd 44bc
000001d0: 6f57 38bc 7415 9abc d072 873b c60c a4bc
000001e0: 9ee9 9bbc 96ff f43c a4c8 9cbc 13f8 a8bb
000001f0: 2aaf 013c 93b4 aeb9 96a3 1dbd 7b62 a73b
00000200: 50aa 60bb dc05 e33b 3da0 7ebb 65d7 5cbc
00000210: 5e2c abbb 3a34 89bc 2a52 a33c 6da0 e43c
00000220: f903 1bbd 58e9 11bb 0767 cfbc 9400 37bc
00000230: 461c b23c 4477 443d 86fb c3bc fbfb 18bc
00000240: a857 d0bc 219b 2fbc 386f dcbb 6294 5e3c
00000250: a193 71bc c3fe 86bc adbf d33c 22cc 9ebc
00000260: f9ef b13c dd97 2b3d 9e45 4d3c 4524 1ebc
00000270: 8cab 4e3d 2f49 2cbb 27c1 9bbc 3d9e a7bc
00000280: c422 a63a 9b61 d03c 7e78 5abc 272b 98bc
00000290: 8f3d 87bb 1a97 a13c 37ac 503c be0e 2aba
000002a0: 18d6 8f3c 1ea7 97bb 2315 5b3d b59a 843c
000002b0: f37b 223c 0339 6239 9941 703d f20c 5ebc
000002c0: 1c74 7c3c 38a9 183b a03f c3bb 9bf3 483d
000002d0: da02 8d3b 9e9d 803c 2884 863c 8e45 bdbc
000002e0: b492 b5bd 3117 e9bb 7b6d b3bc 0105 bebc
000002f0: 7f0b 9b3b ce21 e8bc 4fc7 023d 97fa 793c
00000300: 347b 27bc 1d0d 933b 8b7e e33b 10c7 adbb
00000310: a1ab 4c3c e656 cbbb 045e 86bc 2f4f 3aba
00000320: 2f8e e7ba f817 7a3b be67 b4bc c13b 1b3c
00000330: 203b 803c 0f15 993c 2b7b 263d e564 f7bc
00000340: 2249 8ebc 4283 cdbc f11e 84bc 90f7 a0bd
00000350: f37b ff3c 8777 1c3b e762 d5bc 94be 913c
00000360: 137b d13b fd1a 86ba 2fec 96ba b021 443c
00000370: 42da ab3c 480d f93b d9d0 cabc d882 373b
00000380: a058 833d 8d41 083b 0576 50bc e31b ad3c
00000390: 25d3 b3bc 1bcc a13c 0b38 cb39 b990 10bb
000003a0: 2ff9 443d 8704 37bc cbea bebc 9610 a5bc
000003b0: 6153 5e3d 9bbd fb3b fe27 79bc e5d0 af3c
000003c0: e169 dbbb d377 c83a ca2e 823b bde4 47bc
000003d0: 459e aa3c c13e d23c d618 92bc 7eb7 99bc
000003e0: 85f0 733c fdd5 a73c af47 ff3b 08d2 4e3c
000003f0: 5478 263d fa90 54bc d641 93ba 3a1d 75bc
-0.019150043 0.0052453745 0.014272069 -0.023473559 0.0034947153 0.01009784 0.019864535 0.012477342
-0.0035701273 0.017116664 -0.009878253 0.028771192 -0.030120373 0.068304844 0.007979983 0.019594071
-0.01917432 0.0104143685 -0.02519376 -0.0048081493 0.010550097 -4.3525666e-05 -0.016335677 -0.030772505
0.0072962088 -0.03661974 -0.035843838 0.009547199 0.004729424 0.0074159876 -0.00496864 -0.0042123096
0.016240524 0.003464615 -0.009031949 0.038159292 0.016851915 -0.005272296 0.025419587 -0.011117892
0.04419265 0.0087830825 -0.011124149 -0.0057727485 -0.0050846217 0.027575359 0.009288906 -0.0051580053
-0.018573942 0.009538335 -0.04023456 0.019734928 -0.009375354 0.0107703 -0.029954953 0.025844973
-0.0036264432 -0.0070474143 -0.017302692 -0.0010843991 0.010243575 -0.018898625 0.01804859 -0.016152889
0.027508657 -0.015560907 -0.01189341 -0.0106678875 -0.02838081 -0.060866132 0.009269505 -0.0010986434
0.0007636261 -0.030837499 0.0053511946 0.014753395 -0.03681424 -0.027746994 -0.053521194 -0.032386716
0.0054938765 0.037021626 0.02649446 -0.015053624 0.01370741 -0.0052433168 0.0222319 -0.019174365
-0.0053577283 -0.024589418 0.0053095897 -0.037850585 -0.016717251 -0.02339178 0.011163536 0.030520786
0.01704711 0.003979332 0.013155441 0.044697344 -0.011960889 0.0035599463 0.014445819 0.04084757
0.011085644 -0.00839533 -0.02656569 0.023989255 0.003048878 0.028720688 -0.009437823 -0.05856857
-0.016815335 -0.003506191 0.0057379445 -0.012023318 -0.011251315 -0.018809058 0.0041335598 -0.020025622
-0.019032296 0.02990703 -0.019138642 -0.005156526 0.0079152975 -0.00033322404 -0.038486086 0.0051081753
-0.0034281202 0.0069281887 -0.0038852834 -0.013479088 -0.005223795 -0.016748536 0.01993664 0.027908528
-0.037845585 -0.0022264328 -0.025317682 -0.011169571 0.021741997 0.047965303 -0.023923647 -0.009337421
-0.025432423 -0.010718138 -0.0067271255 0.013585182 -0.01474467 -0.016478902 0.025848234 -0.019384447
0.021720873 0.041892875 0.012528805 -0.009652202 0.05045657 -0.0026288738 -0.019013 -0.020461196
0.0012675156 0.025437167 -0.013334392 -0.018575264 -0.0041272114 0.019725371 0.012736372 -0.0006487182
0.017558143 -0.004628076 0.053486954 0.016187051 0.009917247 0.00021574278 0.05865631 -0.013552891
0.015408542 0.0023294222 -0.0059585124 0.049060445 0.0043033184 0.015700158 0.016420439 -0.023104455
-0.08865872 -0.0071133603 -0.02190279 -0.023195745 0.004731595 -0.028336432 0.031928357 0.015257499
-0.010222245 0.004487647 0.0069425753 -0.005303271 0.012492091 -0.0062054275 -0.016402252 -0.0007107136
-0.0017666275 0.003816126 -0.022022124 0.009474696 0.015653193 0.0186868 0.040644806 -0.030199477
-0.017368857 -0.025087003 -0.016128035 -0.07859719 0.031187033 0.0023874955 -0.026048137 0.01779107
0.0063928454 -0.0010231432 -0.001151448 0.011970922 0.020978097 0.00760046 -0.02475779 0.0028001573
0.06413388 0.0020791024 -0.012723451 0.021131461 -0.021951267 0.019750645 0.00038760933 -0.0022058918
0.048089202 -0.011170513 -0.023305317 -0.02014951 0.054278735 0.007682515 -0.015207289 0.021461913
-0.0066959714 0.00152945 0.003972863 -0.012200532 0.020827422 0.025664689 -0.017834108 -0.018764254
0.014888887 0.02048778 0.007790528 0.012623318 0.040642098 -0.012974018 -0.0011234831 -0.014960581
