MLP_init_params.pt (torch, 49217 bytes, 2 tensors)

layer0.weight f4 [1000, 10]
000000 59 8e c9 bd 96 f0 c5 3d fa 48 ee bd cd 38 f3 3d
       -0.09841604 0.09665029 -0.11635013 0.11876068
000010 fa 63 e8 bc db d0 3a be e1 b0 60 3d 82 c5 3c 3e
       -0.028367985 -0.18243735 0.054856185 0.18434718
000020 89 eb e6 3d e4 76 62 bd 5e 58 dc bd 38 ed f7 bb
       0.112753935 -0.055289164 -0.10759042 -0.0075661205
000030 a2 0e 5f be 22 72 ae bc bc de 88 3d 0d f9 5e 3c
       -0.21782926 -0.021294657 0.06683108 0.013609183
000040 28 23 02 3c f4 17 81 be cb d8 99 bc a6 0a 64 bd
       0.007942952 -0.25213587 -0.018780133 -0.055674218
000050 00 79 99 3d 74 db 88 3d 0d 3a 85 bb 48 a9 a5 3d
       0.07493782 0.06682482 -0.004065758 0.080889285
000060 96 c7 02 be 0e 37 8f bd a9 e5 d4 bc e1 fc ca bd
       -0.12771448 -0.06992923 -0.025988417 -0.09911514
000070 a0 e1 f1 bb 0a ee 25 bd 8f 12 64 3c 8c 38 a3 3d
       -0.007381633 -0.040510215 0.01392044 0.0796977
000080 09 dd 47 be 79 39 89 bc 37 c3 8a bd 7b e2 14 3e
       -0.19517912 -0.016751038 -0.067755155 0.1453952
000090 5b c1 01 bd 10 1d 67 be cb 95 47 3e 5f 31 88 be
       -0.03167854 -0.2256968 0.19490735 -0.26600167
0000a0 e2 7d ef 3c 67 ab 01 3e 02 d9 c5 bb c8 51 3a bd
       0.02923483 0.12663041 -0.0060378322 -0.04548815
0000b0 1f 32 8f 3c 59 f3 c5 3d 32 77 a8 bc e7 75 eb bd
       0.017479954 0.096655555 -0.02056465 -0.114970975
0000c0 93 f7 03 3e e8 03 a6 3e bd 50 a8 3d cc 61 88 3d
       0.12887411 0.32424855 0.082185246 0.06659278
0000d0 f8 df de bc 17 b3 8e 3b 2d 30 41 3d 02 84 8e 3e
       -0.027206406 0.0043548453 0.047165085 0.2783509
0000e0 cb 38 00 3d 05 41 52 3d 7a 9a 32 3e dc 35 c9 bd
       0.031304162 0.05133154 0.1744174 -0.09824726
0000f0 63 7c 5d 3d a1 a7 60 3e 81 93 51 3d 90 c7 f2 3d
       0.054073703 0.21938945 0.05116606 0.1185447
000100 7d 76 5b 3d 26 51 43 3d b5 92 6a 3d 09 71 b4 bc
       0.053579796 0.04768481 0.057268817 -0.022026556
000110 66 dd 82 3d a4 d6 ad bc f8 ac 0c 3e 2f d9 12 3e
       0.06389885 -0.021220513 0.13737857 0.14340661
000120 52 7c 0c 3e 4d de 29 3e 3f e7 1c 3d c8 18 6c 3e
       0.137193 0.16588707 0.03830647 0.23056328
000130 8b af 42 3d d3 1d 09 bd 37 e6 2d 3e ed 55 60 3e
       0.047530692 -0.03347571 0.16982351 0.21907778
000140 a8 bb e1 bd 76 bc 6a bd a5 ff 4e 3d bf 34 fd bd
       -0.11022121 -0.057308637 0.05053677 -0.12363576
000150 5c 97 13 bd 43 90 26 3e ff 15 63 be c0 03 0e 3d
       -0.03603302 0.16265969 -0.2217636 0.034671545
000160 07 67 9f bd b6 4d 7e be 2e c1 8a 3c 1c 63 09 3e
       -0.07783323 -0.24834332 0.016937818 0.13416713
000170 bd cf a4 3d 27 b3 ec 3d c1 15 0d 3e 75 c9 f5 3d
       0.080474354 0.11557608 0.1377783 0.120013155
000180 73 fa c2 3c 93 18 89 3e 6f eb e2 bd 29 d5 ca ba
       0.023801064 0.2677656 -0.11080062 -0.0015474904
000190 78 09 98 3d 0b 47 91 3c d3 cd 32 be 6f cf 11 bd
       0.07423681 0.017734071 -0.17461328 -0.035598215
0001a0 70 77 3b be 8b 25 16 3e d6 a6 ec bd 30 0e a8 3d
       -0.1830728 0.14662759 -0.11555259 0.08205831
0001b0 08 3d 4e 3e 80 ed 60 bd 93 70 70 bd b6 eb 7a 3c
       0.20140469 -0.054913998 -0.05870111 0.015314987
0001c0 89 39 95 3c 8d 9b 15 be 86 94 a7 bd 7a cf eb bd
       0.018215911 -0.14610119 -0.081826255 -0.115141824
0001d0 fc ae de bd 2a ad 8c 3d 50 07 ec 3b 48 be 63 be
       -0.10873219 0.06868966 0.00720302 -0.22240555
0001e0 ad 40 88 3c e5 26 d7 bb f5 05 19 bd 1d af 00 be
       0.016632402 -0.006565916 -0.037359197 -0.125668
0001f0 5f 28 a7 bd cf e2 81 be 4f b6 a0 3c fd 82 1e be
       -0.08161997 -0.25368354 0.019618182 -0.15479656
000200 eb 91 91 bd a7 e7 9c 3d 06 0e 2a 3e 51 9b 79 3d
       -0.0710791 0.07661372 0.16606912 0.060939137
000210 b4 b5 20 bd 83 11 45 bd d9 b1 3e 3d b9 47 95 3e
       -0.039235786 -0.048112404 0.046556327 0.29156283
000220 ac c7 46 bd 2f c9 78 be ef 45 7e ba b4 87 d8 3d
       -0.048530266 -0.24295495 -0.0009699752 0.10572758
000230 27 c7 62 bd 43 33 42 bd 31 c3 3a bd de d0 0c be
       -0.055365708 -0.04741217 -0.045596305 -0.13751552
000240 0c 63 b3 bd a0 cb e0 bd ee b6 97 bd b1 e1 8f 3c
       -0.08759126 -0.109763384 -0.07407938 0.017563673
000250 1b 12 1d be cd 5d 01 be 38 26 34 bd 07 da 5f 3d
       -0.15338938 -0.12633438 -0.04398176 0.054651286
000260 3f 74 2c bc 9f 53 27 be 6d bd 3a 3d 45 48 72 3e
       -0.010525762 -0.16340493 0.045590807 0.23660381
000270 d8 cb 02 be a3 19 5e 3b 01 ab 3a bc ee 9a 5d bd
       -0.12773073 0.0033889792 -0.01139331 -0.05410283
000280 3a aa 18 3e f2 57 80 3d 10 46 b7 3d ba 4e f2 3d
       0.14908686 0.06266774 0.0894891 0.11831422
000290 05 93 2f 3d de 4c aa 3e 46 b7 aa 3c 0f b2 e2 3c
       0.042864818 0.3326177 0.020839345 0.027672796
0002a0 a1 5e 2d 3e 76 40 28 3d 08 f6 a1 3d ab 92 af 3d
       0.1693063 0.0410771 0.07908255 0.085728966
0002b0 d2 0c aa 3d a3 0f 8b 3c 46 36 0c 3e 4a 10 8a 3d
       0.083032265 0.01697523 0.13692579 0.06741388
0002c0 c0 57 0e bd b3 71 61 3e fb c7 26 3e ad b8 09 bd
       -0.034751654 0.22016029 0.16287224 -0.033623386
0002d0 9a b0 11 bd d9 cb b8 bc 42 6e 0f be 55 62 a7 bd
       -0.03556881 -0.02255814 -0.14006904 -0.08173052
0002e0 b1 55 09 be 21 e2 d4 bc ef e8 17 be 16 08 94 bd
       -0.13411595 -0.025986733 -0.14834951 -0.07228105
0002f0 17 79 ac 3d e1 15 7b bc 7d 25 f8 bd 25 a1 a1 bd
       0.084215336 -0.015325041 -0.12116525 -0.07892064
000300 2e 73 76 bd 82 f3 83 bd d9 a9 02 be 46 4d 08 be
       -0.060168438 -0.0644293 -0.12760104 -0.13310727
000310 2e 9c 15 be ed 82 3d be 31 44 61 bd 6c 79 65 bd
       -0.14610359 -0.18506975 -0.054996673 -0.056024
000320 59 4e 01 3d 75 3f 86 bd 89 d7 c6 bc 46 b7 91 3d
       0.03156886 -0.06555072 -0.024272697 0.07115035
000330 30 65 1f be af 41 54 be 58 4d e6 ba 13 fa c6 bd
       -0.15565944 -0.20728181 -0.0017570658 -0.097156666
000340 24 71 8c bd c1 90 17 3e 0d 8f 07 3e b9 c1 ca 3d
       -0.06857517 0.14801313 0.13238163 0.09900231
000350 bf 07 78 bd d6 e8 09 3d 5c e9 7b bd fa 36 91 bd
       -0.060554262 0.033669315 -0.061501846 -0.07090564
000360 98 fc aa 3d 32 23 4d bd 60 4a eb bd 5f a8 1e 3e
       0.0834896 -0.050082393 -0.11488795 0.15493916
000370 7e 92 17 3d 56 79 7b 3d 91 ec 6a 3d 3d c8 ec 3d
       0.03700494 0.06139501 0.057354514 0.1156163
000380 63 3a b9 bc aa d0 c0 bd 70 0f 1c 3c b2 76 03 be
       -0.022610849 -0.094147995 0.009525165 -0.12838247
000390 3f 32 63 3d 9c 39 09 3e 15 fe 0b 3e ab 55 3d 3e
       0.05546784 0.13400882 0.13671143 0.18489711
0003a0 c9 aa d8 3d a1 35 31 3d 90 07 0a 3c d1 4e 8f 3d
       0.1057945 0.043264035 0.008424655 0.06997455
0003b0 cb 34 0e 3e c7 44 02 bd 1d 59 29 bd 8a 83 3c 3e
       0.13887326 -0.031803872 -0.04134475 0.18409553
0003c0 2e f9 60 bd f0 78 8e 3c 35 ad 89 be 10 51 2d bd
       -0.054925136 0.017391652 -0.2688996 -0.042313635
0003d0 2f de c4 bd 50 88 e6 3d 99 56 e3 bc 4b ba 80 be
       -0.09612691 0.11256468 -0.027751254 -0.2514213
0003e0 01 f0 1b be 13 a2 c4 3c 0b 2d 0d be 26 da 86 bc
       -0.15228273 0.024003064 -0.13786714 -0.016461443
0003f0 c8 a9 6e bb 9e b1 b3 3d e8 a2 91 bd 16 81 15 3c
       -0.0036417115 0.08774112 -0.0711115 0.009125015

layer1.weight f4 [2, 1000]
000000 31 9c ef 3c 33 dd c1 bb 68 df d2 3a 63 46 e1 3c
       0.029249283 -0.0059162616 0.0016088309 0.027499383
000010 09 aa 7c 3c f9 7b bf 3c 0b 62 d1 bc ed da ae bc
       0.015421399 0.023374544 -0.025559446 -0.021344626
000020 3c 36 ed bc 24 2a 51 3b 2e f7 1f 3d c6 7b 94 3c
       -0.028956525 0.0031915987 0.03905409 0.018125426
000030 25 78 48 bd f6 3a 71 bc 25 9f 2e 3c 63 82 8e bc
       -0.048942704 -0.01472353 0.01065806 -0.017396158
000040 a8 e3 23 3d c6 62 66 bc d8 e7 d3 ba 14 92 b2 bc
       0.04001203 -0.014061635 -0.0016167117 -0.021798171
000050 8b 45 e4 bc 9d 8d 88 bc b8 1f ec bc 11 fc 09 bc
       -0.027865192 -0.016669089 -0.028823718 -0.008421914
000060 1e 62 94 3b 81 d2 7c b8 85 ce a4 bc 30 de cd ba
       0.004528298 -6.027753e-05 -0.020118007 -0.0015706476
000070 18 19 b4 bc 56 3a ba 3b 65 58 2c 3d 3a 01 ce 3c
       -0.021984622 0.0056832237 0.042076487 0.02514707
000080 c5 5a 27 3d 3b 86 66 3c f7 1b 61 3a db 9d c5 3c
       0.04085805 0.014070089 0.0008587236 0.024123123
000090 1c 36 91 bc 35 b7 3e 3c 2b cf c3 3c a2 36 5b bc
       -0.017725997 0.01164036 0.023902496 -0.013379725
0000a0 cb c0 a2 bc fb e6 85 3c d6 8e c7 bc 37 c8 e0 bc
       -0.019867321 0.016345492 -0.024360102 -0.02743922
0000b0 8b 3f 33 bd 67 a9 8c 3b 7d 65 1b bb 07 c7 af 3b
       -0.04376177 0.0042926553 -0.0023711615 0.005364302
0000c0 dd 31 57 bc 19 fa d5 bc c0 02 29 bb 69 aa bf 3c
       -0.013134447 -0.026120232 -0.0025788993 0.023396688
0000d0 22 c5 db ba 08 29 c8 bc 88 98 2e 3c fc 61 8d bb
       -0.0016767124 -0.024433628 0.0106564835 -0.004314659
0000e0 8a a3 5a 3c 31 a5 42 3c 23 93 b8 3c 5d ee f7 3c
       0.013344655 0.011880205 0.022531098 0.030265028
0000f0 68 08 ea bc cc e6 06 bb 34 bf 4e 3c 43 ea 94 bc
       -0.028568462 -0.0020584343 0.012618829 -0.018178111
000100 31 95 2b 3c 30 b8 33 3c 1d 18 54 3c e5 ff 8b bb
       0.010472582 0.010969207 0.012945202 -0.0042724484
000110 ef 3f 13 3c 4c 4d a7 bc cc 8d e6 bc e2 d2 99 3c
       0.008987411 -0.0204226 -0.028143786 0.018777315
000120 68 94 ee bc 05 66 42 bd a0 1e 5a bc 55 67 67 bc
       -0.0291235 -0.047460575 -0.013312966 -0.014123757
000130 9d e3 20 bc b5 4b 3f 3c e5 c4 a6 bc bc ea 9b 3c
       -0.009819892 0.011675765 -0.020357559 0.019032829
000140 86 52 4b 3c 49 c8 42 3d 77 35 a5 3c 82 9f 24 bc
       0.012409812 0.047554288 0.020167096 -0.010047795
000150 eb 83 66 bb 08 3f 03 3d 98 a2 b9 ba aa 91 cf 3c
       -0.0035173844 0.032042533 -0.0014162837 0.025338013
000160 be 8e a8 bc ac 44 1c 3c 1e 84 0a 3c cf 2d 6a bc
       -0.020575877 0.009537857 0.008454351 -0.014293148
000170 13 ec f0 bc d9 10 e9 3c 35 c5 e5 3c 1f ef 0f bc
       -0.029409444 0.028450416 0.028048137 -0.008785038
000180 64 c6 20 bc 98 12 02 bb 78 b9 55 3b 51 f1 67 3c
       -0.009812925 -0.0019847509 0.0032611769 0.014156655
000190 6e 5f 5c 3c cb 11 80 bc 32 78 ba bb 82 ff 03 3c
       0.013450487 -0.015633484 -0.005690598 0.008056523
0001a0 00 bc 27 bd da f7 4d bc 58 fb 6c 3c e7 2f 33 3c
       -0.040950775 -0.012571299 0.014464222 0.010936714
0001b0 ae 5b 32 bd 10 8e 7e bc d4 24 77 bc cf d1 01 3d
       -0.043544464 -0.0155368 -0.015084464 0.03169423
0001c0 e2 ef 9b 3b f8 03 28 bd 5a 9b a8 3c dd 50 c3 bc
       0.004758821 -0.04101941 0.02058189 -0.02384227
0001d0 64 54 cd bc ed dd 35 3d 03 1c d9 bb 19 35 14 bd
       -0.025064655 0.044401098 -0.0066256537 -0.03618345
0001e0 57 58 5b b9 0d 5e 8d 3c 51 36 28 3c ba ff 8f bc
       -0.00020918377 0.017256761 0.010266856 -0.017577995
0001f0 87 4d ed 3c 17 e5 44 3b 92 33 28 3c fd c1 07 3a
       0.028967632 0.0030043775 0.010266202 0.0005178748
000200 19 7d a5 3b f7 c0 0a 3a 98 e8 fc 3c d8 76 19 bd
       0.005050313 0.0005293036 0.030872628 -0.037466854
000210 e2 3d 04 bd 6c 44 66 bc 5d 05 42 bc 5c 2f 46 3d
       -0.03228558 -0.014054399 -0.011842099 0.04838501
000220 26 29 04 3d 36 59 07 3c 54 36 05 bc 76 7c 72 3c
       0.032265805 0.008261016 -0.008130629 0.014800182
000230 ac 5d 1d bd 95 81 99 bc f7 a4 f6 3c 9d dd 7b bb
       -0.03841941 -0.018738547 0.030107958 -0.0038431652
000240 5c 66 01 3d b8 c8 9f 3c f7 80 41 3c 26 01 87 3c
       0.031591758 0.01950489 0.011810533 0.01648004
000250 70 07 a3 bc fe bc 43 3c eb 6f ca bb fa 4f f8 3c
       -0.019901007 0.011946915 -0.0061778924 0.030311573
000260 0b 59 84 bc f3 46 25 3d 7f dd 70 bb 62 40 01 bb
       -0.01615574 0.040350866 -0.0036753116 -0.0019722213
000270 be 0e ee 3b a9 c3 ef 3c c5 17 50 3a 81 50 4a bc
       0.007264941 0.029268103 0.0007938112 -0.012348295
000280 a8 c6 6b bc 74 62 45 bc 6e 6a f6 bc 1f fd 91 3b
       -0.014390625 -0.012047399 -0.030080047 0.004455223
000290 12 1d 12 bc 08 a6 9d 3c 15 61 09 3c e9 6b c1 3a
       -0.008918064 0.019244209 0.008384963 0.0014756891
0002a0 c9 75 a6 3c 0b e2 a0 bc 8d c6 cc bc 54 56 14 bc
       0.020319836 -0.019639036 -0.02499702 -0.009053785
0002b0 6d 25 8a 3c 48 fd 17 bc bb 97 31 b9 17 9a fd 3c
       0.01686355 -0.009276696 -0.0001693656 0.030957265
0002c0 bd 8e 92 bc d4 00 19 3c 80 ea 9d bb 30 25 9c 3c
       -0.017890329 0.009338576 -0.0048192143 0.019060701
0002d0 1d 14 3d bc c6 33 aa bc 34 65 8f 3c 4f 2d 83 3d
       -0.01154044 -0.02077664 0.017504312 0.06405126
0002e0 f3 00 85 bb cb 9a 2a 3b 01 81 e7 3b d2 37 7b 3c
       -0.004058951 0.0026032205 0.007064939 0.015333133
0002f0 e0 b3 a7 3c 6d f7 0f bc f9 b0 2e bc 42 79 72 3c
       0.020471513 -0.008787018 -0.010662311 0.014799418
000300 bb 47 82 bc 78 e2 d8 bc 4b 77 c4 bc 38 18 9e 3b
       -0.015903344 -0.026475176 -0.023982665 0.0048246644
000310 0d b4 bb bc cb b2 05 3d 2e dc 60 3d 90 c1 ad 3c
       -0.022913003 0.032641213 0.05489748 0.021210462
000320 70 82 f9 3c 47 1e 8f bc 81 22 78 3c c4 83 5d bc
       0.030457705 -0.017470492 0.015144945 -0.013520185
000330 89 b7 8d bc 48 dd 1a 3c 6a 51 45 3b e1 6a 8c bc
       -0.01729943 0.009452172 0.003010834 -0.017140808
000340 e2 c9 88 bc 49 3e 71 3c 52 ef 24 3d 69 c3 4d bc
       -0.016697828 0.014724323 0.040267296 -0.012558796
000350 3a db b2 3b d5 13 d1 3a 88 0c 45 3a 66 43 ce bc
       0.0054582627 0.0015951345 0.0007516821 -0.025178622
000360 a5 8a a1 bc db 6c f2 3c 5b 0a ea bb a8 df a6 bc
       -0.019719431 0.029592922 -0.0071423477 -0.02037032
000370 de 8f ee bc 46 98 1b bd b1 5c 96 3c 61 80 bb 3c
       -0.029121336 -0.037987016 0.018354746 0.022888364
000380 32 2b 18 bc 4f 32 52 3b 64 3b cd 3c 88 8d 49 bc
       -0.009287642 0.0032073443 0.025052734 -0.01230181
000390 56 5f 3e bc 8b 7d c4 3b 53 96 06 ba 77 bf cc bc
       -0.01161941 0.005996411 -0.00051340944 -0.024993641
0003a0 86 59 f8 bc ce 9b e3 3c 1b 2c f4 3c 69 c6 56 3b
       -0.030316126 0.027784254 0.029806187 0.003277207
0003b0 d8 56 1a 3c 5f ae ae bc be 2e 7f bd c6 33 f1 3b
       0.009420119 -0.021323381 -0.062300436 0.007360908
0003c0 a3 b0 30 3c 0b 8a 46 b9 2a 3e 8f bc d4 35 8c b9
       0.010784301 -0.00018934176 -0.017485697 -0.00026742986
0003d0 c8 6d 28 3c 1c 62 92 bc d8 b6 b8 3b 60 f3 42 bb
       0.01028008 -0.017869048 0.005637031 -0.0029747114
0003e0 14 ea 1a 3d a5 31 ac 3c 04 87 b9 3b 0b 0b 45 3c
       0.03782089 0.021019766 0.005661847 0.012026559
0003f0 f5 19 e5 bb c5 3c 03 3c 23 9a 0c bc b3 0e 20 bc
       -0.0069916197 0.008010094 -0.008581671 -0.00976913
