MLP_init_params.pt (torch, 49217 bytes, 2 tensors)

layer0.weight f4 [1000, 10]
00000000: c25c cf3d 0e6c 4a3d 057d 47be 09df f4bd
00000010: e477 823c 4d68 653e fd7e 25be bdd1 173e
00000020: d27f 6a3e 10f9 903d 0f02 633d 648b 0ebd
00000030: 5cd6 2abe b65a 313d a3bd 9a3d bd1c 893d
00000040: 7305 24bd ae48 85bd 0da0 50be bf6d 19bd
00000050: a19b 6cbe d959 82bd 9de5 2bbe d50f 5abe
00000060: 1cb0 81be aaae 8cbd dd7e acbe 696c dbbd
00000070: c2ed 57bc a933 c63d fb42 58be bec4 d3bd
00000080: 0266 43be 4afe f6bd cbee 36bd 62c4 fb3c
00000090: 0dcc 2abe 4e20 bbbd c18f 28be 54f5 b9bd
000000a0: 6d57 b83d 604b c0bc f3d1 783d 7ab1 503d
000000b0: a7ce 22bd a226 4b3d 9a37 d1bd 5dc7 1f3c
000000c0: cf97 8dbd 3b25 d6bd d881 b93d 98ec ee3d
000000d0: 9623 d73d edc8 ffbc 9521 71bc a0a0 3b3e
000000e0: 2f49 143a ee28 583e b3e0 533e e69d f03d
000000f0: 5e0b 793d 468e 3b3e 51f9 1fbd edc2 ca3d
00000100: 6cab 1fbb 214f 13be 6ab9 77bd f884 873a
00000110: dcce f3bc dde2 503e 484e d83d 579d 173e
00000120: cc41 923c 263d e43c 7744 5ebe 23c5 d13d
00000130: 4a53 0bbe 8857 e7bc 10e5 883d 49cf 033e
00000140: d3d2 253d d2c2 8b3c 0e2b 8bbd 6e83 c63d
00000150: 79ab 87bd 8468 863e 445a 83bc a1f5 293d
00000160: 993d cebd 9a8f 6c3d 29d4 3e3d 6e31 553d
00000170: 0f88 05be 08e6 86bd 6e7b 86bc 9f5b f63d
00000180: 665a ccbd 9bfa 4f3e 2237 293e c7f1 c2bc
00000190: 3185 a63c 4753 e7bc 7f50 a1be bd53 b0bd
000001a0: 96c0 80bc f69f 9c3d e859 61be a10a f8bd
000001b0: bd98 03be 1d6c 653d 006e ddbc a344 d7bc
000001c0: a511 39be 16f9 ad3c cc0e f5bd ad21 d03d
000001d0: a71c 55be 7d42 02be 16f2 d9bd fae4 c93d
000001e0: c5a5 9fbd bd4a 08be 3e6c 5ebe 8974 a1bd
000001f0: 4ee8 e23d 2483 523c 685a bfbd 07e9 013c
00000200: b882 1cbd 9b63 363e 95a4 633e 6ee7 0b3e
00000210: 10a9 ce3c 105f 033e 189e 5b3d e13a e43d
00000220: 314f 813d eefd e03d f39c d43d 2c5a 323e
00000230: dcdd 1d3d 7279 613e 7a5b d93d 792d 8dbd
00000240: f8e0 20bd 3f7b a43d 1558 20be d72a b3bd
00000250: be6a 073d 3754 8fbd 940c 23bd 5dcb d2bc
00000260: 42ff 0a3d 5130 a93d e352 b4bd 5618 1fbe
00000270: be99 833d e90b 92bd f4d1 69be 1745 0b3e
00000280: ff73 d03d dc8f abbd 092f 32be 7545 b8bd
00000290: ff55 ecbd b1d3 70bd ad6e 24be 3746 c93d
000002a0: 004a 82bd 2b39 09be b874 bdbd 5350 c73d
000002b0: 32f7 2bbd 045a 153d 81ae b3bd 7390 10be
000002c0: 10dd 833d a8a6 9abd 5167 98bd 8263 ab3e
000002d0: 8053 11be 2a88 433d 1543 2c3d 74d0 a4bd
000002e0: 911d 19be 1b24 ffbd 5865 30be 03e4 7fbd
000002f0: 825d debd 07d8 6abd 27db 213d d507 79bd
00000300: 04c5 97bd b6a2 6ebd 53c3 4abe d618 363d
00000310: 3cd4 c0bd 66ad f8bd dd60 f2bc 115d 3ebe
00000320: c65c 28bd 0658 98bb 3f9d adbd 4a88 a4bd
00000330: 58d0 24be 1f7d c5bd a2f1 07be 27d5 dfbc
00000340: 7fe2 a3bd 1703 6cbe 80e8 a9bd 0f86 2dbd
00000350: 3d51 7ebe 9c05 71be 6e11 a93d ccae f6bc
00000360: cc2a 47be cc0f ffbd 54cb 81bd add2 a33d
00000370: 32f5 4fbd 1994 443d a8ee 2e3d f5fe 793d
00000380: 8918 763d e8ae 0e3e ad6f 5f3d 3fe8 6bbd
00000390: 69a7 38be ea47 153b b802 69bd 1c05 f83d
000003a0: 8aa5 18bd 0997 16be 1076 27bd 0500 503e
000003b0: 412a 4cbe 15e8 ff3d 2071 7f3e 4628 a6bd
000003c0: ea92 80bd 603e 5bbd 4987 e3bc 6e06 223d
000003d0: 1677 52bd f418 613e 45f1 a23d 7e9c a3bd
000003e0: d677 93be 9907 6ebd 8639 893d 59e8 3a3d
000003f0: 6b44 6cbe 0e6e 30be 4c65 01be d3f3 ea3d
0.10125114 0.049419455 -0.19481285 -0.11956603 0.015926309 0.22403069 -0.16161723 0.14826103
0.22900322 0.07078755 0.055421885 -0.034800902 -0.16683334 0.0432994 0.075557016 0.066949345
-0.04004426 -0.06508003 -0.20373555 -0.037458178 -0.23106243 -0.06364793 -0.1678681 -0.21295102
-0.25329673 -0.06869252 -0.3369054 -0.10714037 -0.0131792445 0.09677822 -0.21119301 -0.1034026
-0.19081882 -0.120602205 -0.044661324 0.030733291 -0.16679402 -0.09137021 -0.16461088 -0.09079996
0.0900105 -0.023473442 0.0607471 0.050950505 -0.03974786 0.04959739 -0.10215683 0.009752122
-0.06913721 -0.1045632 0.09057969 0.116662204 0.10504834 -0.031223739 -0.014717479 0.18322992
0.0005656657 0.21109363 0.20691185 0.11748867 0.060801856 0.18315992 -0.039056126 0.099004604
-0.002436365 -0.14385654 -0.06047956 0.001033931 -0.029761724 0.20399041 0.10561806 0.14806114
0.01785364 0.02786119 -0.21705805 0.10242679 -0.13605991 -0.02823998 0.06684315 0.12872042
0.04048426 0.017060671 -0.067953214 0.09693037 -0.06624503 0.26251614 -0.016034253 0.041494016
-0.100703426 0.057754137 0.04658905 0.052049093 -0.13040183 -0.06586844 -0.016416278 0.12029194
-0.0997818 0.20310442 0.16524938 -0.023796929 0.020327182 -0.028237952 -0.31506726 -0.08609722
-0.015716832 0.07647698 -0.22006953 -0.12111402 -0.12851234 0.056011308 -0.027029991 -0.026277846
-0.18073137 0.021236937 -0.11965713 0.10162673 -0.20811711 -0.12720676 -0.10641877 0.09858127
-0.0779529 -0.1330976 -0.21720979 -0.078835554 0.11079465 0.012848649 -0.093434155 0.007929093
-0.0382106 0.17811434 0.22230752 0.13662502 0.0252271 0.12829232 0.053617567 0.11144043
0.06313933 0.10985933 0.10381498 0.1741721 0.03854166 0.22018984 0.10613151 -0.06893439
-0.039277047 0.0803132 -0.156586 -0.087484054 0.03306078 -0.069984846 -0.039806917 -0.025731737
0.03393484 0.08261169 -0.08804872 -0.15536627 0.06425808 -0.07131178 -0.22833997 0.13600574
0.101783745 -0.083770484 -0.17400755 -0.08997623 -0.1153984 -0.058795635 -0.16057844 0.098278455
-0.06361771 -0.13400714 -0.09250778 0.097321175 -0.04198379 0.0364628 -0.08773518 -0.14117603
0.06438649 -0.075513184 -0.07441581 0.33474356 -0.14192009 0.047737278 0.042056162 -0.08047572
-0.14952685 -0.124580584 -0.1722616 -0.06247331 -0.10857679 -0.057334926 0.03951564 -0.060798485
-0.074106246 -0.058260642 -0.19801073 0.04445728 -0.094154805 -0.12142448 -0.029587204 -0.1859019
-0.0411041 -0.004649165 -0.08477258 -0.080338076 -0.16095102 -0.096430056 -0.1327577 -0.027323319
-0.08002185 -0.23048054 -0.08296299 -0.042364176 -0.24835677 -0.23537296 0.082552776 -0.030112647
-0.1944992 -0.12454185 -0.0633761 0.079991676 -0.050770946 0.0479928 0.04270807 0.06103416
0.060081992 0.13933909 0.05454986 -0.057594534 -0.18032612 0.002277846 -0.05688736 0.121103495
-0.037267245 -0.14706053 -0.040884078 0.20312507 -0.19937994 0.12495438 0.24945498 -0.0811315
-0.06278022 -0.053526282 -0.02777447 0.039556913 -0.0513831 0.21982175 0.07956175 -0.07988833
-0.28802365 -0.058112714 0.06700425 0.04563174 -0.23072974 -0.17229483 -0.12636298 0.11472287

layer1.weight f4 [2, 1000]
00000000: 8164 913c 89d6 f4bc 91c0 c33c 4066 16bb
00000010: 78e4 31bc 6596 983c 7f32 433d 645a 91ba
00000020: 427f 793c 9d4a 10bc 533c 933a 3d23 d23c
00000030: 6da8 ad3b d0de 81bc a5a3 19bc 3b47 a03a
00000040: b7fd e0bb f9bd fa3c a43d 6fba a90a 133b
00000050: c397 143d 9017 6f3c 133f a6bc 47ba 7dbc
00000060: f14e acbb a4e8 2fbc 48d7 393c d2ec 24bd
00000070: aded 043d 4f15 ac3b 1119 d33b 15c3 ebbc
00000080: c9b0 e6bc 0316 97bc 2155 b4bc a4eb c1bc
00000090: 6bff d9bb 635c 3abb e975 403c 97c5 0a3d
000000a0: fc1d e8bc 3057 103c 2b86 41bc c846 ca3b
000000b0: 2f57 4e3b 413d 9139 df3a 34bc 5410 75bc
000000c0: 9be7 eabc 1272 37bc fdd4 4ebb 70e2 45bd
000000d0: 565d 0b3d a73b 4cbb 2df6 753c 901c 1abc
000000e0: a20e 92bc a5ec 42bc a4b1 0439 4232 1abc
000000f0: 551c fa3b dbb1 f33a 705f 1ebc 79a1 983c
00000100: 14fd 353c 8db3 d8bb b885 5e3c 19f3 8fbb
00000110: c61f 403d 0329 e2bc 361c a73c a8db 213d
00000120: 5ae4 f2bb 333b d3bb 0e2a 473c da4a c43c
00000130: bf74 a3bc 4af2 bebc 9e90 403d a7b2 123d
00000140: 139f c03c d8c7 143d 7ab1 5fbc 9db6 84bb
00000150: abd8 a53a 0746 82bc 93bf ac3b 2de8 773c
00000160: f92e cabb 6dbf 283c 1873 c6bb 5738 c83c
00000170: 849f 6f3d 0acf 18bd 3837 8dbc 0388 ec3b
00000180: c2f0 84bb d359 123c a91c 913a 6e21 35bc
00000190: 5c15 1e3d 3d26 113d 523c 40bc a6dd 99bc
000001a0: c037 4a3c ecd7 c8b8 42d7 7c3c 0c60 45bb
000001b0: 2901 8e3c be56 f7bc efc6 f3bc df8e 0b3d
000001c0: 8475 c6bc 7008 933a f8c4 dbbc cf7a a6ba
000001d0: 4b04 c8bc d161 a1bb 8f21 a6bc befa 5d3c
000001e0: 4483 72bb 5654 d93b 5fc4 e5bb 04a6 253d
000001f0: cad4 a1bc 8970 11bc 2952 d3b8 cc81 eb3c
00000200: 032f 313d 82ed bcba 9b9a 21bc 851d 6aba
00000210: 3450 6f3b f143 de3c 717c a13c d1d9 87bc
00000220: d7bb adbc 13e8 21bc 2844 643c 2ca1 e3bc
00000230: 778c b1bc fd25 5f3c a97f df3c 780b 813c
00000240: 0e2d d2bc 88b1 6c3d 2f5f 47bc 94ef c43c
00000250: 1076 eb39 b880 1abb d172 263c 568d 1fbc
00000260: f9c7 953c be04 90bc 8922 adbc d0fe 01bd
00000270: 6352 b9bb 2278 d0bc e28f 433c 5d95 68bc
00000280: eb26 873a 28cb 713c 51ae 383c 2c8d b7ba
00000290: a552 89bb 2585 fabb d0d5 393c 0d06 85bc
000002a0: 359d f93b 6008 2ebc 527f 25bd f378 fa3b
000002b0: c409 313d b317 873c 3e1c 12bc c36d d9bb
000002c0: 719d bcbb d181 4abc d90f 463d cec5 69b9
000002d0: 427d 92ba e21b 913c 9a44 0f3d c787 923b
000002e0: 7a00 a0bb 433f 9dbb c63e c7bc 78ad 263a
000002f0: 8156 023c 79ec 4dbb 318a 7e3c f527 e5bb
00000300: 6464 4f3b 1528 62ba 09aa 8cbc 5520 86bc
00000310: 2630 be3a 0a26 a2bb c9ed 973c 4943 143c
00000320: e482 92bc 15cb 5838 0798 a93c 7edf 613b
00000330: 3a72 31bc 8fca d13c e9bf 423c 8f51 e2bc
00000340: 4f6f c5bc 17c0 a7bc f347 253d 1be3 a2bc
00000350: 7764 1abd 9ffc f6bc bf76 a3bc d4bc ca3c
00000360: 5d6d b1bc ade9 313b 797e 3fbd 469f 06ba
00000370: 3380 d13b 9966 a1bc 13f4 b83c ecd6 683c
00000380: 0079 7fbb ba64 4a3c ebbe 433c c686 f43b
00000390: 8da3 9a3a f150 0f3d 0044 1dbd ad3b 093d
000003a0: 0ec9 46bc 87fa 893b 5111 883d fd0f 1ebd
000003b0: facb c8bc c566 dd3c 0a84 2bbd fd3f 553c
000003c0: 5b81 4fbc f97e d13c 8ae8 4dbc 9ed4 df3b
000003d0: cdaf 2dbc fff5 f33b f472 adbc c819 293c
000003e0: ada9 60bc 4454 c93a d66c 56bb 14bb 0abd
000003f0: a008 c33c f3e4 e3bb 9249 acbc ad29 12bc
0.01774812 -0.029887455 0.023895534 -0.002294913 -0.010857694 0.018626401 0.04765558 -0.001108956
0.0152280945 -0.008806852 0.0011233188 0.025651569 0.005299619 -0.015853316 -0.009377395 0.001222826
-0.0068661827 0.030608164 -0.00091263116 0.0022436774 0.036277544 0.01459302 -0.020293748 -0.0154863065
-0.005258434 -0.010736618 0.011342831 -0.040264912 0.032453228 0.0052515636 0.006442197 -0.028779546
-0.02816047 -0.018443113 -0.022013249 -0.023671933 -0.0066527626 -0.0028436414 0.011746862 0.033879843
-0.02833461 0.00880985 -0.011811773 0.0061729886 0.003148507 0.00027702193 -0.011000364 -0.014957506
-0.028674891 -0.01119663 -0.0031560056 -0.04831165 0.03402456 -0.0031163485 0.015012306 -0.009406224
-0.017829243 -0.011897241 0.00012654677 -0.009411396 0.007632772 0.0018592434 -0.009666309 0.018631684
0.011107702 -0.006613201 0.013581686 -0.004392993 0.0469053 -0.027607447 0.020399194 0.03951612
-0.0074124755 -0.006446266 0.012156023 0.023961473 -0.01995313 -0.023308892 0.047012918 0.035814907
0.023513352 0.0363234 -0.013653154 -0.0040500895 0.0012653073 -0.015902532 0.005271861 0.015131039
-0.0061701504 0.010299546 -0.0060562007 0.024440927 0.058501735 -0.037306823 -0.017238244 0.0072183623
-0.004057021 0.008932549 0.0011071163 -0.011055334 0.03859459 0.035436857 -0.0117331315 -0.018782448
0.012342393 -9.576962e-05 0.015432181 -0.0030117063 0.017334538 -0.03019273 -0.029757945 0.0340718
-0.024225958 0.0011217725 -0.02682732 -0.0012701395 -0.02441611 -0.0049249907 -0.020279674 0.013548551
-0.003700451 0.006632368 -0.0070119346 0.040441528 -0.019754786 -0.008876928 -0.000100765676 0.028748415
0.043257724 -0.0014414045 -0.009863521 -0.00089307904 0.003651631 0.027132006 0.019712659 -0.016583355
-0.021207733 -0.009881991 0.013932265 -0.027786814 -0.021673424 0.013619897 0.027282553 0.015752539
-0.02565625 0.057786494 -0.01216869 0.024040021 0.00044910656 -0.0023575258 0.01015921 -0.009738287
0.018283831 -0.017580386 -0.021134632 -0.03173715 -0.005655573 -0.025447909 0.01193616 -0.014195767
0.0010311281 0.014757909 0.011272029 -0.0014003864 -0.00419076 -0.0076452666 0.011342481 -0.016238237
0.0076176175 -0.010622114 -0.040404625 0.007643813 0.043222204 0.016490793 -0.008917866 -0.006635399
-0.005756073 -0.012360052 0.048354957 -0.000222943 -0.0011176246 0.01771349 0.034977533 0.0044717523
-0.0048828693 -0.004798801 -0.024321925 0.00063582463 0.007955194 -0.0031421466 0.015535877 -0.0069932886
0.003164553 -0.00086271885 -0.017170923 -0.016372839 0.0014510199 -0.0049483823 0.018546002 0.009049245
-0.01788468 5.1687548e-05 0.020702375 0.0034465487 -0.010830456 0.025609283 0.011886575 -0.02762678
-0.024100928 -0.020477338 0.04035182 -0.019883683 -0.037693467 -0.030149756 -0.019954083 0.024748243
-0.021658594 0.0027147338 -0.046751473 -0.0005135428 0.0063934564 -0.019702243 0.022577321 0.014211398
-0.0038982034 0.012353117 0.011947374 0.0074623553 0.001179801 0.0349893 -0.038394928 0.033504177
-0.012132896 0.0042107734 0.06643928 -0.038589466 -0.024511326 0.027026543 -0.04187397 0.013015744
-0.012665118 0.02557324 -0.012567649 0.006830766 -0.010600996 0.0074450965 -0.021172978 0.010321088
-0.013712329 0.0015360196 -0.003271868 -0.033869818 0.023807824 -0.006954783 -0.021031175 -0.008921069
