MLP_init_params.pt (torch, 49217 bytes, 2 tensors)

layer0.weight f4 [1000, 10]
0.2522244 0.035717376 -0.24472103 -0.111774035 0.13129646 0.18335274 -0.15453568 -0.062251706
0.24309978 -0.044190925 -0.21622567 -0.06213135 0.21756178 -0.09986006 -0.2767985 -0.18345015
0.20016801 0.18191022 0.29961365 -0.23852588 0.23719765 0.12718597 -0.20466252 0.23479012
0.15466678 0.25117168 0.1283914 0.2869841 0.08841519 0.14844021 0.18597408 -0.265972
0.08116897 0.1807864 0.050129384 0.16834407 0.20111689 0.109615006 0.11064901 0.068189755
0.0678134 -0.29984194 0.1997467 0.22912313 0.124644734 0.12602536 -0.19543889 0.15198661
-0.019257793 -0.014207885 0.2759058 -0.0019493022 -0.2621239 -0.013255168 0.24873246 -0.068996884
-0.04089603 0.23680201 0.08324758 0.08539176 -0.09144636 -0.08953745 0.2070161 -0.07075791
0.11865918 -0.06282684 0.25824508 0.17366007 -0.07709391 -0.25405416 0.23114416 -0.07898445
0.11086796 0.05104468 0.08399983 0.25111786 0.08207383 -0.057785448 0.29871288 0.14574578
-0.14057434 -0.31336796 0.047859084 -0.026690414 0.1914733 -0.08635997 0.1473188 -0.03173986
0.26175267 -0.19860648 -0.077109866 0.20464118 -0.24399157 0.28762236 0.3052978 0.2938185
-0.15311562 -0.29270065 0.237626 -0.17939742 -0.008429872 0.11080522 0.23600616 -0.064925626
0.30955878 -0.3029368 -0.070386976 -0.3075075 0.04574094 -0.1053007 -0.104346335 -0.2825489
0.23496337 0.2725969 -0.14745195 -0.17574929 -0.3133744 -0.0096719675 0.29516393 -0.054230053
0.28895 0.168231 -0.197958 0.044439755 -0.30597693 -0.15421928 -0.060583577 0.17098577
0.11749656 0.004382626 0.2587549 0.110612914 0.23412828 -0.18292262 -0.19812755 0.310523
-0.2705854 0.11791362 0.044731405 -0.09674041 0.043743484 -0.2898595 -0.19987792 -0.1992968
0.18884018 -0.13928086 -0.2564681 -0.30774498 -0.004972491 -0.18029575 -0.036498085 0.18979003
-0.23931935 -0.25085214 0.19190456 -0.16670324 -0.16145746 -0.19335517 -0.0737797 -0.15209986
-0.11344187 -0.18931055 -0.017171545 0.1329689 0.25176334 -0.11117252 -0.052818783 -0.30529824
-0.17696957 0.09998243 -0.032856908 -0.25558347 -0.096907325 0.20432828 0.27657917 0.109191075
0.15200044 -0.14291629 -0.14484383 0.10088402 0.07278532 0.24201761 0.28388578 -0.15246537
0.2906855 0.29250753 0.26340404 0.28955305 0.2934211 0.3141942 0.15519603 0.21601456
0.20596352 -0.03574812 0.20377511 0.10508806 -0.28918317 -0.19827448 -0.019189471 0.18874452
0.18680207 0.29366252 0.06029761 -0.26580697 -0.09835781 -0.16695586 -0.19560027 -0.085577205
-0.09886899 0.2500612 -0.019252129 0.25830007 0.008677973 0.15461302 -0.19458397 -0.010446321
0.28915134 0.1313928 0.27722114 0.18288854 -0.0225813 0.10285003 0.12395157 0.118892096
0.10149151 -0.29991227 0.2612339 0.096638985 0.042106647 0.13055998 -0.15545268 0.17591055
0.13864362 0.20641482 0.13287976 -0.1933915 -0.27671325 0.16664504 -0.064479396 -0.18816602
-0.06990207 0.2216343 -0.077001154 0.010270484 -0.16497451 0.13455492 0.14881185 -0.12842767
-0.29000914 0.18556516 -0.14773881 0.20439701 -0.2562704 -0.18846132 0.13396496 0.00039218226
00000000: 8e23 813e 624c 123d 2698 7abe c9e9 e4bd
00000010: 9472 063e d2c0 3b3e 9a3e 1ebe a5fb 7ebd
00000020: 26ef 783e 8b01 35bd 436a 5dbe 717d 7ebd
00000030: 84c8 5e3e 6e83 ccbd 88b8 8dbe 5bda 3bbe
00000040: d8f8 4c3e ac46 3a3e f666 993e 2140 74be
00000050: f1e3 723e 0a3d 023e 0d93 51be d26c 703e
00000060: f860 1e3e 9399 803e 0979 033e 94ef 923e
00000070: 0613 b53d b600 183e fd6f 3e3e 7b2d 88be
00000080: eb3b a63d 1220 393e 7854 4d3d 6362 2c3e
00000090: 96f1 4d3e d57d e03d f39b e23d 12a7 8b3d
000000a0: c0e1 8a3d e284 99be 668a 4c3e 419f 6a3e
000000b0: bd45 ff3d cb0c 013e 2221 48be 61a2 1b3e
000000c0: 85c2 9dbc 30c8 68bc 8643 8d3e ba7f ffba
000000d0: 1b35 86be 342c 59bc b9b3 7e3e 3d4e 8dbd
000000e0: 9882 27bd 3a7c 723e b57d aa3d e0e1 ae3d
000000f0: 3b48 bbbd 695f b7bd 07fc 533e 86e9 90bd
00000100: 9603 f33d 5cab 80bd b338 843e f2d3 313e
00000110: 69e3 9dbd 6313 82be 0eb1 6c3e 99c2 a1bd
00000120: be0e e33d 3a14 513d 1a08 ac3d 8592 803e
00000130: 5316 a83d 6fb0 6cbd e5f0 983e 623e 153e
00000140: b8f2 0fbe c471 a0be e307 443d dba5 dabc
00000150: 9411 443e 7fdd b0bd bdda 163e a801 02bd
00000160: 7204 863e 7f5f 4bbe c7eb 9dbd 758d 513e
00000170: edd8 79be 3d43 933e fe4f 9c3e 616f 963e
00000180: 57ca 1cbe dcdc 95be 3b54 733e f5b3 37be
00000190: 721d 0abc d9ed e23d 99ab 713e baf7 84bd
000001a0: 7d7e 9e3e 881a 9bbe 0c27 90bd 9f71 9dbe
000001b0: da5a 3b3d e5a7 d7bd 88b3 d5bd 40aa 90be
000001c0: 3d9a 703e d291 8b3e a5fd 16be 9ff7 33be
000001d0: 9c72 a0be 2c77 1ebc ba1f 973e 5520 5ebd
000001e0: 41f1 933e bf44 2c3e 80b5 4abe 7606 363d
000001f0: 02a9 9cbe a9eb 1dbe 7c26 78bd e516 2f3e
00000200: 09a2 f03d 229c 8f3b 867b 843e 0689 e23d
00000210: 53bf 6f3e 1150 3bbe f3e1 4abe dffc 9e3e
00000220: 2b8a 8abe b27c f13d 4738 373d d61f c6bd
00000230: 5e2c 333d 7768 94be ccac 4cbe 7614 4cbe
00000240: 525f 413e a49f 0ebe c94f 83be c090 9dbe
00000250: 47f0 a2bb 739f 38be 047f 15bd 5158 423e
00000260: 2210 75be b16f 80be a182 443e 41b4 2abe
00000270: 1b55 25be e6fe 45be d019 97bd 11c0 1bbe
00000280: 3654 e8bd a0da 41be 57ab 8cbc 0029 083e
00000290: 20e7 803e 6bae e3bd 8258 58bd 0d50 9cbe
000002a0: 8337 35be 97c3 cc3d f794 06bd d6db 82be
000002b0: 5977 c6bd 6f3b 513e c99b 8d3e 929f df3d
000002c0: 01a6 1b3e a658 12be f151 14be 489c ce3d
000002d0: 7810 953d 77d3 773e 7a59 913e e21f 1cbe
000002e0: bbd4 943e 8cc3 953e e5dc 863e 4c40 943e
000002f0: 4a3b 963e 10de a03e b5eb 1e3e ec32 5d3e
00000300: 1ae8 523e 9f6c 12bd 6caa 503e 6938 d73d
00000310: d10f 94be 7708 4bbe 3d33 9dbc 3e46 413e
00000320: 0b49 3f3e ef5a 963e a0fa 763d da17 88be
00000330: d26f c9bd 7af6 2abe 704b 48be 1a43 afbd
00000340: d37b cabd 0608 803e a4b6 9dbc e83f 843e
00000350: 0f2e 0e3c e052 1e3e 0541 47be 0c27 2bbc
00000360: a50b 943e d68b 063e eeef 8d3e 2247 3b3e
00000370: 6bfc b8bc 09a3 d23d 52da fd3d b37d f33d
00000380: c8da cf3d 1a8e 99be 73c0 853e a9ea c53d
00000390: 0578 2c3d 84b1 053e fd2e 1fbe e521 343e
000003a0: 98f8 0d3e 685e 533e a211 083e 6c08 46be
000003b0: 5cad 8dbe ffa4 2a3e c60d 84bd 98ae 40be
000003c0: d128 8fbd 1af4 623e c8b2 9dbd 8845 283c
000003d0: 14ef 28be c4c8 093e 2262 183e 8b82 03be
000003e0: 147c 94be cb04 3e3e d848 17be 734d 513e
000003f0: e035 83be 01fc 40be 1c2e 093e d09d cd39

layer1.weight f4 [2, 1000]
0.02200065 0.031256646 0.0029734503 0.016846217 -0.020583488 -0.026695687 0.025418855 0.01775674
0.022206912 -0.014630969 -0.029623479 -0.023279155 0.016163101 -0.020040965 0.020698301 -0.00038970436
0.015830252 0.028302785 0.014323575 0.009440365 -0.016511902 0.016973034 -0.012791824 -0.022452712
0.020484814 0.017403057 0.023109363 0.021744383 0.028157003 -0.0060211886 0.02224997 -0.020799011
-0.023816366 -0.009078917 0.00090472883 8.30957e-05 0.0020930883 -0.025511004 0.02647774 0.0019804435
0.0030093938 -0.011943242 0.0071782465 -0.0025902712 0.009475175 -0.0068963235 0.0041158563 -0.015785092
0.024348034 0.011589529 0.022874277 -0.007457355 -0.0073007797 -0.00022861491 0.027724605 -0.030746587
-0.025297228 -0.02396052 -0.015715344 0.003072052 -0.007853452 0.00994135 -0.0062958435 0.017193032
0.013172046 -0.0059910915 0.0034104458 0.017879607 0.0074687684 -0.011118032 -0.00078469666 -0.02142684
0.010565145 0.0031356742 -0.0050480054 -0.00084644335 0.016118499 0.018817736 -0.0040172166 0.012298133
-0.011105191 0.026991105 -0.015986927 -0.011989676 0.0069012907 -0.025001325 -0.0012725589 -0.008910452
-0.030621987 0.013191962 0.017479764 -0.0052245106 0.02656355 0.011753855 -0.0197587 0.027500045
0.00044272834 -0.023899602 0.014320769 -0.014017372 0.010503579 0.004827771 -0.0130091505 0.025875937
-0.016737996 -0.0033615811 -0.0033560982 -0.010828072 0.0037017032 -0.029766273 -0.0050607435 -0.030744696
0.0041850703 -0.02891546 -0.008505341 0.016089808 0.01999644 -0.028643394 -0.0073733972 0.012886047
0.023049606 0.013288065 0.0025110648 0.01368784 -0.019742416 -0.01035896 -0.025853494 0.0067522526
0.020046704 -0.0029438264 0.028224837 -0.007593318 -0.0061243344 0.0112222275 -0.020090202 -0.02009614
-0.017432043 0.027464133 -0.030190043 -0.015660727 0.00960735 0.019734152 0.0061127124 0.026292404
0.012096313 0.022008125 -0.005378889 0.017235454 -0.01122335 -0.016977912 -0.024774222 -0.007889167
-0.0043675937 0.02416655 0.009674221 -0.012014136 0.020443276 -0.0030873262 -0.0032862404 -0.027612409
-0.007065737 0.0030314613 -0.029602868 -0.005372379 -0.017059488 0.00971571 -0.0119017465 -0.0076640677
-0.0022734143 -0.028809253 -0.02727319 0.029157046 -0.031458054 0.0076539377 -0.018810537 -0.0025272833
0.013389578 -0.00079054874 0.017432868 -0.016965084 0.020478295 0.030154036 -0.025493998 -0.023973811
-0.020862037 0.006788737 -0.027240288 -0.009774647 0.015948884 -0.020382106 -0.0121831745 0.009506883
-0.003417099 -0.009939784 0.029858893 -0.012736017 0.023370378 0.011015389 0.010641566 -0.008835106
0.015580537 0.005093439 0.015481484 -0.017393356 0.009341852 -0.0054064593 0.0048685693 -0.02098082
-0.008834084 0.009524932 -0.011876402 0.013280022 0.024675703 0.0012212022 0.016818032 0.017623179
-0.011728178 -0.022040218 -0.027973874 0.0043716826 -0.009677523 -0.029158384 0.016837297 -0.022341449
-0.029489918 -0.029668631 -0.029761272 0.017931402 -0.022913335 0.01373845 0.011570623 0.012812768
-0.012536562 0.023219123 -0.011272362 -0.020281386 -0.0059996094 0.014606656 0.011380197 0.025227392
0.014590315 0.0021864164 0.005705556 -0.016398167 -0.014331938 0.027327212 0.009171908 0.026492536
0.0018257956 0.0017978507 -0.02084744 -0.011124692 0.006003068 0.0050066463 -0.0110250935 0.02062961
00000000: b53a b43c f806 003d 38de 423b 1401 8a3c
00000010: b49e a8bc eab0 dabc 343b d03c 9576 913c
00000020: 45eb b53c bbb6 6fbc f0ac f2bc edb3 bebc
00000030: 7b68 843c f32c a4bc 7c8f a93c 3c51 ccb9
00000040: 72ae 813c 3edb e73c 6ead 6a3c c3ab 1a3c
00000050: f843 87bc 080b 8b3c cc94 51bc c0ee b7bc
00000060: c5cf a73c db90 8e3c d94f bd3c 4721 b23c
00000070: 84a9 e63c 644d c5bb 9245 b63c b062 aabc
00000080: 8a1a c3bc bdbf 14bc 532b 6d3a aa43 ae38
00000090: 322c 093b 74fc d0bc d8e7 d83c 54ca 013b
000000a0: 4039 453b 96ad 43bc 7f37 eb3b 8ac1 29bb
000000b0: c43d 1b3c 8efa e1bb 4ede 863b bd4f 81bc
000000c0: 8775 c73c 02e2 3d3c d662 bb3c d45c f4bb
000000d0: 613b efbb 59b8 6fb9 b61e e33c 44e0 fbbc
000000e0: 223c cfbc da48 c4bc 77bd 80bc 7b54 493b
000000f0: c4ab 00bc 0be1 223c 5d4d cebb 67d8 8c3c
00000100: 91cf 573c eb50 c4bb c981 5f3b 4178 923c
00000110: 92bc f43b 6828 36bc 1ab4 4dba 5787 afbc
00000120: 6e19 2d3c e27f 4d3b bd69 a5bb dae3 5dba
00000130: f10a 843c a727 9a3c dba2 83bb 1c7e 493c
00000140: 8cf2 35bc 731c dd3c 04f7 82bc 5970 44bc
00000150: 3924 e23b 94cf ccbc fecb a6ba 25fd 11bc
00000160: f6da fabc 1923 583c b931 8f3c 5f32 abbb
00000170: cd9b d93c 3e93 403c ffdc a1bc c647 e13c
00000180: fe1d e839 19c9 c3bc a9a1 6a3c 1fa9 65bc
00000190: 3417 2c3c 4732 9e3b 5524 55bc c6f9 d33c
000001a0: 1f1e 89bc f94d 5cbb fcf1 5bbb 3a68 31bc
000001b0: 4698 723b 66d8 f3bc 98d4 a5bb 4ddc fbbc
000001c0: ea22 893b 1de0 ecbc fc59 0bbc c6ce 833c
000001d0: 93cf a33c 8da5 eabc 8a9c f1bb 0020 533c
000001e0: 87d2 bc3c 2fb6 593c ad90 243b f642 603c
000001f0: d9ba a1bc a1b8 29bc b5ca d3bc 0042 dd3b
00000200: fc38 a43c 36ed 40bb c637 e73c 5ed1 f8bb
00000210: a4ae c8bb 6fdd 373c 3594 a4bc a9a0 a4bc
00000220: a5cd 8ebc 76fc e03c 1c51 f7bc ed4a 80bc
00000230: 2668 1d3c 84a9 a13c 264d c83b 2b63 d73c
00000240: 9d2f 463c 624a b43c 6441 b0bb 5e31 8d3c
00000250: 24e2 37bc 4315 8bbc 4ff3 cabc 9141 01bc
00000260: 081e 8fbb eef8 c53c a080 1e3c f0d6 44bc
00000270: a878 a73c bd54 4abb f75d 57bb 6b33 e2bc
00000280: b387 e7bb 7bab 463b b781 f2bc c80a b0bb
00000290: 57c0 8bbc a42e 1f3c 8bff 42bc dc22 fbbb
000002a0: 90fd 14bb 6201 ecbc 066c dfbc c2da ee3c
000002b0: 29da 00bd e2cd fa3b 8e18 9abc c7a0 25bb
000002c0: f65f 5b3c d43c 4fba 60cf 8e3c 5cfa 8abc
000002d0: 19c2 a73c 9905 f73c cad8 d0bc ba64 c4bc
000002e0: dde6 aabc 0e74 de3b 0627 dfbc d725 20bc
000002f0: 3ca7 823c 60f8 a6bc f09b 47bc c2c2 1b3c
00000300: 68f1 5fbb 7ada 22bc a39a f43c baaa 50bc
00000310: 3c73 bf3c e479 343c f659 2e3c 1fc1 10bc
00000320: 8245 7f3c dde6 a63b 0da6 7d3c 837c 8ebc
00000330: 910e 193c ab28 b1bb 8588 9f3b f8df abbc
00000340: d5bc 10bc 760e 1c3c 3e95 42bc 7394 593c
00000350: b324 ca3c bf10 a03a f8c5 893c 7c5e 903c
00000360: 8b27 40bc b08d b4bc 7729 e5bc 5540 8f3b
00000370: 798e 1ebc 90dd eebc 5fee 893c 6a05 b7bc
00000380: d794 f1bc a10b f3bc e9cd f3bc e0e4 923c
00000390: bfb4 bbbc 3c17 613c b692 3d3c a5ec 513c
000003a0: 2766 4dbc 0836 be3c b7af 38bc 2625 a6bc
000003b0: 5f98 c4bb c150 6f3c 0174 3a3c ada9 ce3c
000003c0: 370c 6f3c fb49 0f3b acf5 ba3b 7355 86bc
000003d0: 81d0 6abc 51dd df3c c545 163c e006 d93c
000003e0: 894f ef3a dca5 eb3a 40c8 aabc 5744 36bc
000003f0: 62b5 c43b cb0e a43b 98a2 34bc 6eff a83c
