MLP_init_params.pt (torch, 49217 bytes, 2 tensors)

layer0.weight f4 [1000, 10]
000000 01 41 6b 3d a9 82 58 3e 39 fc ad bd 46 74 8c be
       0.05743504 0.21143593 -0.08495373 -0.2743246
000010 54 f6 82 be 6e f2 68 3e b0 d9 74 be 9f 1b 2f bd
       -0.25578558 0.2274873 -0.23911166 -0.04275095
000020 90 71 8a be 04 4d 14 bc 42 a4 08 be 9a a1 cd 3d
       -0.27039766 -0.009051565 -0.1334391 0.10040589
000030 2b 1c f4 3c f0 75 93 3e 94 55 fc 3d 8b fa d2 bd
       0.029798588 0.28800917 0.1232101 -0.103016935
000040 d3 16 3c be 05 67 2b 3d e1 fd 32 be 81 39 72 be
       -0.18368082 0.041846294 -0.1747966 -0.23654748
000050 7c 45 d3 3c 8c ae 0b 3d cd 2a 5b be 70 36 a0 3e
       0.025789969 0.034102008 -0.21403046 0.31291533
000060 e9 a3 4a 3e 4b f4 40 3e bc 2f 29 be 79 d1 44 3e
       0.1978909 0.1884319 -0.16522115 0.19220532
000070 7f 47 0f be f0 5a 04 be 37 d1 6a bd 90 81 0f be
       -0.13992117 -0.12925315 -0.05732843 -0.14014268
000080 42 29 8a be 07 dd 98 bd 98 79 9f be 95 6b 30 3c
       -0.26984602 -0.074640326 -0.31147456 0.010767837
000090 9d 80 8f be 45 3a 02 be 91 48 9c 3d 07 0e 82 3e
       -0.28027812 -0.1271754 0.076310284 0.25401327
0000a0 03 cc 29 3e 5e db 87 3e 7f 0f 1c be c1 5e 20 3e
       0.1658173 0.2653455 -0.15240286 0.15661146
0000b0 12 7c 6e 3e 8c dd 15 3d df e8 7b 3e 4d 97 25 3e
       0.23289517 0.036588237 0.24600552 0.16170998
0000c0 34 df 94 be 67 8f 50 3e bc a7 3f 3e 68 ce 0c 3d
       -0.2907654 0.20367204 0.1871633 0.03437653
0000d0 71 9f de 3d d2 13 1a be 35 42 8a 3e c6 25 61 3e
       0.10870255 -0.15046623 0.27003637 0.21987066
0000e0 e1 38 86 bc 7c 5d 35 be a1 f6 8a 3d da 8f d9 bd
       -0.016384544 -0.17711443 0.06785322 -0.10623141
0000f0 40 c5 9a be bc 4b 96 be 6f e1 6a be 79 07 94 be
       -0.30228615 -0.29354656 -0.22937559 -0.2891195
000100 a3 6c 7d 3e e7 ab 8f be 27 c8 56 be 78 92 0d bd
       0.24748473 -0.2806084 -0.2097479 -0.03456351
000110 bb 30 3f be c8 ce 27 be 7e 99 fa bd bf 66 8d 3e
       -0.18670933 -0.16387475 -0.122363076 0.27617452
000120 62 2d 05 be fa a0 88 3e 2d 72 9b 3d 5c ba 9c 3e
       -0.13005593 0.26685315 0.07590137 0.3061093
000130 ca e9 a8 bd b9 e0 09 3e 68 d5 6c 3c ff 4c 9f 3e
       -0.08247717 0.13464631 0.014455177 0.3111343
000140 17 4f 4d be e2 3e a5 3d a4 23 8c bd 8f fb cd 3d
       -0.20049702 0.080686346 -0.068427354 0.100577466
000150 1c 92 25 bc 1a fc 89 be 85 34 7b 3e 79 5a c0 bd
       -0.010105636 -0.2695015 0.24531753 -0.09392256
000160 4a 32 82 be b3 8d 8d 3e 4f cf 32 bc 17 5b b1 bd
       -0.25428993 0.2764717 -0.010913684 -0.08659952
000170 98 5e ed 3c ca c3 8b 3e 10 54 96 3e 1d 59 14 be
       0.02897577 0.27297813 0.2936101 -0.14487119
000180 c7 2e 6b bc 45 6f 91 bc 69 a8 82 be 7b 28 83 3e
       -0.014354414 -0.017753253 -0.25519112 0.25616822
000190 a2 a8 c2 3d 61 fb 79 3e 60 40 a7 bc c3 05 93 be
       0.095048204 0.244123 -0.020416439 -0.28715333
0001a0 b2 83 6c 3e 68 0d eb bd 1e 44 78 be 32 fb f2 3b
       0.23097113 -0.114771664 -0.24244735 0.0074151987
0001b0 5d 15 8c 3e c5 9b 03 be bf d4 db bd a1 bd 40 be
       0.2736005 -0.1285239 -0.107339375 -0.18822338
0001c0 32 d9 87 be bd ab 92 3e 8b f9 3d 3e 1c f2 6a 3e
       -0.26532894 0.2864665 0.18552224 0.2294392
0001d0 c1 0b 79 3d 61 60 4e be a0 cc 68 3e eb 21 75 be
       0.060802225 -0.20153953 0.22734308 -0.2393872
0001e0 35 67 38 be d4 35 78 bb a6 0f 37 3e 07 e3 6b bc
       -0.1800812 -0.003787388 0.17877063 -0.014397389
0001f0 31 2e 84 bd d5 bf 14 3c fc fc c3 3d 9e 41 08 3e
       -0.06454123 0.009078939 0.09569737 0.13306281
000200 b1 1e 16 be c4 bf 92 3e 26 da 2b 3e ba ab 88 3e
       -0.14660145 0.2866193 0.16782436 0.26693517
000210 79 c3 43 3e 7a 29 ef bd 7b 85 57 bd ba d8 89 be
       0.19117536 -0.11677833 -0.05261753 -0.26923162
000220 e2 2a 94 be 24 ef 0d be 5c 80 88 3e 1c 6f dd bd
       -0.28938967 -0.13860756 0.2666043 -0.10812208
000230 f7 c3 79 3e e0 f5 7d be 88 91 3e 3e 74 44 d1 bd
       0.24391161 -0.24800825 0.18610203 -0.102181345
000240 b7 93 81 3e f8 00 74 bd 21 4d ba bd 6a 06 71 be
       0.2530801 -0.059571236 -0.090967424 -0.23537603
000250 e1 a1 6c bd d0 96 3f 3e 46 ba ce bd c6 b1 51 be
       -0.057771567 0.18709874 -0.100941226 -0.20477971
000260 4c 71 1e 3e a0 fc 77 3e f1 02 1f 3e 25 be 7f be
       0.15472907 0.24217463 0.15528466 -0.24974878
000270 ac 45 75 3e 13 a9 0c be eb 94 df bd 2f 85 64 be
       0.23952359 -0.13736372 -0.10917076 -0.2231643
000280 5c d9 93 be d3 a1 d3 bc 2d 51 a0 3e 87 dc a6 3c
       -0.2887677 -0.025834 0.31311932 0.020368828
000290 a6 8d 8d be 6f 5e 93 3e b1 cb a0 be 01 83 a1 be
       -0.27647132 0.28782985 -0.31405404 -0.3154526
0002a0 25 63 e9 3d 99 eb 89 3e 5d 5f 32 3e b5 f0 c1 3d
       0.113958634 0.2693756 0.1741919 0.09469739
0002b0 d6 ff 06 be 7a 1c d1 bc e6 35 c4 3d 54 b0 11 3e
       -0.13183531 -0.025526274 0.09580593 0.1422742
0002c0 f3 4a 5b bd 4e ec 47 be 51 ba 0a 3e d8 90 14 be
       -0.053538274 -0.19523737 0.13547637 -0.14508379
0002d0 eb 41 82 3e 6e 5b 96 be 47 12 08 3d c9 38 fb bd
       0.25440916 -0.2936663 0.033220556 -0.1226669
0002e0 8e bb dd 3d 19 3e 65 3e 46 6e 1e be b4 04 50 be
       0.10826789 0.2238697 -0.15471753 -0.20314294
0002f0 ac f5 9f be db 39 6e be 82 62 1c bd 7f fa 0e 3c
       -0.3124212 -0.23264258 -0.038179882 0.008726715
000300 14 53 b7 3d f1 94 2f 3e 38 48 86 3e 56 ba 78 be
       0.08951393 0.1714666 0.26226974 -0.24289832
000310 83 54 8e be c0 4b 2e bd d8 83 9e be 81 42 59 3e
       -0.27798852 -0.04255271 -0.30959964 0.21216775
000320 ff b6 a1 3d 14 44 32 bd 4f 2e 25 be 55 80 9f be
       0.07896232 -0.043521956 -0.16130947 -0.31152597
000330 59 d5 89 3e a7 39 47 bd 85 bd 77 be 53 00 8f be
       0.26920584 -0.048638966 -0.2419339 -0.27929935
000340 81 e2 4d 3e e6 8d 80 be 90 a0 31 be 56 a7 3e be
       0.20105936 -0.2510826 -0.17346406 -0.18618521
000350 a9 22 1d be 39 21 e6 bc 1e 23 14 be 81 89 1b 3e
       -0.15345253 -0.028092014 -0.14466521 0.15189172
000360 a0 9e 0a 3e 2b c7 4c be 05 0e e6 3c a6 17 be bd
       0.13537073 -0.19997852 0.028082857 -0.09281854
000370 29 71 21 3e ab 3a 94 3d 4f 99 63 3e 2b b4 12 3e
       0.15765823 0.072377525 0.22226451 0.14326541
000380 df 5e 4a 3e 85 d4 42 3e 75 5b 12 3c 7d b5 9d be
       0.19762753 0.19026382 0.008932938 -0.30802527
000390 d7 e9 ed 3d 88 43 86 3e 2b 09 c7 bd 85 6d b6 3d
       0.11616867 0.26223397 -0.097185455 0.08907608
0003a0 7e e4 99 be 16 c5 1e 3e 6f 7f 18 3e 5c 8f 6a be
       -0.30057138 0.1550487 0.14892362 -0.2290625
0003b0 7c 4a c5 3b d0 91 a2 bc 05 60 96 3e 62 2f 56 be
       0.006020842 -0.01984492 0.29370132 -0.20916513
0003c0 e8 3c b3 3d a0 46 0f 3c fe 4d 45 3d be 54 58 bd
       0.08751851 0.008744866 0.048170082 -0.05281519
0003d0 3f 76 d0 3d 79 77 a9 bd db a4 5a be db 3b 95 be
       0.10178804 -0.08274741 -0.2135195 -0.2914723
0003e0 2a a2 15 3e 97 49 59 bc 09 17 95 3e 05 1c 1a 3e
       0.14612642 -0.013262174 0.29119137 0.15049751
0003f0 a0 16 23 be 00 24 15 3d 13 24 60 3d ab 91 8c 3e
       -0.159266 0.036411285 0.054721903 0.27454886

layer1.weight f4 [2, 1000]
000000 19 18 52 3d 7e dd 3a 3d e2 1b 31 3c 86 69 5e 3d
       0.051292513 0.045621388 0.01080987 0.054299854
000010 b8 ce bb 3c 57 98 e1 3c df 90 5b 3c ec a3 f1 3c
       0.02292572 0.027538462 0.013401239 0.02949711
000020 d2 57 49 3d ec 6d 85 3d 06 53 94 3d d1 b8 c6 3c
       0.049156018 0.065151066 0.07242398 0.02425805
000030 ff ac 4b 3d 2e 81 3f 3d 63 91 b0 3c 59 82 88 3c
       0.04972553 0.046754055 0.0215537 0.016663717
000040 e9 d3 2b 3d 4d 8a 5b 3c 21 d2 6d 3c 1e 90 35 3d
       0.04195014 0.013399673 0.014515431 0.044326894
000050 1c 49 0b 3d a8 75 9e 3c 3e 71 e2 3c d8 07 d3 3c
       0.03400527 0.019343212 0.027641889 0.025760576
000060 e6 b8 7f 3d 95 37 80 3b f3 ff 2f 3d 2f 9e 18 3c
       0.062432192 0.003912876 0.0429687 0.009315058
000070 08 54 6c 3d 38 4a 21 3d ef f0 99 3d fb 9c 68 3d
       0.057697326 0.03937742 0.075166576 0.056790333
000080 fd 34 bc 3c d5 e5 4e 3d 77 26 32 3a 2b ab 49 3d
       0.022974486 0.050512154 0.0006795893 0.049235504
000090 f9 c2 84 3d fc 34 45 3d e7 89 f8 3c ee 26 52 3d
       0.064825006 0.048146233 0.030339194 0.051306657
0000a0 b4 33 80 3d 19 ec c3 3c 6d 79 a4 3c 81 c3 83 3d
       0.062598616 0.023916291 0.020077432 0.06433774
0000b0 f7 d6 88 3d 72 8a 84 3d 4d 91 04 3d 59 53 82 3d
       0.06681626 0.06471719 0.032365132 0.063635536
0000c0 6c 6d a7 3c aa b2 8f 3c 3e e1 9a 3c 54 03 49 3c
       0.020437919 0.017541248 0.018906232 0.01226886
0000d0 b2 57 b4 3c 89 39 fd 3c 4d 99 f8 3c f3 b4 52 3d
       0.022014473 0.030911224 0.030346537 0.051442098
0000e0 28 99 39 3d 88 8d ba 3c c7 6b 30 3c c2 7d e8 3c
       0.045312077 0.022772565 0.010767884 0.028380278
0000f0 42 f7 58 3c c2 b0 7a 3d 7c 39 50 3d 29 0c 0d 3d
       0.013242545 0.061203726 0.05083607 0.034435425
000100 7f fb 26 3d bd cf 3f 3d 7c 0b 4f 3d 6c f3 77 3d
       0.04076719 0.046828974 0.05054806 0.06053488
000110 f8 51 5c 3d 2f 2a 4d 3d ee d4 db 3b b3 47 a4 3b
       0.05378911 0.050089058 0.006708733 0.00501343
000120 4b 52 39 3d 94 73 d5 3c c2 3c 72 bb bb b6 41 3d
       0.045244496 0.026056089 -0.0036962484 0.047293406
000130 17 c9 48 3d 11 3f 34 3d 59 cc 20 3d fa 0e 43 3d
       0.0490199 0.044005457 0.03925738 0.047621705
000140 f6 70 21 3d fc 24 56 3d 94 63 83 3d e6 92 7c 3d
       0.03941437 0.052281365 0.064154774 0.06166353
000150 c4 1f f3 3c 64 d2 49 3d 08 9d 1e bc e4 14 61 3b
       0.029678233 0.04927291 -0.009680994 0.0034344727
000160 ad 43 ac 3c 1a 3c 35 3d 6e 09 1d 3d 9f 52 21 3c
       0.021028364 0.04424677 0.03833907 0.009846359
000170 26 62 16 3d 48 8a 0b 3d a6 8e 5c 3d e9 74 1d 3d
       0.036714695 0.034067422 0.053846978 0.038441572
000180 69 da 34 3d 83 46 85 3c 2c eb 2c 3d e5 c5 71 3d
       0.044153605 0.016268974 0.042216465 0.059026618
000190 4c d1 9d 3d 16 cf 59 3d 7e 36 f1 3c 09 69 16 3d
       0.07705936 0.05317601 0.02944493 0.036721263
0001a0 7f 1f d7 3c 71 18 48 3d 56 77 2d 3d db b7 b8 3c
       0.026260136 0.048851434 0.042350136 0.022548607
0001b0 d8 a8 6a 3c e4 65 ed 3c 64 a6 a8 3d 7b 44 82 3d
       0.014322482 0.02897925 0.082348615 0.06360718
0001c0 88 06 4e 3d 9e 64 4e 3c 4f ce e3 3c fa a2 75 3d
       0.050299197 0.012597231 0.027808337 0.05996988
0001d0 80 8a 46 3d ae ad 07 3d cc 7d 21 3c 54 16 22 3d
       0.048471928 0.03312462 0.0098566525 0.039572075
0001e0 2d 21 17 3d 07 9f 4a 3d a0 c5 9c 3c 9c e5 2c 3c
       0.036896873 0.049468067 0.019137204 0.01055279
0001f0 9e 16 aa 3d 86 6f a4 3c b5 f3 45 3d 58 87 36 3d
       0.08305095 0.02007271 0.04832812 0.044562668
000200 a5 fb 21 3d 8b d8 8d 3d 4c fb 51 3d c8 40 3c 3c
       0.039546628 0.06926068 0.051265046 0.011490054
000210 32 16 86 3d ce 01 8f 3d 1c 6c d8 3a f0 f4 10 3d
       0.06547202 0.06982766 0.0016511711 0.03538984
000220 32 a7 a5 3c 18 0e 3e 3d 8b 7a b1 ba f2 ae 58 3d
       0.020221327 0.04640016 -0.0013540549 0.052901216
000230 61 f6 31 3d df 69 09 3d 83 cb 43 bb 93 75 3f 3d
       0.043447856 0.033548232 -0.002987594 0.046742987
000240 f1 d9 64 3a 1b 8c c8 3b 5c fa 9e 3d a9 de 34 3d
       0.00087299856 0.0061202175 0.07762596 0.044157658
000250 70 5c 75 3c bf b5 21 3d 9b e6 bf 3c c8 ac ec 3c
       0.014975652 0.039479967 0.023425391 0.028890982
000260 fb 3f 33 3d e0 c2 ac 3c d9 2e 12 3d 82 68 9f 3c
       0.04376219 0.021089017 0.03568921 0.019459013
000270 5c d3 3d 3d 65 f1 84 3d 71 6e 10 3d 93 35 fe 3c
       0.046344146 0.06491355 0.035261575 0.031031406
000280 f0 45 dc 3c f2 56 96 3d 14 3a 4d 3c 9a ec 51 3d
       0.026888818 0.07340802 0.012526054 0.05125103
000290 8f 0c 5e 3d ef f8 52 3d c0 d8 22 3d cb 44 56 3d
       0.054211196 0.051506933 0.03975749 0.0523117
0002a0 97 4d 6c 3d 15 d8 41 3d 03 11 04 3d 47 20 d6 3c
       0.057691183 0.047325213 0.032242786 0.026138438
0002b0 60 71 2b 3d cf b8 5e 3d 90 0d 40 3d 32 b5 96 3c
       0.04185617 0.054375466 0.046887934 0.018396948
0002c0 db 33 e6 3c 98 47 ad 3c 81 30 2a 3d cb 28 50 3d
       0.028100898 0.021152303 0.041550163 0.050820153
0002d0 fc 0b 93 b9 43 df 00 3d 05 d5 7c 3d ae 9c 03 3d
       -0.00028046954 0.03146292 0.06172659 0.032131843
0002e0 e7 05 e1 3c 80 68 97 3d 72 37 87 3d cd 9c 2c 3c
       0.027468635 0.07392979 0.06602372 0.010535431
0002f0 46 96 8c 3b 20 a7 97 3d 79 24 22 3c 0c 2f 6d 3d
       0.004290375 0.074049234 0.009896391 0.057906196
000300 16 eb 17 3d 9f 5e 54 3d c8 a7 98 3d eb 82 40 3d
       0.03708943 0.05184805 0.07453877 0.046999853
000310 9f 72 96 3d 44 4b 39 3d a1 f1 54 3c 3e dc de 3c
       0.07346081 0.045237795 0.012997062 0.027204629
000320 cb a8 36 3c 05 ff 8b 3d 7a 85 82 3d 5d 03 11 3d
       0.011148642 0.068357505 0.06373115 0.035403598
000330 91 77 2c 3d b1 93 ae 3c 3e 8e b7 3c 5a 08 0c 3d
       0.042106215 0.02131066 0.022406694 0.034187652
000340 c6 0f 51 3d 02 a0 f9 3c b0 b6 15 3d 61 5c 22 3c
       0.051040433 0.030471805 0.036551178 0.00990972
000350 af 06 84 3d 88 f8 80 3c ea 39 93 3c 6e 07 4c 3d
       0.06446587 0.015743509 0.017971952 0.049811773
000360 c5 b3 0e 3d f6 d0 14 3d 6a d9 01 3d 27 3a c9 3c
       0.03483941 0.036332093 0.031701483 0.024563862
000370 36 cb a8 3a a4 af 05 3c 3f 41 a1 3d 00 1c dc 3c
       0.0012877944 0.008159552 0.07873773 0.02686882
000380 db 06 81 3d 35 dd 2a 3d 82 bf 06 3d a3 c5 84 3d
       0.06300136 0.041714866 0.03289748 0.06483009
000390 a5 f4 61 3d fc 0a c2 3c 5f f0 4e 3d 9b 3f bf 3c
       0.05516495 0.023686878 0.050522204 0.02334576
0003a0 ff 00 4b 3d 6d 20 82 3d 52 8d 90 3d a1 46 ed 3b
       0.049561497 0.06353841 0.07058205 0.0072410856
0003b0 cb c0 68 3d ca eb 21 3d b9 da c9 3c ba 43 1e 3d
       0.056824487 0.039531507 0.024640428 0.038638808
0003c0 32 8f 27 3d 73 97 b2 3c 17 4d a5 3d aa 2a b3 38
       0.040908046 0.021800732 0.08071344 8.543332e-05
0003d0 77 d8 32 3d 50 b6 e5 3c b0 a6 32 3d 9f 69 33 3c
       0.04366347 0.028041035 0.043615997 0.010950475
0003e0 b8 1e 0a 3d 2f a7 75 3d ac d5 47 3c c4 b2 0c 3d
       0.033720702 0.05997389 0.012196939 0.03435017
0003f0 ff 1c 20 3d 00 dd ad 3b d6 ff 06 3d 37 5a 5d 3b
       0.039090153 0.0053058863 0.032958828 0.0033775696
