MLP_init_params.pt (torch, 49217 bytes, 2 tensors)

layer0.weight f4 [1000, 10]
0.09284002 -0.3077809 -0.25244954 0.18151969 0.21254836 -0.20764649 -0.21038346 -0.28051716
-0.11417773 -0.01767978 -0.2309686 -0.008011034 -0.07641029 0.2768416 -0.24704896 0.14078256
-0.13385999 -0.22158736 0.20246015 0.035800878 -0.02275328 0.09307215 0.2643977 0.14933406
-0.02318776 -0.27607003 0.068054385 0.17626014 0.006173686 -0.13394512 -0.26812848 0.21896827
-0.08039122 0.19788109 0.20891586 -0.21324731 -0.12154441 -0.14810827 -0.18827103 0.22755416
-0.11423242 -0.24628972 0.046121173 -0.1916865 0.26192442 0.19550994 0.22877176 -0.15643552
0.12007013 -0.18920541 -0.15095824 0.29723722 0.07383455 0.23272909 -0.0053785346 0.17002541
-0.1840882 -0.16453554 -0.023320736 -0.09999701 -0.3162066 0.25087923 -0.064944625 0.28920332
0.20423798 -0.18133885 -0.112352446 -0.18984132 0.17783582 -0.029845554 0.05807411 -0.1023071
0.27093977 -0.2091952 0.16054729 -0.26001307 0.06560682 0.31268013 0.20060655 -0.106817715
0.04970788 0.18649638 -0.08134682 -0.1793396 0.23776175 -0.17243733 -0.27217564 -0.26056495
0.005836635 0.09342194 0.047165208 0.06947979 -0.22800405 -0.13447858 0.16864026 0.11353622
0.013912957 0.31471252 0.24438553 0.20820081 -0.29329783 -0.1764192 -0.14353359 -0.22286347
-0.1827379 -0.2188533 -0.1948558 0.14276224 0.20171061 0.033720855 -0.27653793 0.029914135
-0.081178784 0.27820346 -0.060263846 0.06916607 0.14029023 0.03825837 -0.045791052 -0.07938438
0.2718313 0.15781033 -0.15714991 -0.0691431 0.3139864 0.1118785 -0.08029241 -0.2762313
0.10620652 0.20450664 -0.23493378 -0.12953548 0.23510638 -0.27662677 -0.037563957 -0.17971925
0.2851878 -0.22673851 0.28019667 0.31419212 0.30172688 0.048518717 -0.015433656 -0.04878397
0.31257078 -0.1545291 -0.0846838 0.0109708905 0.04327664 -0.03383034 -0.14243375 0.19133109
0.008075851 0.11745599 -0.26479426 0.03476587 -0.27184072 -0.06810992 -0.14704089 -0.0671389
0.19806038 -0.00807182 0.22675623 0.28275076 0.20321573 -0.19267972 0.2603358 -0.033433784
-0.04414359 -0.1099104 -0.09142111 -0.06507984 -0.28717405 0.23604918 -0.03775764 0.20505859
0.31211478 0.17088975 -0.030630838 -0.28014556 -0.09150603 0.03824581 -0.13602236 0.13537434
0.22049434 0.13300163 -0.14734079 -0.1244443 0.23849085 0.15336111 0.16828457 -0.25959566
0.03561622 0.112740435 0.08917854 0.03175206 -0.052507874 -0.17597716 -0.20555902 0.1455255
-0.116328046 -0.07734495 0.10300604 0.18961817 -0.02210377 -0.2226926 0.04638456 0.1140299
0.27526337 -0.19479446 -0.17660974 -0.19596736 -0.20656441 -0.2402698 0.08890338 -0.046391353
0.22042279 0.08401295 0.15292944 0.20201235 -0.22540276 -0.26711783 0.07480816 0.03580366
0.07206441 0.1718865 0.16456437 0.013366857 -0.3111784 -0.25629267 0.2692452 0.23436777
-0.30661336 -0.23646306 -0.082527556 -0.2323287 -0.24536745 0.21175174 0.010315873 0.025982548
-0.047572125 -0.25950155 -0.030620512 -0.063582934 0.12916213 0.16904144 0.27900183 -0.046851456
0.2742323 0.008459695 0.2647495 -0.15305346 -0.24537241 -0.049932327 0.06979387 -0.21513197
00000000: e922 be3d 7595 9dbe 1141 81be 4ce0 393e
00000010: 47a6 593e 48a1 54be c36e 57be f29f 8fbe
00000020: 04d6 e9bd 30d5 90bc 0883 6cbe b640 03bc
00000030: 007d 9cbd 2fbe 8d3e 67fa 7cbe 4e29 103e
00000040: 9812 09be cce7 62be b751 4f3e f1a3 123d
00000050: 1665 babc 9d9c be3d 235f 873e 07eb 183e
00000060: 42f4 bdbc 0d59 8dbe 1960 8b3d 8a7d 343e
00000070: a24c ca3b e928 09be 2348 89be 3839 603e
00000080: 27a4 a4bd 57a1 4a3e 0aee 553e 815d 5abe
00000090: 47ec f8bd b2a9 17be 1fca 40be f503 693e
000000a0: b0f2 e9bd 5f33 7cbe 8ee9 3c3d 7749 44be
000000b0: f51a 863e c233 483e 2543 6a3e a230 20be
000000c0: 54e7 f53d 10bf 41be cc94 1abe 7a2f 983e
000000d0: 9236 973d 8950 6e3e 6b3e b0bb 241b 2e3e
000000e0: 9e81 3cbe 017c 28be 210b bfbc 3bcb ccbd
000000f0: d5e5 a1be 3e73 803e b001 85bd 7512 943e
00000100: c323 513e e4b0 39be 0a19 e6bd c365 42be
00000110: 981a 363e aa7e f4bc 1edf 6d3d 6386 d1bd
00000120: 9eb8 8a3e 4437 56be 8266 243e 6f20 85be
00000130: de5c 863d 9c17 a03e ce6b 4d3e 3fc3 dabd
00000140: 7d9a 4b3d e8f8 3e3e 2999 a6bd cda4 37be
00000150: d177 733e 6993 30be 9b5a 8bbe c568 85be
00000160: 3e41 bf3b 0154 bf3d 4e30 413d 6c4b 8e3d
00000170: e579 69be c1b4 09be 08b0 2c3e ad85 e83d
00000180: 2cf3 633c 0022 a13e 3340 7a3e 9832 553e
00000190: 222b 96be 3ca7 34be 78fa 12be 5236 64be
000001a0: a51f 3bbe 141b 60be 4788 47be 4430 123e
000001b0: 3a8d 4e3e e11e 0a3d 6196 8dbe 7d0e f53c
000001c0: 1041 a6bd af70 8e3e 39d7 76bd f1a6 8d3d
000001d0: 3ea8 0f3e cfb4 1c3d 668f 3bbd 4794 a2bd
000001e0: 792d 8b3e 0899 213e e8eb 20be e69a 8dbd
000001f0: d3c2 a03e 8e20 e53d 5970 a4bd 306e 8dbe
00000200: ce82 d93d 306a 513e 7b92 70be f3a4 04be
00000210: babf 703e 06a2 8dbe aadc 19bd 5308 38be
00000220: 2304 923e 242e 68be f075 8f3e cadd a03e
00000230: f27b 9a3e 90bb 463d 72dd 7cbc b3d1 47bd
00000240: 4709 a03e e03c 1ebe b36e adbd 40bf 333c
00000250: d942 313d af91 0abd 27da 11be 4cec 433e
00000260: 9350 043c c48c f03d 1d93 87be a866 0e3d
00000270: b52e 8bbe 377d 8bbd e391 16be 1f80 89bd
00000280: 57d0 4a3e ab3f 04bc c932 683e b5c4 903e
00000290: c917 503e d54d 45be bc4a 853e ddf1 08bd
000002a0: e9cf 34bd b418 e1bd fe3a bbbd 9448 85bd
000002b0: 7a08 93be e0b6 713e c1a7 1abd e1fa 513e
000002c0: 82cd 9f3e b9fd 2e3e 86ed fabc 3d6f 8fbe
000002d0: 8367 bbbd a3a7 1c3d 7249 0bbe 929f 0a3e
000002e0: 45c9 613e 9431 083e 81e0 16be a7dc febd
000002f0: f236 743e b20a 1d3e ca52 2c3e b9e9 84be
00000300: 50e2 113d 75e4 e63d 3da3 b63d 730e 023d
00000310: 7f12 57bd 5b33 34be 107e 52be a304 153e
00000320: 663d eebd 0767 9ebd d5f4 d23d 442b 423e
00000330: f712 b5bc 8709 64be bdfd 3d3d 8288 e93d
00000340: 52ef 8c3e 3378 47be 2fd9 34be abab 48be
00000350: 9f85 53be 4909 76be fa12 b63d dc04 3ebd
00000360: 83b6 613e fb0e ac3d 8999 1c3e 53dc 4e3e
00000370: fbcf 66be abc3 88be 0535 993d dca6 123d
00000380: 8196 933d 0403 303e 9083 283e a900 5b3c
00000390: c652 9fbe cb38 83be 82da 893e 1bfe 6f3e
000003a0: 6dfc 9cbe 5f23 72be 3504 a9bd 93e7 6dbe
000003b0: 9b41 7bbe 73d5 583e e803 293c 5ad9 d43c
000003c0: fdda 42bd 63dd 84be ded7 fabc c537 82bd
000003d0: 1443 043e 3319 2d3e 54d9 8e3e 50e7 3fbd
000003e0: 2d68 8c3e 889a 0a3c 3f8d 873e 0cba 1cbe
000003f0: e842 7bbe d785 4cbd 17f0 8e3d 8e4b 5cbe

layer1.weight f4 [2, 1000]
-0.021160368 0.0022969004 -0.025588013 0.0017139735 0.007301264 0.025227796 -0.0294062 0.021395387
0.025488699 -0.02028635 0.031193402 -0.017738797 -0.017206347 0.03010153 0.0065600798 0.02864446
-0.0023946078 -0.018299598 0.0150415 0.022666251 0.028446667 -0.009750198 -0.02835571 -0.006215022
0.015708247 0.02511505 -0.026840048 -0.005218408 -0.013623315 0.022614473 -0.0055473465 0.007948066
-0.0010769202 -0.01054279 0.027053364 -0.014133352 -0.011142185 -0.010331697 -0.03157497 0.027445832
-0.004769323 -0.019505266 -0.013946781 -0.02281685 -0.00751158 -0.028199147 0.029321054 0.02616969
0.018963737 0.004386373 -0.010314824 -0.023677316 -0.009167432 -0.010070207 0.030854914 -0.027873425
-0.030313274 -0.010971363 0.0071279793 -0.018772174 -0.0202722 0.013498676 0.016582496 0.027438728
0.03153495 0.0063792868 0.019267393 0.029343732 -0.013949903 -0.01324416 -0.007904434 -0.010513263
0.023624659 0.012405915 0.013156697 -0.013811009 -0.021150952 0.028666118 -0.012801702 -0.021216344
-0.030094275 0.010311035 0.017876076 -0.029476976 0.0122716995 -0.02723424 -0.00687558 -0.019472951
0.0053844373 -0.003741684 0.025571743 -0.01254677 -0.00064361515 0.021046214 0.0010845917 -0.027616188
0.024151316 -0.0057438705 -0.013746098 -0.015154327 -0.029087195 0.009391234 0.016491426 0.028495276
0.007768194 0.015412848 -0.009734735 -0.030522984 -0.015663825 -0.003721096 0.017361589 -0.02008982
0.01167077 0.019303825 -0.020699581 0.010540619 0.013847335 0.00774505 0.01628728 0.015615934
0.002360843 -0.0004009831 -0.014212446 -0.029123338 0.00890539 0.017462952 -0.021810642 -0.009478707
-0.023582315 -0.031136323 0.008024755 -0.026049031 -0.022668138 0.00058399874 -0.024572361 -0.0024625855
0.01662591 0.025398564 0.022185683 -0.008815213 -0.02260777 0.012663406 -0.015857797 0.01969383
0.022591364 -0.0027448987 -0.009063236 -0.016716558 0.018613093 -0.008625289 -0.00041834614 0.020640437
0.016349498 -0.011498908 0.014874802 0.031576093 -0.0049512587 0.029557485 0.024175743 0.023275085
0.02848858 -0.003039977 0.016836064 0.025517032 -0.020071162 0.00096874137 -0.00011320678 -0.031001652
0.011298186 0.018238712 -0.027461903 0.0031689412 0.0057787723 -0.010731452 -0.019520734 -0.022649677
-0.008737715 0.021405954 -0.013098172 -0.010751626 0.005755111 -0.02422744 0.026086066 -0.025859741
-0.030233778 -0.019178454 -0.028347693 0.0019519124 0.0081204 0.015571155 0.016703077 -0.024110787
-0.031509206 -0.007924517 0.029533908 0.031116588 0.0120006865 0.026689585 0.0051511275 0.010223816
0.0034082623 -0.023309896 -0.019960804 0.026994778 -0.023305884 0.025870679 0.026441362 -0.020363424
-0.005876491 -0.007836676 -0.012024983 -0.028237412 -0.003180616 0.028715221 -0.018058423 0.0074168453
0.0026757615 0.015288529 -0.01086015 0.0017009095 -0.027831286 0.016077854 -0.0024566015 0.0007436607
0.02724192 0.0119231315 0.020334521 0.030711012 -0.026697785 0.012302368 -0.024046225 -0.01925789
0.013905513 -0.013348628 -0.02431777 -0.010149102 0.004985757 0.029946826 -0.016303921 0.019585842
-0.016282214 -0.011374643 0.011382765 0.02721509 0.03098876 -0.01845718 0.022863178 0.0296439
-0.002574101 0.027954958 0.012003154 0.008079745 0.02703206 -0.010013886 0.031137276 -0.02251921
00000000: 8258 adbc 9887 163b f49d d1bc 68a7 e03a
00000010: 713f ef3b 86aa ce3c 45e5 f0bc 6145 af3c
00000020: adcd d03c 8f2f a6bc 4e89 ff3c f450 91bc
00000030: 53f4 8cbc 7c97 f63c f0f5 d63b c9a7 ea3c
00000040: daee 1cbb 0ae9 95bc a070 763c 93ae b93c
00000050: fc08 e93c 4bbf 1fbc 3c4a e8bc 62a7 cbbb
00000060: 95ae 803c 14be cd3c a9df dbbc 2eff aabb
00000070: 5334 5fbc fd41 b93c 84c6 b5bb 9b38 023c
00000080: 7227 8dba abbb 2cbc 049f dd3c 938f 67bc
00000090: b68d 36bc 4746 29bc c154 01bd 15d6 e03c
000000a0: fb47 9cbb 82c9 9fbc 0a81 64bc 67ea babc
000000b0: b323 f6bb e601 e7bc b532 f03c d161 d63c
000000c0: d759 9b3c 90bb 8f3b 82ff 28bc eef6 c1bc
000000d0: ff32 16bc 82fd 24bc 72c3 fc3c cf56 e4bc
000000e0: 8b53 f8bc 3bc1 33bc d391 e93b 1ac8 99bc
000000f0: e311 a6bc 8d29 5d3c 04d8 873c 2fc7 e03c
00000100: cb2a 013d 5609 d13b a7d6 9d3c 4462 f03c
00000110: 228e 64bc 09fe 58bc 9981 01bc d23f 2cbc
00000120: 8088 c13c 2e42 4b3c 308f 573c 9247 62bc
00000130: c344 adbc 35d5 ea3c 3bbe 51bc e6cd adbc
00000140: 4588 f6bc 9eef 283c d970 923c b379 f1bc
00000150: 3d0f 493c 571a dfbc 8c4c e1bb bd85 9fbc
00000160: ef6f b03b 0a37 75bb d57b d13c f890 4dbc
00000170: 48b8 28ba 1c69 ac3c dc28 8e3a 583b e2bc
00000180: fbd8 c53c 1437 bcbb 5037 61bc db49 78bc
00000190: 4548 eebc b1dd 193c 0719 873c ed6e e93c
000001a0: 568c fe3b 2c86 7c3c 707e 1fbc 560b fabc
000001b0: 6c51 80bc a2dd 73bb e439 8e3c 6893 a4bc
000001c0: c236 3f3c 0e23 9e3c 2b92 a9bc 8fb2 2c3c
000001d0: efdf 623c 30ca fd3b e76c 853c f9d9 7f3c
000001e0: 5fb8 1a3b 0a3b d2b9 52db 68bc 1194 eebc
000001f0: eae7 113c 770e 8f3c 3bac b2bc 944c 1bbc
00000200: b32f c1bc 9a11 ffbc 437a 033c c764 d5bc
00000210: 88b2 b9bc 7e17 193a fa4b c9bc 5463 21bb
00000220: 0f33 883c a610 d03c c0be b53c af6d 10bc
00000230: ee33 b9bc 2d7a 4f3c 36e8 81bc f454 a13c
00000240: 8611 b93c c2e3 33bb f87d 14bc 2af1 88bc
00000250: 7c7a 983c 1651 0dbc 7855 dbb9 2216 a93c
00000260: 62ef 853c ea65 3cbc 71b5 733c ef55 013d
00000270: 2b3e a2bb 8a22 f23c 350c c63c 64ab be3c
00000280: e260 e93c 5a3a 47bb c9eb 893c 1809 d13c
00000290: 476c a4bc 22f3 7d3a 6d69 edb8 2df7 fdbc
000002a0: 071c 393c 5a69 953c c9f7 e0bc 03ae 4f3b
000002b0: db5b bd3b f9d2 2fbc f2e9 9fbc d18b b9bc
000002c0: a228 0fbc 8a5b af3c b799 56bc 9727 30bc
000002d0: 5f95 bc3b a078 c6bc 72b2 d53c cfd7 d3bc
000002e0: d4ac f7bc 221c 9dbc 6c39 e8bc 50d7 ff3a
000002f0: 6d0b 053c 281e 7f3c e4d4 883c fc83 c5bc
00000300: cc0f 01bd d5d5 01bc 18f1 f13c 37e8 fe3c
00000310: 879e 443c 1ea4 da3c caca a83b cb81 273c
00000320: 275d 5f3b 65f4 bebc d784 a3bc 2724 dd3c
00000330: fbeb bebc bfee d33c 8e9b d83c 32d1 a6bc
00000340: 948f c0bb 6765 00bc 6f04 45bc 2552 e7bc
00000350: e271 50bb 2f3c eb3c 42ef 93bc 0209 f33b
00000360: d45b 2f3b bd7c 7a3c c5ee 31bc 0df1 de3a
00000370: 70fe e3bc b4b5 833c effe 20bb 3af2 423a
00000380: 722a df3c 3d59 433c 9594 a63c a995 fb3c
00000390: 50b5 dabc df8f 493c 97fc c4bc b9c2 9dbc
000003a0: f3d3 633c 34b4 5abc 0f36 c7bc 6b48 26bc
000003b0: 905f a33b 0c53 f53c cd8f 85bc 7d72 a03c
000003c0: 4762 85bc b65c 3abc c77e 3a3c 2ef2 de3c
000003d0: 24dc fd3c 8333 97bc 8f4b bb3c c4d7 f23c
000003e0: 40b2 28bb cc01 e53c e0a8 443c e860 043c
000003f0: 5772 dd3c 4811 24bc 9a13 ff3c 357a b8bc
