MLP_init_params.pt (torch, 49217 bytes, 2 tensors)

layer0.weight f4 [1000, 10]
-0.11599428 -0.19629517 -0.42824084 0.059264366 0.11262658 0.27040628 -0.45572326 0.28568235
0.043923855 -0.06838158 -0.10877763 0.28265238 -0.24704805 0.24256465 -0.3360138 0.14845395
0.22377542 -0.07398202 0.13949727 0.27383578 -0.11737796 0.0031180915 0.276809 0.27290246
0.19315542 0.12780556 -0.052073523 0.28020096 -0.29308218 0.24308288 0.09132978 -0.32851148
-0.02510007 0.07286283 0.17755002 0.26056197 -0.016950317 0.18923517 0.2523826 -0.31190336
-0.15260477 0.11766234 0.25950456 -0.16748314 -0.0154159395 -0.020813076 0.3014429 0.1190851
0.22827828 -0.23995231 0.23237902 -0.016457006 -0.26821014 0.21828271 0.107945405 -0.1883022
-0.26506135 -0.09781892 0.2076808 -0.20505951 0.2126801 -0.076948024 -0.23748772 -0.19604674
0.25253215 -0.11197939 0.27472168 -0.27385077 0.31517026 -0.023686238 -0.26065204 -0.2502632
0.30220208 0.22543718 0.0054476704 -0.22472177 0.06951629 -0.2843035 0.05820273 0.111423805
-0.05214596 -0.04295732 -0.08519314 -0.080123566 -0.14861886 0.04626791 -0.13193816 -0.09038445
-0.0032179514 -0.2793209 -0.068797484 -0.33337596 0.009755476 0.32646257 -0.2799014 0.23017974
0.18745232 -0.22641394 -0.36173096 -0.059205804 0.09183165 -0.01314009 -0.21741669 -0.08740491
-0.091688864 -0.19911845 0.33378765 -0.05812802 0.11781894 0.18461642 0.20976555 -0.20073295
0.3058783 -0.13097356 -0.12361078 0.22610877 0.22816733 -0.11695219 -0.13573645 -0.000112651
0.10920539 0.26767027 0.0810074 0.3137966 0.08961662 0.29220864 0.25994226 -0.17528139
-0.32902074 -0.26027548 -0.06265356 -0.039465588 -0.29167315 -0.1874058 0.19176577 0.13773176
-0.10565771 -0.06502414 0.33352405 -0.27513564 -0.17670313 0.28369743 0.025662154 -0.2720122
0.31949982 -0.21662807 0.3030979 0.13286749 0.11749549 0.041283354 0.14332868 0.23875043
-0.30530965 0.20737304 0.016748546 -0.14884463 -0.035066105 -0.25316885 0.0878212 0.28295955
-0.09209915 -0.06206336 0.23928884 -0.29885727 0.034265228 -0.07773599 0.2209503 -0.02535306
-0.256744 0.100146934 0.021512615 0.0673714 0.24342525 -0.20271406 -0.19477788 0.058029674
-0.03526544 0.2180342 -0.11340554 0.01845865 0.2980613 0.19773807 0.0047109677 -0.17895126
-0.27794516 0.028843721 0.24412647 -0.17235132 0.15477905 0.2673782 0.18807623 -0.15773305
0.28822595 -0.26910555 0.034641225 0.17866798 0.09000521 0.24190234 0.15679795 -0.18639503
0.15228592 -0.0609867 0.10239997 0.19307786 0.022696678 -0.07817672 -0.2434717 -0.19758372
0.16273923 0.23013496 0.21290274 0.22549641 -0.11219683 0.05346651 0.07130903 -0.12361026
0.10702288 -0.016506352 -0.050485276 -0.02336719 0.16103187 0.22384313 0.17300871 -0.21812406
0.16637935 -0.012507407 0.13845913 -0.39794964 -0.2665352 0.38735428 -0.24795926 0.26089415
0.0055731167 0.05768853 -0.112637304 -0.23854625 0.027362572 -0.19523829 0.19674243 0.22880706
-0.1604998 -0.25993162 -0.21027078 -0.019783646 -0.28291956 -0.039684124 0.29412597 0.10503697
-0.17324136 0.025083235 -0.2925402 -0.10147863 -0.3677231 -0.089034975 0.026102988 0.1894962
00000000: 698e edbd 9a01 49be 6242 dbbe 31bf 723d
00000010: c4a8 e63d b172 8a3e 8f54 e9be f544 923e
00000020: 80e9 333d a40b 8cbd cec6 debd d0b7 903e
00000030: 2afa 7cbe de62 783e 000a acbe 5004 183e
00000040: 6225 653e e383 97bd 5fd8 0e3e 3434 8c3e
00000050: db63 f0bd e558 4c3b e9b9 8d3e dfb9 8b3e
00000060: 89ca 453e 76df 023e 0c4b 55bd 8076 8f3e
00000070: de0e 96be b8ea 783e 1c0b bb3d a832 a8be
00000080: a99e cdbc 1b39 953d accf 353e 6168 853e
00000090: 64db 8abc ddc6 413e 4b38 813e ccb1 9fbe
000000a0: 6d44 1cbe f4f8 f03d c8dd 843e b380 2bbe
000000b0: 2393 7cbc 2f80 aabc b956 9a3e e4e2 f33d
000000c0: c8c1 693e 0fb6 75be c4f4 6d3e d8d0 86bc
000000d0: d752 89be 8185 5f3e 7b12 dd3d 4bd2 40be
000000e0: 1fb6 87be 4955 c8bd 47aa 543e 1ffb 51be
000000f0: d0c8 593e ed96 9dbd fb2f 73be 7ac0 48be
00000100: e54b 813e 7355 e5bd 52a8 8c3e 2b36 8cbe
00000110: ff5d a13e a409 c2bc 2f74 85be 8022 80be
00000120: 3bba 9a3e 01d9 663e 5f82 b23b 771d 66be
00000130: 8f5e 8e3d 3a90 91be fc65 6e3d 2a32 e43d
00000140: 0197 55bd 04f4 2fbd be79 aebd d317 a4bd
00000150: 8b2f 18be 6c83 3d3d cc1a 07be 7c1b b9bd
00000160: 44e4 52bb 2603 8fbe b2e5 8cbd 41b0 aabe
00000170: 6fd5 1f3c 1a26 a73e 3c4f 8fbe 3db4 6b3e
00000180: 80f3 3f3e 0ed9 67be cd34 b9be c981 72bd
00000190: 3b12 bc3d 8849 57bc 7ba2 5ebe 5801 b3bd
000001a0: 5fc7 bbbd b5e5 4bbe 37e6 aa3e a617 6ebd
000001b0: 0e4b f13d 160c 3d3e c8cc 563e f08c 4dbe
000001c0: 159c 9c3e ef1d 06be a627 fdbd 0f89 673e
000001d0: b2a4 693e a184 efbd 7ffe 0abe 0c3f ecb8
000001e0: 13a7 df3d 140c 893e 35e7 a53d f3a9 a03e
000001f0: eb88 b73d 5f9c 953e 2717 853e f77c 33be
00000200: 6875 a8be d442 85be 8250 80bd aba6 21bd
00000210: 2f56 95be 4ee7 3fbe 3f5e 443e 8e09 0d3e
00000220: 1263 d8bd 602b 85bd aac3 aa3e 94de 8cbe
00000230: aaf1 34be ca40 913e 7039 d23c 2f45 8bbe
00000240: 7b95 a33e c0d3 5dbe a62f 9b3e 6a0e 083e
00000250: 7aa1 f03d bc18 293d c1c4 123e fe7a 743e
00000260: 8c51 9cbe 9959 543e 3f34 893c ba6a 18be
00000270: 7aa1 0fbd 599f 81be 9adb b33d 13e0 903e
00000280: 7b9e bcbd 2636 7ebd 2208 753e d203 99be
00000290: b259 0c3d 0c34 9fbd cc40 623e 38b1 cfbc
000002a0: f373 83be d619 cd3d 393b b03c 04fa 893d
000002b0: 7844 793e 4694 4fbe da73 47be 86b0 6d3d
000002c0: 7e72 10bd 5b44 5f3e 2a41 e8bd 9836 973c
000002d0: 7e9b 983e d97b 4a3e 765e 9a3b 003f 37be
000002e0: d44e 8ebe ab49 ec3c 4afc 793e dd7c 30be
000002f0: 667e 1e3e cce5 883e 0e97 403e c684 21be
00000300: 5a92 933e 34c8 89be f5e3 0d3d bdf4 363e
00000310: a754 b83d 3fb5 773e a48f 203e 57de 3ebe
00000320: d7f0 1b3e 31cd 79bd 13b7 d13d 34b6 453e
00000330: 62ee b93c 1e1b a0bd a550 79be 6353 4abe
00000340: 1da5 263e 80a8 6b3e 2d03 5a3e 88e8 663e
00000350: 74c7 e5bd b3ff 5a3d 780a 923d 6027 fdbd
00000360: d02e db3d 5438 87bc a6c9 4ebd 8d6c bfbc
00000370: 8ae5 243e 2237 653e 3229 313e ea5b 5fbe
00000380: 595f 2a3e deeb 4cbc 3bc8 0d3e 0ec0 cbbe
00000390: 4d77 88be 4d53 c63e 08e9 7dbe eb93 853e
000003a0: b19e b63b cf4a 6c3d 63ae e6bd 7845 74be
000003b0: 7927 e03c 8cec 47be d976 493e 664c 6a3e
000003c0: 0f5a 24be c215 85be 3951 57be 5011 a2bc
000003d0: d5da 90be d28b 22bd ae97 963e 9f1d d73d
000003e0: 2f66 31be 5b7b cd3c d4c7 95be 07d4 cfbd
000003f0: 3446 bcbe f857 b6bd efd5 d53c 4b0b 423e

layer1.weight f4 [2, 1000]
1.7901657 1.352741 1.8093911 1.4254634 1.2474164 1.5762928 1.7850194 1.3513694
0.80782425 3.0787249 0.9120326 1.6725173 1.8304257 1.5409635 1.0889466 1.7638171
0.7756657 1.1838238 1.7488742 1.1082544 2.08617 1.4679176 1.8554338 1.0278165
1.4065559 1.8430172 1.3889776 2.7641249 1.3036736 1.1530918 2.3859704 2.273518
1.7638987 0.997879 2.0292645 2.3531904 1.2356895 1.1118554 1.8321434 1.732283
1.374909 1.5856535 2.1690495 2.3610635 1.432984 1.2750717 2.7756023 1.3829836
0.96293896 2.0042393 2.3961494 1.47131 1.8534095 2.0035594 2.2817636 1.8681923
1.5172853 2.0938616 1.9714108 2.1731632 1.0235578 1.534897 1.6809522 1.5178978
1.7576345 1.7710458 0.8176117 2.6232338 1.4532963 2.282004 0.9125848 1.5401495
1.4344074 1.5366609 1.2160609 1.8726555 1.3704058 1.9119213 0.9545872 1.1869475
2.016989 1.2851279 1.3543494 1.5206077 1.4331307 1.2868778 1.0987039 1.3491439
1.5590018 1.1086379 0.95123565 1.9346111 1.169058 1.5392721 1.1498953 1.8469691
1.3799633 1.4553958 1.1514796 0.7827258 2.659782 1.4459966 1.3333284 2.3645418
0.802382 2.5991647 1.154308 0.98649526 1.0057273 1.0787467 1.2283808 0.9807007
2.2067266 1.2259041 1.2827146 1.6802976 1.114454 1.2842228 1.439373 1.060056
1.1865323 1.295998 0.6971268 1.5546163 1.3846896 0.82892996 1.5332378 1.7303835
1.6763569 1.3994426 1.6236806 1.4890467 1.2221961 2.8895276 1.875428 1.3924448
1.8675845 1.2697163 2.634006 1.930039 0.86014336 1.0983351 2.0834415 1.8803678
2.1290221 1.4474958 1.9479146 1.8384434 1.4864302 1.6593065 1.1867285 1.9889647
2.035106 2.6851335 1.9973321 2.1287408 2.3031366 1.4243498 1.517152 1.0526149
1.193351 1.8421735 1.4444814 1.0321664 1.3258774 1.9940809 1.4628348 1.3527527
1.9945917 2.0193098 1.7217908 1.5061195 1.4020406 1.0693784 1.8145584 1.3125334
2.260042 2.0331774 1.9600639 1.2652816 0.94429904 1.0917678 1.7337785 1.6291143
1.2143519 2.1539876 1.3009212 1.6140356 1.5895224 1.4028869 1.4775524 1.9186676
1.3922542 0.99730194 1.5157988 2.4573696 1.7150674 1.3489184 2.197872 1.5170056
1.927849 1.7368662 2.01204 2.0644295 1.6554178 1.2672216 1.9323939 1.6415405
1.6289128 1.2926257 1.6929888 1.3732233 2.0148795 1.8034476 1.9169995 1.0990613
0.9126728 1.8515755 1.3903848 1.8046982 1.8200449 1.3509742 1.3821819 1.620994
2.4139402 0.9818201 1.4895831 1.6712205 1.3888836 1.054785 1.5309106 1.3152797
1.5419588 1.9714574 1.5466411 1.1917157 2.2241945 1.4744624 0.98943055 1.216064
2.2655652 1.3959601 2.2037454 0.96854544 1.6425313 1.4788468 1.5342116 1.7717006
2.2865844 2.5141525 1.4185255 1.9413975 1.4899368 1.5122687 1.0985856 1.6507062
00000000: 2624 e53f 9e26 ad3f 219a e73f 9675 b63f
00000010: 57ab 9f3f f6c3 c93f 847b e43f acf9 ac3f
00000020: 92cd 4e3f d409 4540 f87a 693f 0c15 d63f
00000030: 644b ea3f 4b3e c53f 9a62 8b3f c2c4 e13f
00000040: 0792 463f 8a87 973f 1cdb df3f 48db 8d3f
00000050: cf83 0540 b9e4 bb3f db7e ed3f 7e8f 833f
00000060: 060a b43f fde7 eb3f 05ca b13f 6ce7 3040
00000070: c7de a63f 8398 933f bdb3 1840 5281 1140
00000080: 6fc7 e13f 0075 7f3f 78df 0140 ac9a 1640
00000090: 132b 9e3f 4751 8e3f ad83 ea3f 73bb dd3f
000000a0: 05fd af3f b2f6 ca3f b5d1 0a40 aa1b 1740
000000b0: 056c b73f 8d35 a33f 78a3 3140 9b05 b13f
000000c0: 2b83 763f 7545 0040 835a 1940 e353 bc3f
000000d0: 863c ed3f 513a 0040 6a08 1240 ed20 ef3f
000000e0: 6836 c23f d401 0640 3057 fc3f 1b15 0b40
000000f0: f103 833f 8177 c43f 7129 d73f 7a4a c23f
00000100: 2bfa e03f a1b1 e23f 004f 513f 10e3 2740
00000110: 9d05 ba3f 5b0c 1240 289f 693f 9e23 c53f
00000120: a99a b73f 4eb1 c43f e2a7 9b3f 2db3 ef3f
00000130: 7569 af3f d6b9 f43f d45f 743f e5ed 973f
00000140: 5916 0140 127f a43f 525b ad3f 46a3 c23f
00000150: d470 b73f 69b8 a43f 54a2 8c3f bfb0 ac3f
00000160: 5f8d c73f d9e7 8d3f 2e84 733f 56a1 f73f
00000170: b1a3 953f de06 c53f c52f 933f 7c69 ec3f
00000180: a3a2 b03f 694a ba3f af63 933f b860 483f
00000190: de39 2a40 6b16 b93f 81aa aa3f a754 1740
000001a0: e868 4d3f b758 2640 5dc0 933f f48a 7c3f
000001b0: acbb 803f 5f14 8a3f 953b 9d3f 330f 7b3f
000001c0: 023b 0d40 6dea 9c3f fe2f a43f fe13 d73f
000001d0: 6ea6 8e3f 6a61 a43f 603d b83f eaaf 873f
000001e0: 4ae0 973f 43e3 a53f e776 323f abfd c63f
000001f0: 823d b13f c134 543f 2341 c43f 357d dd3f
00000200: dd92 d63f ef20 b33f c4d4 cf3f 1599 be3f
00000210: ec70 9c3f 05ee 3840 060e f03f a23b b23f
00000220: 020d ef3f 1086 a23f 8e93 2840 850b f73f
00000230: 5b32 5c3f 3f96 8c3f 1b57 0540 e4af f03f
00000240: e641 0840 8b47 b93f 4455 f93f 1d52 eb3f
00000250: 5843 be3f 2864 d43f b8e6 973f 6596 fe3f
00000260: 2d3f 0240 3ad9 2b40 94a8 ff3f 4a3d 0840
00000270: 9766 1340 1851 b63f 0932 c23f 16bc 863f
00000280: babf 983f 57cc eb3f c4e4 b83f 071e 843f
00000290: 5ab6 a93f 0b3e ff3f 2c3e bb3f 0027 ad3f
000002a0: c84e ff3f 5f3c 0140 a463 dc3f 86c8 c03f
000002b0: 1176 b33f 64e1 883f 7343 e83f 1801 a83f
000002c0: 87a4 1040 941f 0240 60e3 fa3f bff4 a13f
000002d0: 95bd 713f 0cbf 8b3f 74ec dd3f d186 d03f
000002e0: e26f 9b3f efda 0940 9684 a63f b898 ce3f
000002f0: 7875 cb3f cc91 b33f 7020 bd3f e696 f53f
00000300: 6335 b23f 2e4f 7f3f b205 c23f 8b45 1d40
00000310: 5487 db3f 5ca9 ac3f efa9 0c40 3d2d c23f
00000320: c2c3 f63f a251 de3f 43c5 0040 9d1f 0440
00000330: bbe4 d33f 5134 a23f af58 f73f 001e d23f
00000340: 3780 d03f c274 a53f dbb3 d83f c8c5 af3f
00000350: c9f3 0040 5fd7 e63f 3d60 f53f 0aae 8c3f
00000360: eda4 693f 6d00 ed3f 21f8 b13f 5a00 e73f
00000370: 3bf7 e83f b9ec ac3f 56eb b03f bb7c cf3f
00000380: ff7d 1a40 9058 7b3f a9aa be3f 8eea d53f
00000390: f0c6 b13f 3203 873f e1f4 c33f 165b a83f
000003a0: e85e c53f b758 fc3f 56f8 c53f 248a 983f
000003b0: 3459 0e40 2fbb bc3f 524b 7d3f fca7 9b3f
000003c0: 05ff 1040 d2ae b23f 2a0a 0d40 98f2 773f
000003d0: 773e d23f da4a bd3f 0c61 c43f 16c7 e23f
000003e0: 6657 1240 e0e7 2040 3e92 b53f b77f f83f
000003f0: 40b6 be3f 0592 c13f 749e 8c3f 574a d33f
