MLP_init_params.pt (torch, 49217 bytes, 2 tensors)

layer0.weight f4 [1000, 10]
-0.20224543 0.016107636 -0.1973292 0.27343377 -0.35643452 0.28900978 -0.24088 0.16385898
-0.060420197 0.1542401 0.03820944 0.16767709 0.08451718 0.06773619 0.08653116 0.005265579
0.10123312 0.07053137 0.05395878 0.20094077 0.05702254 0.019685509 -0.17073764 -0.09946657
-0.29154676 -0.13972491 0.17412809 -0.053575635 -0.15829371 0.014248266 0.07677689 0.122683555
-0.004584744 0.07751635 -0.052319072 0.19241016 -0.07209134 0.26443383 -0.031102868 0.043223266
-0.0070149926 0.16893612 -0.21830606 -0.28472874 -0.073909886 0.03134473 0.10500141 0.1775738
-0.052861527 0.049024086 -0.025387453 0.03667243 0.018185638 0.027965082 0.015230849 0.06705758
-0.114077754 -0.06751965 -0.07572574 0.15590556 0.00189304 -0.079826556 0.018776836 0.11984706
-0.105663806 0.0036385378 -0.128639 -0.1248381 -0.03397667 0.13616985 0.034644213 0.0070790024
-0.036140494 0.13961798 -0.10931553 -0.00762145 -0.054825816 0.007809653 0.10169864 0.021588998
-0.0005740056 -0.047520395 -0.13188349 -0.18474956 -0.15669225 -0.17026432 -0.0077643795 -0.11423571
0.03135179 0.13640529 -0.11166983 0.10375835 -0.13243808 -0.26154086 0.019545041 -0.041988537
0.015235485 -0.01666296 -0.02318226 0.18384144 0.028205683 0.055641193 -0.035818852 0.16569635
-0.034839313 0.20279607 0.01042667 0.050684597 0.099688165 -0.081622325 -0.08360588 0.034883134
-0.11527015 -0.027663227 -0.026108678 -0.03395335 -0.033584766 -0.017389162 -0.0027890336 0.23020853
-0.059230514 0.033637043 -0.09223517 0.035317626 0.15244251 0.2080238 -0.05401308 0.093960315
-0.05925149 -0.09947675 0.07721758 -0.0008714962 -0.028233353 0.17687827 -0.10320856 -0.04440922
0.035841253 0.06730916 0.07696297 0.22878882 -0.006337688 0.069021344 -0.10017107 -0.028877577
-0.059165206 0.21730903 -0.1143503 -0.008697656 0.080443226 -0.19142187 -0.055837806 0.081594214
0.051835075 0.023145782 0.037142914 0.15274104 -0.0905859 -0.09645429 -0.04804261 -0.024840731
0.096712366 0.19620502 0.03260245 -0.057714157 0.05375207 0.27423477 -0.06295899 -0.06930214
0.1156368 0.09403809 -0.048217487 0.27677095 -0.08745062 -0.2164993 0.059365455 0.117194295
0.06671448 0.15118562 0.03222035 0.1063801 -0.032343633 0.08693218 -0.008132259 0.17135486
-0.06840339 -0.002882161 -0.044558927 0.027796574 0.007622206 0.19564784 0.04736781 0.035626736
-0.007891103 -0.27089414 -0.049846858 -0.0056434087 -0.102135494 -0.25849843 -0.08052818 0.12570463
-0.0483484 -0.021538025 -0.075939834 0.2776213 -0.22075228 -0.017386293 -0.06267046 0.014054055
0.060181033 0.31802815 0.2091752 0.17855352 -0.010789758 -0.045430075 -0.17726214 0.22754379
-0.0720838 -0.14362176 0.155537 -0.1816821 0.024768723 -0.0012302883 0.040233232 0.13638031
-0.059773833 -0.012536458 -0.119980305 0.011277747 -0.04967065 -0.00062235916 0.004069338 0.14877018
0.017461916 -0.028089728 0.20200473 0.10715769 0.06758902 0.0431889 0.14106369 0.21536294
0.10608472 0.15208668 -0.09996165 0.011782963 -0.19430193 -0.029613795 0.05648287 -0.07303207
0.016656607 0.08295305 -0.1561171 -0.09088549 -0.19039954 0.06749063 -0.15411924 -0.26822144
00000000: 6d19 4fbe 29f4 833c aa10 4abe 83ff 8b3e
00000010: 967e b6be 17f9 933e 3fa9 76be a6ca 273e
00000020: 2b7b 77bd 1ef1 1d3e 8081 1c3d 8bb3 2b3e
00000030: 5817 ad3d 46b9 8a3d 4037 b13d e18a ac3b
00000040: 4f53 cf3d c072 903d e203 5d3d 6bc3 4d3e
00000050: 7890 693d 8143 a13c d9d5 2ebe 21b5 cbbd
00000060: 9e45 95be 0c14 0fbe a24e 323e 2072 5bbd
00000070: bf17 22be 8f71 693c 343d 9d3d 8441 fb3d
00000080: 9f3b 96bb e4c0 9e3d 864c 56bd 2b07 453e
00000090: a0a4 93bd df63 873e 71cb febc e10a 313d
000000a0: 06de e5bb 97fd 2c3e a08b 5fbe f7c7 91be
000000b0: 115e 97bd 5563 003d fb0a d73d e8d5 353e
000000c0: 5485 58bd 7bcd 483d 59f9 cfbc d435 163d
000000d0: 0cfa 943c 0717 e53c d08a 793c 7c55 893d
000000e0: 99a1 e9bd be47 8abd 1916 9bbd b5a5 1f3e
000000f0: e21f f83a 1b7c a3bd e1d1 993c 6072 f53d
00000100: 4466 d8bd 8974 6e3b f1b9 03be 1eab ffbd
00000110: 1f2b 0bbd 1c70 0b3e 17e7 0d3d faf6 e73b
00000120: 0e08 14bd 04f8 0e3e d2e0 dfbd 5bbd f9bb
00000130: 0991 60bd 1ee8 ff3b 6047 d03d 69db b03c
00000140: dd78 16ba bfa4 42bd 770c 07be fd2e 3dbe
00000150: ef73 20be c559 2ebe 566c febb 69f4 e9bd
00000160: bc6a 003d d4ad 0b3e 27b3 e4bd 427f d43d
00000170: d99d 07be afe8 85be ec1c a03c 2cfc 2bbd
00000180: 419e 793c c380 88bc b9e8 bdbc ee40 3c3e
00000190: 9b0f e73c 05e8 633d cab6 12bd 4eac 293e
000001a0: abb3 0ebd c6a9 4f3e a0d4 2a3c a79a 4f3d
000001b0: 4f29 cc3d 9b29 a7bd 8f39 abbd 9ee1 0e3d
000001c0: c212 ecbd fe9d e2bc dee1 d5bc ab12 0bbd
000001d0: 2e90 09bd b773 8ebc 38c8 36bb c9bb 6b3e
000001e0: b29b 72bd ffc6 093d cbe5 bcbd 37a9 103d
000001f0: e419 1c3e 3104 553e d23c 5dbd 446e c03d
00000200: b1b1 72bd 77ba cbbd 4024 9e3d 1f75 64ba
00000210: a249 e7bc 941f 353e 025f d3bd 71e6 35bd
00000220: 47ce 123d 63d9 893d c39e 9d3d 9e47 6a3e
00000230: 61ac cfbb 105b 8d3d 7d26 cdbd ab90 ecbc
00000240: 3757 72bd 4286 5e3e 7d30 eabd 9d80 0ebc
00000250: 6bbf a43d 1804 44be 2fb6 64bd de1a a73d
00000260: 0451 543d 399c bd3c 2b23 183d 2668 1c3e
00000270: 1a85 b9bd d489 c5bd 54c8 44bd ca7e cbbc
00000280: 2211 c63d f8e9 483e 268a 053d ae65 6cbd
00000290: 212b 5c3d 8068 8c3e a5f0 80bd 48ee 8dbd
000002a0: fdd2 ec3d 0b97 c03d b37f 45bd ecb4 8d3e
000002b0: 5019 b3bd feb1 5dbe 3129 733d 9003 f03d
000002c0: 9aa1 883d 67d0 1a3e 7cf9 033d cfdd d93d
000002d0: c27a 04bd 8009 b23d 2b3d 05bc a677 2f3e
000002e0: 1417 8cbd a3e2 3cbb 6c83 36bd a4b5 e33c
000002f0: b3c3 f93b e857 483e c004 423d 57ed 113d
00000300: af49 01bc a3b2 8abe 382c 4cbd 58ec b8bb
00000310: 6a2c d1bd e859 84be f5eb a4bd b7b8 003e
00000320: f908 46bd 8370 b0bc 5886 9bbd 6124 8e3e
00000330: e30c 62be b36d 8ebc 5f59 80bd fb42 663c
00000340: 6380 763d 96d4 a23e 0632 563e bcd6 363e
00000350: 86c7 30bc e314 3abd 3584 35be 3d01 693e
00000360: aca0 93bd 9511 13be 1745 1f3e df0a 3abe
00000370: c7e7 ca3c a041 a1ba 9acb 243d 48a7 0b3e
00000380: 68d5 74bd b765 4dbc 3cb8 f5bd 4dc6 383c
00000390: 7473 4bbd d125 23ba 1558 853b 3657 183e
000003a0: 4b0c 8f3c 6e1c e6bc 54da 4e3e 7e75 db3d
000003b0: 1d6c 8a3d d8e6 303d 0073 103e 1a88 5c3e
000003c0: f242 d93d 9cbc 1b3e b2b8 ccbd 540d 413c
000003d0: 16f7 46be a198 f2bc 955a 673d d791 95bd
000003e0: 7073 883c 4ae3 a93d 29dd 1fbe 2c22 babd
000003f0: 19f8 42be 8738 8a3d 6fd1 1dbe 5254 89be

layer1.weight f4 [2, 1000]
-0.05750069 0.012959719 0.038578473 0.0140877 -0.04467277 0.016935105 0.00050233485 -0.0028594641
-0.0031408945 -0.014873496 0.03234404 0.0012788104 0.0010383201 0.0066641853 -0.03397514 0.008334236
0.029449727 -0.043991596 0.004392459 0.013868239 -0.04840175 -0.007018007 0.0081728045 -0.042279467
-0.0026811627 -0.043968894 0.07075234 -0.012874263 0.006733231 -0.008913311 0.004771107 -0.0124681005
-0.029445937 0.013090829 0.0043878728 0.009038218 0.0010467999 -0.006669335 -0.02402514 0.0054922616
0.0016872 -0.010616978 -0.02879076 -0.0062815505 0.017570512 -0.0053216573 -0.0159632 -0.012146611
0.018854763 -0.032271054 0.035024785 -0.033319566 0.011935725 -0.06089268 -0.021250954 0.033944786
-0.008559452 0.019075751 0.003930298 -0.0075349957 0.015635863 0.0034025742 0.02014434 -0.023744093
0.0034078602 -0.01857863 -0.014549565 -0.010195798 0.026400037 0.007987973 -0.0076587824 0.03466894
0.030475913 -0.008408055 0.001755323 -0.00020272179 -0.029099258 -0.048395645 0.047731493 0.014385393
-0.024226036 -0.0106383795 -0.010993578 0.04620705 0.017241009 -0.006745185 -0.01089125 -0.020028263
-0.007807629 0.02251345 -0.03993232 0.026146017 -0.0027441196 0.05264932 0.0026036764 0.008021
0.02605493 -0.04356577 -0.04125272 0.012082363 0.005666405 0.016570061 -0.014903925 0.0060546817
-0.0023218736 -0.0202968 0.031485163 0.043220412 0.026811002 -0.008846258 -0.04634231 -0.0014454665
-0.010508939 -0.020890383 0.03957246 0.009070477 -0.015715217 -0.03776249 -0.011201293 0.026599498
0.0137111265 -0.015672073 -0.009114554 0.057602208 -0.013591276 -0.027854623 -0.026233856 0.0141635835
0.0043508587 0.016928561 -0.03405309 -0.036354333 -0.0013300204 -0.0074888943 -0.0075719478 -0.018274678
0.030448772 0.019867437 0.02462123 -0.008700076 0.03096185 0.01769397 -0.0067253388 -0.028777162
0.04121143 -0.02284871 -0.011791733 0.02363216 0.028675698 0.00047811025 -0.059194338 -0.037564784
-0.009135012 0.014040865 -0.038301434 0.018866556 0.019540671 0.008388378 0.00048150652 0.01506691
-0.023250101 -0.0007231368 0.0067623383 -0.004069964 0.02141177 0.0019894522 -0.010377033 -0.010666254
0.038141645 -0.0068713734 -0.030091155 -0.016116219 0.021865398 -0.04178777 -0.024945531 -0.015090717
0.0057291775 -0.009737915 0.026974319 -0.078782566 0.0045580235 -0.053162012 -0.033147592 -0.010693944
0.035804864 0.0017268418 -0.01135996 0.01264116 -0.0064139655 0.016180001 0.0043817163 -0.020903632
0.023093872 0.017127942 0.02190751 -0.0066834623 0.0014064701 0.029120618 -0.058065023 -0.006592842
0.0106799165 -0.0329995 -0.035378028 0.028641382 -0.00057186146 -0.036984332 -0.010463942 0.028263355
-0.012663556 -0.0076458156 0.017411066 0.00070251216 -0.005722031 0.0022106143 0.006110457 0.01117354
-0.0029210136 -0.0016762177 0.027254982 0.015561054 0.031414885 0.0060452335 0.007440325 -0.013322613
0.006547514 -0.030434852 -0.008517815 -0.019120807 0.01404637 0.0073081437 0.030166592 -0.0017100732
0.014613552 -0.02012715 0.0026945155 -0.0052444455 0.059094284 0.014178076 0.027289838 -0.0140926605
-0.032864254 -0.0155745195 0.001143597 -0.00073254283 0.0131952595 0.03271592 -0.0043894215 0.009037189
-0.008160173 0.0067761373 0.025204938 -0.0018753101 -0.0015504715 -0.0034664874 -0.020757366 0.004947866
00000000: d885 6bbd 0055 543c 7604 1e3d 19d0 663c
00000010: cbfa 36bd 7dbb 8a3c 1faf 033a d965 3bbb
00000020: 77d7 4dbb f7af 73bc 2f7b 043d c29d a73a
00000030: 3e18 883a 3d5f da3b 8429 0bbd 528c 083c
00000040: 8e40 f13c 8830 34bd 9eee 8f3b 9c37 633c
00000050: ea40 46bd 4ff7 e5bb 3ae7 053c 3c2d 2dbd
00000060: 72b6 2fbb ba18 34bd 9ae6 903d 93ee 52bc
00000070: 6fa2 dc3b 2309 12bc f256 9c3b 0147 4cbc
00000080: 9b38 f1bc eb7a 563c 25c8 8f3b 0915 143c
00000090: c734 893a 708a dabb 5fd0 c4bc 6ef8 b33b
000000a0: 0a25 dd3a d5f2 2dbc 9ada ebbc 77d5 cdbb
000000b0: 09f0 8f3c 4c61 aebb 42c5 82bc 9402 47bc
000000c0: 4e75 9a3c a72e 04bd 2676 0f3d 197a 08bd
000000d0: 0f8e 433c 9a6a 79bd 7b16 aebc b009 0b3d
000000e0: f23c 0cbc c044 9c3c bbc9 803b 20e8 f6bb
000000f0: c816 803c b9fd 5e3b be05 a53c f982 c2bc
00000100: 6856 5f3b 3632 98bc 4c61 6ebc 470c 27bc
00000110: e444 d83c fddf 023c 86f6 fabb 0501 0e3d
00000120: 9fa8 f93c f0c1 09bc de12 e63a b791 54b9
00000130: 9161 eebc 833a 46bd 1982 433d b6b0 6b3c
00000140: ae75 c6bc 994c 2ebc 681e 34bc 9b43 3d3d
00000150: 043d 8d3c b606 ddbb 3771 32bc 5012 a4bc
00000160: 24d7 ffbb 206e b83c 1390 23bd 2c30 d63c
00000170: b0d6 33bb d0a6 573d 71a2 2a3b 836a 033c
00000180: 2671 d53c 0572 32bd 9df8 28bd 1af5 453c
00000190: 40ad b93b f0bd 873c 982f 74bc 5a66 c63b
000001a0: 932a 18bb 7a45 a6bc 96f6 003d e307 313d
000001b0: bfa2 db3c e5ef 10bc 6fd1 3dbd cf75 bdba
000001c0: af2d 2cbc 4f22 abbc bb16 223d 579c 143c
000001d0: 33bd 80bc d7ac 1abd a185 37bc 31e7 d93c
000001e0: a2a4 603c b862 80bc 3655 15bc 4bf0 6b3d
000001f0: f1ad 5ebc 612f e4bc 62e8 d6bc 600e 683c
00000200: a691 8e3b c4ad 8a3c 417b 0bbd 48e8 14bd
00000210: 1454 aeba 6665 f5bb 1a1e f8bb c7b4 95bc
00000220: b46f f93c 09c1 a23c 76b2 c93c c38a 0ebc
00000230: b5a3 fd3c f2f2 903c 3b60 dcbb 15be ebbc
00000240: 51cd 283d 382d bbbc 1d32 41bc 3b98 c13c
00000250: 4ce9 ea3c dfaa fa39 c375 72bd 88dd 19bd
00000260: 04ab 15bc a80b 663c f7e1 1cbd 098e 9a3c
00000270: c213 a03c 686f 093c b672 fc39 33db 763c
00000280: ff76 bebc e490 3dba 9b96 dd3b 555d 85bb
00000290: bc67 af3c 7861 023b 6e04 2abc 83c1 2ebc
000002a0: 6a3a 1c3d 4229 e1bb ba81 f6bc 2906 84bc
000002b0: 101f b33c a729 2bbd 925a ccbc 0e3f 77bc
000002c0: d3bb bb3b c78b 1fbc 3ff9 dc3c c158 a1bd
000002d0: 795b 953b 69c0 59bd c5c5 07bd a735 2fbc
000002e0: 1fa8 123d 3257 e23a 201f 3abc de1c 4f3c
000002f0: 3e2c d2bb ec8b 843c 8094 8f3b 183e abbc
00000300: 5c2f bd3c e64f 8c3c 6177 b33c f200 dbbb
00000310: 4e59 b83a 5d8e ee3c 97d5 6dbd c408 d8bb
00000320: d1fa 2e3c 7c2a 07bd 8de8 10bd 55a1 ea3c
00000330: f9e8 15ba e27c 17bd f470 2bbc 8d88 e73c
00000340: ce7a 4fbc c089 fabb a7a1 8e3c cb28 383a
00000350: e07f bbbb f4df 103b 3a3a c83b 3911 373c
00000360: 7a6e 3fbb 88b4 dbba d745 df3c cbf3 7e3c
00000370: e5ac 003d 1817 c63b f8cd f33b 1747 5abc
00000380: 878c d63b 8352 f9bc 4e8e 0bbc 3da3 9cbc
00000390: bf22 663c 2779 ef3b ee1f f73c 8924 e0ba
000003a0: ae6d 6f3c b1e1 a4bc 7896 303b 99d9 abbb
000003b0: d90c 723d 294b 683c f08e df3c e7e4 66bc
000003c0: ab9c 06bd 452c 7fbc bfe4 953a 1e08 40ba
000003d0: ee30 583c 2101 063d 23d5 8fbb b810 143c
000003e0: 3fb2 05bc 5c0a de3b 967a ce3c f7cc f5ba
000003f0: 3139 cbba 022e 63bb 5a0b aabc b521 a23b
