MLP_init_params.pt (torch, 289217 bytes, 2 tensors)

layer0.weight f4 [6000, 10]
0	0x3d09518b	0.03352503
1	0xbc48b017	-0.012249014
2	0x3e0bd60b	0.1365587
3	0xbb83f969	-0.0040275347
4	0xbea12b44	-0.31478322
5	0xbd8f74bd	-0.07004688
6	0xbe9d0643	-0.3066884
7	0xbe42a9bb	-0.1901006
8	0xbcf5d037	-0.030006511
9	0xbe68caa6	-0.22733554
10	0x3dbae0ee	0.09124933
11	0x3e055da8	0.13024008
12	0x3e7867a8	0.24258292
13	0x3e614cee	0.22002003
14	0x3d0081b1	0.031373683
15	0xbc8e7d77	-0.01739381
16	0xbd11c37c	-0.03558682
17	0xbe95b6f5	-0.29241148
18	0x3dd0df3d	0.10198829
19	0xbe94c5bd	-0.29057112
20	0xbe0af659	-0.13570537
21	0xbe3e500a	-0.1858522
22	0xbe2679f3	-0.16257457
23	0xbe746808	-0.2386781
24	0x3d4b40e6	0.04962244
25	0xbcfdcde4	-0.030981965
26	0xbe4a0511	-0.19728495
27	0x3d968984	0.07350448
28	0x3e88886f	0.2666659
29	0xbe874761	-0.26421645
30	0xbdcbcccb	-0.099511705
31	0x3e067b95	0.1313308
32	0x3e24b7a7	0.16085683
33	0x3e630b0f	0.22172187
34	0xbd27b867	-0.040947344
35	0xbd4bbc92	-0.04974038
36	0xbe2188f4	-0.157749
37	0xbe992846	-0.2991354
38	0x3e8a3da9	0.27000168
39	0x3e91a409	0.2844546
40	0x3e5b5429	0.21418823
41	0xbe19b9e8	-0.15012324
42	0xbe9f6727	-0.31133386
43	0xbd41fd6f	-0.047360834
44	0xbe043554	-0.12910968
45	0x3c422b1e	0.0118511
46	0xbdd6bf27	-0.10485678
47	0xbe436712	-0.19082287
48	0x3e334d70	0.17510009
49	0xbea0e6ed	-0.31426182
50	0xbe592d42	-0.2120867
51	0xbe5fcd8a	-0.2185575
52	0xbe92150a	-0.28531677
53	0xbdd4a134	-0.103823096
54	0x3c7a965f	0.01529464
55	0x3d00d16f	0.03144973
56	0xbe5a1dc6	-0.2130042
57	0xbe3cc965	-0.18436201
58	0x3e66fcac	0.22557324
59	0xbc6b4817	-0.014360449
60	0x3e5ab072	0.21356371
61	0x3c919f96	0.017776292
62	0xbe148926	-0.14505443
63	0xbe82ae44	-0.2552358
64	0x3d52ce58	0.051466316
65	0xbe5a6a92	-0.21329716
66	0x3e719039	0.23590173
67	0xbdc7cca8	-0.09755832
68	0xbe8205fb	-0.25395188
69	0x3dad3ab9	0.08458466
70	0x3da80a4c	0.08205089
71	0x3e605707	0.21908198
72	0xbdc539d4	-0.096301705
73	0x3deaad08	0.11458784
74	0xbe3304d2	-0.17482308
75	0x3dfde588	0.12397295
76	0x3ca1b7e6	0.01974101
77	0xbe66a4da	-0.22523823
78	0xbe993225	-0.2992107
79	0x3df908b3	0.12159862
80	0xbdccc987	-0.09999376
81	0xbdaa0abe	-0.0830283
82	0x3e8a6e10	0.27037096
83	0x3ce9b0c5	0.028526673
84	0x3c1ac3a4	0.009446058
85	0x3e8d2d56	0.2757365
86	0xbe9a7ca6	-0.30173224
87	0x3df04cad	0.11733375
88	0x3da4cc19	0.08046741
89	0x3d9af409	0.07566077
90	0xbdbffc9c	-0.09374353
91	0xbda6ed2f	-0.08150708
92	0x3daa31d7	0.083102874
93	0xbe9b6061	-0.3034697
94	0x3e96a422	0.29422098
95	0xbd511a50	-0.051050484
96	0x3de5e257	0.112248115
97	0x3dddcd9a	0.10830231
98	0xbe9227ac	-0.28545892
99	0xbd891cad	-0.066949226
100	0x3e7bba6c	0.24582833
101	0x3e5424ad	0.20717116
102	0x3e5a5582	0.21321681
103	0xbd105d69	-0.035245333
104	0xbe8b339e	-0.27187818
105	0xbe32b04e	-0.17450067
106	0xbdb4ad3a	-0.08822103
107	0xbd9fb74b	-0.07798632
108	0x3daa9732	0.083296195
109	0xbe82f61c	-0.25578392
110	0xbe559a6d	-0.2085969
111	0xbe476bc9	-0.1947471
112	0x3e95a6a4	0.292287
113	0xbdab08aa	-0.08351262
114	0x3e67efd5	0.22650082
115	0xbe2d1dbd	-0.16905876
116	0x3d7d3501	0.061818127
117	0x3e789e49	0.24279131
118	0x3e5e0135	0.21680148
119	0x3e19c613	0.15016966
120	0x3de6d10e	0.11270343
121	0xbd154422	-0.03644193
122	0xbd5be551	-0.05368549
123	0xbe6970b1	-0.22796895
124	0xbd80fc84	-0.062981635
125	0x3d20ac7c	0.039226994
126	0x3e1a34f7	0.15059267
127	0xbe5abf82	-0.21362117
128	0x3e6f3558	0.23360193
129	0xbe969178	-0.2940786
130	0xbe35193d	-0.17685409
131	0x3d4ac2df	0.04950225
132	0xbda9783c	-0.08274886
133	0x3d021e29	0.031767044
134	0x3e36fa79	0.17868985
135	0x3e9eb05b	0.30993924
136	0xbe14de78	-0.1453799
137	0x3d3a99ba	0.04555676
138	0xbd8637d1	-0.06553615
139	0x3db90a8d	0.090352155
140	0xbda379c8	-0.07982212
141	0x3c4078d0	0.011747554
142	0xbe7a37fc	-0.24435419
143	0xbe3fa227	-0.187142
144	0xbe3edea8	-0.18639624
145	0xbe889c37	-0.26681682
146	0xbe61472a	-0.21999803
147	0xbc91654f	-0.017748503
148	0xbe43d709	-0.19124998
149	0x3e19721c	0.14984936
150	0xbd61696c	-0.05503218
151	0xbe10e97a	-0.14151564
152	0x3c2f1c4f	0.010687902
153	0xbe789a91	-0.24277712
154	0xbe620573	-0.22072391
155	0xbe795bef	-0.24351476
156	0xbe6950a1	-0.22784664
157	0x3e4c18f9	0.19931401
158	0xbe4d88e8	-0.20071757
159	0xbe8ce70e	-0.2752003
160	0x3dbc9def	0.09209811
161	0x3e542682	0.20717815
162	0xbe1f52f8	-0.15558994
163	0xbe245733	-0.16048889
164	0xbe9a54e3	-0.30142888
165	0x3e3ea815	0.18618806
166	0xbd320868	-0.043465048
167	0x3e073b85	0.13206299
168	0x3e8d1b19	0.27559736
169	0xbc999fb7	-0.018752916
170	0xbdb86c28	-0.09005004
171	0xbe8f54c1	-0.2799435
172	0x3ce924a0	0.028459847
173	0xbdfd86ff	-0.12379264
174	0x3ea0273f	0.31279942
175	0x3dc4ac03	0.09603121
176	0x3e22cd47	0.1589862
177	0x3e93b239	0.2884691
178	0x3e602aa3	0.21891265
179	0xbdf41e39	-0.11919827
180	0xbd93a96d	-0.0721005
181	0x3db66409	0.08905799
182	0xbd86cebe	-0.06582402
183	0x3e91a9e5	0.28449932
184	0xbe9d7bcd	-0.30758515
185	0x3e55d73c	0.20882887
186	0xbdf82b17	-0.12117594
187	0xbe276ae1	-0.16349365
188	0x3e652f5a	0.22381344
189	0xbd466d28	-0.048443943
190	0xbdda2cf4	-0.106531054
191	0xbe726539	-0.23671426
192	0xbdd2f8d3	-0.10301366
193	0xbcecdfd7	-0.028915329
194	0x3b6f62d8	0.0036527421
195	0x3e8d0760	0.2754469
196	0xbdf1e4d5	-0.11811224
197	0xbdcde102	-0.100526825
198	0xbe0c90c3	-0.13727097
199	0xbe35add1	-0.17742087
200	0x3dbcfe9e	0.09228252
201	0x3e0aa303	0.13538747
202	0xbe0171fa	-0.12641135
203	0x3e46d08c	0.19415492
204	0x3e87d6d8	0.265311
205	0xbddde9d9	-0.108356185
206	0xbe252ccc	-0.1613037
207	0xbe3b94c0	-0.18318462
208	0x3e9d62fc	0.30739582
209	0xbd240e3d	-0.04005264
210	0x3ce6fe4e	0.028197434
211	0x3e8f68d7	0.28009674
212	0x3d356ddb	0.04429422
213	0xbd92bda2	-0.07165076
214	0x3d8dee96	0.06930272
215	0x3e8d41ba	0.27589208
216	0xbe83866c	-0.25688493
217	0xbe846dc5	-0.25864998
218	0x3cd94829	0.026523666
219	0xbe944539	-0.28959063
220	0xbe9ccb67	-0.30623934
221	0x3d910808	0.0708161
222	0x3da336fc	0.07969472
223	0x3e9d2406	0.30691546
224	0xbe6a685e	-0.22891375
225	0xbd3a05bc	-0.045415625
226	0xbe99c8f1	-0.3003612
227	0xbbcb471c	-0.0062035453
228	0x3e37e008	0.17956555
229	0xbbf8e717	-0.0075959074
230	0x3e890dec	0.26768434
231	0xbdd10f4f	-0.10207998
232	0x3e2a12cf	0.16608737
233	0x3e8053b6	0.25063866
234	0x3e17937f	0.14802359
235	0xbc6a4d86	-0.01430071
236	0x3e0a602c	0.13513249
237	0xbd911985	-0.070849456
238	0xbe06aa88	-0.1315099
239	0xbe934957	-0.2876689
240	0x3df1c6c3	0.11805489
241	0x3c72e034	0.014823962
242	0xbe1f76c1	-0.15572645
243	0x3d995ca4	0.07488373
244	0xbc9bf108	-0.019035831
245	0x3d9b2102	0.07574655
246	0xbb7776bb	-0.0037759978
247	0xbe5882ba	-0.21143618
248	0xbe90ec66	-0.28305358
249	0xbe1e5208	-0.1546098
250	0xbda5f6b0	-0.081036925
251	0xbcf660b6	-0.030075412
252	0xbe9a92e0	-0.30190182
253	0x3e9e916e	0.3097033
254	0xbe9fca4d	-0.3120903
255	0xbe3a114d	-0.18170662

layer1.weight f4 [2, 6000]
0	0xbc2276ae	-0.009915991
1	0x3bf4456c	0.007454565
2	0x3bba440a	0.0056843804
3	0x3b888b17	0.0041669714
4	0xbb8bf60b	-0.004271274
5	0xb8a14bd6	-7.691204e-05
6	0xbc0a5993	-0.008444208
7	0x3b18c255	0.002330919
8	0x3c1aa836	0.009439519
9	0xb9fe5f48	-0.00048517645
10	0xbbd6b7ac	-0.006552657
11	0x3c1895bc	0.009313043
12	0xbba43c75	-0.00501209
13	0xbc35b80f	-0.011091246
14	0xbc09a29d	-0.008400586
15	0x3bed238a	0.0072369026
16	0xbc532881	-0.012888075
17	0xbb485a80	-0.003057152
18	0xb93f5f75	-0.0001825074
19	0x3b6b912e	0.0035944688
20	0x3b22146d	0.0024731413
21	0xbbe8c364	-0.0071033705
22	0x3c384ef3	0.011249292
23	0x3c2da52b	0.010598461
24	0x3bca5a80	0.006175339
25	0x3bc95d3e	0.0061451485
26	0xbbbb5629	-0.005717058
27	0xbbefc1b0	-0.0073167905
28	0xbba1355d	-0.0049196915
29	0xbc535a02	-0.0128998775
30	0x3bcb0a15	0.00619627
31	0x3a93164f	0.0011221858
32	0xbc32131f	-0.010868817
33	0xbb976675	-0.004620368
34	0x3be650c7	0.0070286724
35	0xbc31a1ea	-0.010841826
36	0xbc0c7595	-0.008572956
37	0xbbc53793	-0.006018588
38	0x3c34890c	0.011019003
39	0xbaaf3b41	-0.00133691
40	0x3c1a5ce7	0.009421564
41	0x3a6069e8	0.0008560703
42	0xbc524c24	-0.012835536
43	0xbc59e49e	-0.0132991355
44	0x3baf93c6	0.005358192
45	0x3a0c13e8	0.00053435424
46	0xbb129e37	-0.0022372135
47	0x3bfb1bf5	0.007663245
48	0x3ac61008	0.0015110979
49	0x3c0df2d2	0.00866385
50	0xba23723e	-0.000623498
51	0xbc2dc519	-0.010606074
52	0x3b0578a3	0.0020366095
53	0xbc123918	-0.008924745
54	0x3c0ba1d0	0.008522466
55	0x3c50a787	0.012735254
56	0xbacc84d4	-0.0015603551
57	0x3c032bcc	0.008006047
58	0x3ad856fa	0.0016505413
59	0xbc0c79e0	-0.008573979
60	0x3a17df2f	0.000579345
61	0xbbc15d10	-0.0059009865
62	0xbc2678de	-0.010160653
63	0x3beaabef	0.0071616094
64	0xbc203815	-0.009778996
65	0x3af739e4	0.0018861857
66	0x3bc893d8	0.00612114
67	0xbb2cc478	-0.0026362222
68	0xbc232ec9	-0.009959885
69	0x3bdd1b93	0.006747672
70	0x3b8b06b7	0.004242744
71	0xbafe3e87	-0.0019397297
72	0x3c013e54	0.007888395
73	0x3b14b90f	0.0022693311
74	0xbc4f6cb6	-0.012660196
75	0xbb100002	-0.002197266
76	0x3c3081f6	0.010773173
77	0xba99e53a	-0.0011741288
78	0x3c0259fc	0.007956024
79	0xbbea0d43	-0.007142694
80	0xbb05a08f	-0.002038989
81	0xbba673e8	-0.005079735
82	0xbbb20bf4	-0.005433554
83	0x3c1e95c9	0.009679266
84	0x3c0ecb58	0.008715473
85	0x3b723d8d	0.0036962957
86	0xbba96c77	-0.0051704007
87	0x3bc3faa2	0.0059808055
88	0xbbd760e7	-0.006572831
89	0x3c2b8fce	0.010471297
90	0xbb5b9f10	-0.0033511557
91	0x3beb2faf	0.007177315
92	0xbbf6435e	-0.007515355
93	0xbc579219	-0.013157391
94	0x3b8a595d	0.0042220787
95	0xbc206f40	-0.009792149
96	0xbc282cfe	-0.010264633
97	0xbbef1587	-0.0072962674
98	0x3b84d339	0.0040535
99	0xbbb9c84e	-0.00566963
100	0x3c754584	0.014970187
101	0x38979b31	7.229148e-05
102	0x3bb0233d	0.0053752945
103	0x3bd1a79b	0.006398154
104	0x3beba2a1	0.0071910177
105	0xbb97992f	-0.004626415
106	0xbb9856a4	-0.0046490002
107	0xbb703afd	-0.0036656254
108	0x3a9c5b56	0.0011929076
109	0xbb61f293	-0.003447686
110	0xbc5a67e3	-0.013330433
111	0xbc337f92	-0.010955708
112	0x3ba13c25	0.0049205
113	0x3862c5b4	5.4066724e-05
114	0x3b520c83	0.0032050915
115	0x3c213693	0.009839672
116	0x39ca3621	0.00038568772
117	0x3ba421be	0.005008905
118	0xbbaab5e8	-0.005209673
119	0x3c08baa3	0.008345279
120	0xbc1d4e56	-0.009601196
121	0x3b0865a9	0.0020812547
122	0x3a9bdb77	0.0011890967
123	0xbc19d756	-0.009389719
124	0x3aa5a10f	0.00126365
125	0xbbf3899c	-0.007432176
126	0xbc030e95	-0.007999082
127	0x3b93e469	0.0045133126
128	0xbc21703e	-0.009853421
129	0xbbb82389	-0.0056194705
130	0xba302b60	-0.00067203306
131	0xbb93060c	-0.004486805
132	0x3bed3db3	0.007240021
133	0x3a83cf1f	0.0010056234
134	0x3c124e24	0.008929763
135	0xbb1f7cc1	-0.0024335834
136	0xbc3decd7	-0.011592112
137	0xbb9fd3dd	-0.004877551
138	0x3bf0d354	0.007349411
139	0xbc3425ff	-0.010995387
140	0x39a665c4	0.0003173781
141	0x3b474136	0.003040386
142	0xbc4bd135	-0.012440016
143	0x38c75869	9.505527e-05
144	0x3c1aaf1f	0.009441166
145	0xbab1b3f1	-0.0013557655
146	0x3c114482	0.008866431
147	0xbbe44a67	-0.0069668773
148	0xbbdb16bf	-0.006686061
149	0x3a7e3c9e	0.0009698364
150	0xbc03bd5f	-0.008040755
151	0x3b3f557d	0.0029195242
152	0xbad61b9a	-0.001633513
153	0x3b1d7adc	0.0024029529
154	0x3bbd2da5	0.0057732635
155	0x3b8a771c	0.0042256247
156	0xbc2c59be	-0.010519443
157	0xbb87dfa9	-0.0041465354
158	0xbb36cca5	-0.0027892974
159	0xb71eb889	-9.460499e-06
160	0x3c1dc84d	0.009630275
161	0x3b619286	0.003441961
162	0x3bf04776	0.0073327376
163	0xbc2a2dc4	-0.010386888
164	0xbbd15d2d	-0.0063892812
165	0x3c076a36	0.008265069
166	0xbae4980c	-0.0017440333
167	0x396d794c	0.00022647268
168	0x3ba1d89c	0.004939152
169	0xbb321b6b	-0.0027176987
170	0xbbea30f2	-0.007146948
171	0xbb288f7c	-0.002572029
172	0x3c1b729a	0.009487772
173	0xbc021af5	-0.007940997
174	0x3c110755	0.008851846
175	0xb9e39a67	-0.00043411853
176	0xbc278f61	-0.010227055
177	0xbb406977	-0.0029359737
178	0x3be6e3bf	0.0070461924
179	0xbb26ba9c	-0.0025440818
180	0x3c27bfea	0.010238627
181	0xbc6e7120	-0.014553338
182	0x3b0fe8d3	0.0021958842
183	0x3b20ec8b	0.0024555053
184	0xbbe97c83	-0.0071254387
185	0x39cb4e8b	0.00038777696
186	0x3b847f52	0.004043498
187	0x3a3ca798	0.0007196604
188	0xbbd84ea1	-0.00660117
189	0x3bf15558	0.00736491
190	0xbb6e0eaf	-0.003632467
191	0xbbcd7ab4	-0.006270731
192	0xbbbb02b1	-0.005707108
193	0x3b6d7591	0.0036233405
194	0xbb2223c1	-0.002474055
195	0x3b5a1e0c	0.003328207
196	0xbaa50e18	-0.0012592701
197	0x3c199ae4	0.009375308
198	0xbb83ec5f	-0.0040259804
199	0xbbeeb467	-0.007284689
200	0x3be8f279	0.007108983
201	0xbb633fdf	-0.0034675521
202	0x39ff16e4	0.00048654445
203	0x3b28477f	0.002567738
204	0x3a9a67f7	0.0011780252
205	0x3c14a112	0.009071605
206	0x3bc3781d	0.0059652464
207	0xbc21232d	-0.009835047
208	0x3c22c358	0.009934269
209	0x3c08c239	0.008347088
210	0xb904cd03	-0.00012664874
211	0xbb403901	-0.0029330852
212	0xba746692	-0.00093231455
213	0x3a347169	0.00068833545
214	0xbba992d1	-0.0051749726
215	0x3bdd52eb	0.0067542694
216	0x3b656184	0.003500075
217	0x3b48c308	0.0030633826
218	0x3bffea9b	0.0078099496
219	0x3bb060c6	0.00538263
220	0xbc041440	-0.008061469
221	0x3c46918e	0.012119664
222	0x3b066e05	0.0020512354
223	0x3c2e1400	0.010624886
224	0xbc33b030	-0.010967299
225	0x3bfa62d0	0.007641174
226	0x3c4023ce	0.0117272865
227	0x3b887141	0.0041638915
228	0xbc02e810	-0.007989898
229	0x3ad17dfa	0.0015982979
230	0xbbfc8257	-0.0077059674
231	0x3b8f64fa	0.004376051
232	0x3bac8e16	0.0052659614
233	0xbb24df56	-0.0025157533
234	0x3b405b3f	0.0029351262
235	0xbbd5ee9a	-0.0065286877
236	0xbc10c569	-0.008836129
237	0x3c6fca88	0.01463569
238	0xbc5f7058	-0.013637625
239	0xbbce3f5d	-0.0062941746
240	0xbbe94290	-0.0071185306
241	0xbbe42ef5	-0.0069636055
242	0xbb154d9d	-0.0022781857
243	0xbb945f8b	-0.004527991
244	0xbc1c343c	-0.009533938
245	0x3b02c384	0.0019952962
246	0x3a8882cd	0.0010414958
247	0x3c31d7bb	0.010854657
248	0xbbf877fe	-0.0075826636
249	0x3bcd7b3d	0.0062707947
250	0xbbf742e8	-0.0075458176
251	0xbc1801bc	-0.009277757
252	0x3b82ac0a	0.003987794
253	0x3c20d07e	0.009815333
254	0xbb595d2d	-0.003316711
255	0xbc1706a0	-0.009217888
