MLP_init_params.pt (torch, 49217 bytes, 2 tensors)

layer0.weight f4 [1000, 10]
000000 3e c0 fb bd b3 dd 26 bd eb b5 b7 bd ce d8 f2 bd
       -0.12292527 -0.040738773 -0.08970245 -0.118577585
000010 7f 82 5d be 83 5e 7f 3d a3 a5 f2 bd 93 6e 01 3d
       -0.21631812 0.062345993 -0.11847999 0.031599592
000020 1c a4 c3 bb 79 38 96 3d 69 a0 0e bd a2 cf 23 3d
       -0.005970491 0.0733499 -0.034820948 0.039992936
000030 5b 67 ea bc df 6c 8e be 80 bd 19 be 1d b8 0f be
       -0.028613737 -0.27817437 -0.15013695 -0.14035077
000040 29 bc ab bd ec 9a 47 bd ef 04 b8 bc 30 74 5f 3d
       -0.08385498 -0.04873173 -0.02246329 0.054554164
000050 3d 5f c8 3d 00 cd db 3d 4b 95 46 3e 7c 29 76 be
       0.0978379 0.1073246 0.19392888 -0.24039263
000060 2e 7c 15 3d e3 77 fe 3d c2 0c c5 3d 79 7d 12 be
       0.03649538 0.1242521 0.09621574 -0.14305677
000070 a5 eb f9 3a 56 87 3d 3e dc da bb 3c 53 e9 63 bc
       0.001906742 0.18508658 0.022931509 -0.013910609
000080 5b 36 39 be c9 fb 97 bd e5 44 c9 bd 6b f6 dd bc
       -0.18087141 -0.07421071 -0.09827594 -0.02709504
000090 7d d0 58 be c9 fe 03 be 40 ab 97 be 1d c7 9a be
       -0.21173282 -0.12890162 -0.2962284 -0.30230036
0000a0 ba 74 0a 3e 1f 15 cb 3e a1 0f 99 3d 66 5b 88 be
       0.1352109 0.39664552 0.07473684 -0.2663223
0000b0 77 90 f2 3d ee 04 dd 3e 51 d2 84 3e 23 10 11 be
       0.11843961 0.43167824 0.2594171 -0.14166312
0000c0 f9 ef f6 bd 8e 05 78 3d bf 97 09 be 41 af 78 bd
       -0.1205749 0.060552172 -0.13436793 -0.06071401
0000d0 f6 60 5c be 68 93 a9 3d 6c b9 40 be b6 a7 44 bd
       -0.21521363 0.08280069 -0.18820733 -0.048011504
0000e0 b8 7e 59 be b6 bc 71 bc 97 10 30 be d7 e5 04 3e
       -0.21239746 -0.014754465 -0.17193829 0.12978302
0000f0 25 a7 06 3e 8b 93 59 3e 6b e3 17 bc b8 39 44 bd
       0.13149698 0.2124769 -0.009270529 -0.047906607
000100 2d b1 87 3d f3 0d 33 3e c9 f4 15 bd 0f b2 51 3d
       0.066255905 0.1748579 -0.0366104 0.0511952
000110 fd bf cc bd 1f 03 c6 bd 68 21 da 3c 23 3a 7b 3d
       -0.09997556 -0.09668564 0.026627257 0.06133474
000120 90 6c 0d be a2 ef 4d 3e 29 36 40 bd a0 06 77 bd
       -0.13810945 0.20110944 -0.04692665 -0.060309052
000130 b2 cc 89 bd a8 ee 51 bd 77 ad 2d be 3b 8a 65 3d
       -0.06728496 -0.05125299 -0.16960703 0.05604003
000140 c1 fa 83 bd 5a 3a 20 bb 10 dd 92 bb 88 bc 4a 3b
       -0.06444312 -0.0024448843 -0.004481919 0.0030935127
000150 1e a1 fd bd e4 21 de bc ca 11 54 be a7 67 93 bc
       -0.12384246 -0.02711577 -0.20709911 -0.017993761
000160 e0 1b 0b bd 01 65 d7 3b f8 95 fc 3d 30 88 f2 3d
       -0.03396213 0.00657332 0.12333292 0.11842382
000170 22 c6 7f 3d b6 0a 32 3e 76 2e 35 bd f0 c3 cb 3c
       0.062444814 0.17386898 -0.04423376 0.024873704
000180 c7 b7 32 bc a6 24 be 3d f7 cc 60 3b 04 33 b9 3b
       -0.010908074 0.09284334 0.0034301856 0.0056518335
000190 fe 10 72 3c 70 c1 57 bc 4b d2 0c bd 1a 24 06 be
       0.014774559 -0.013168678 -0.03438024 -0.13099709
0001a0 71 48 bc bd bb 5c a6 3d d5 88 d9 bd e5 a6 13 be
       -0.091935046 0.08123156 -0.10621802 -0.14419134
0001b0 30 a8 74 bd 44 36 02 3d 0e c9 e5 bb 84 c3 d3 3d
       -0.05973071 0.031790033 -0.007012493 0.10340026
0001c0 84 2d 58 3b ed 5a 04 3e 07 a6 94 bd a0 88 a4 3e
       0.0032986114 0.1292531 -0.0725823 0.32135487
0001d0 38 3e d8 bd 1c 70 6a 3d 84 36 a2 bd 8d 29 8f bd
       -0.10558742 0.057235822 -0.07920554 -0.06990347
0001e0 52 04 12 3d 15 86 a0 3d 70 11 bb bd 66 6b d7 3d
       0.03564865 0.07838074 -0.09134185 0.105185315
0001f0 57 21 11 be e7 c0 f7 3d f1 76 6c bd 7d 09 56 bc
       -0.14172874 0.1209734 -0.05773062 -0.013063786
000200 d9 f9 68 3d 44 72 41 bd 1c 12 1f be b5 57 a5 bd
       0.0568789 -0.047228113 -0.15534252 -0.080733694
000210 92 a3 4a bd 18 46 1f bd 0e 0f 34 bd 4c e0 34 3e
       -0.0494724 -0.038885206 -0.04395967 0.17663687
000220 ac 0e 06 be e7 cb f9 bd d6 ad 75 be a7 45 ae bc
       -0.13091534 -0.121970944 -0.23992094 -0.021273447
000230 44 61 5c bd ec 84 aa bc 98 b0 89 bd c8 3a eb 3b
       -0.053803697 -0.020815335 -0.06723136 0.007178638
000240 c8 f6 4f 3d 98 e9 21 be 16 09 ab bd 9e 70 8a bd
       0.05077246 -0.15811765 -0.083513424 -0.06759761
000250 19 a4 3e bd b0 33 dc 3d cc 19 02 3e d6 4c 8b bc
       -0.046543214 0.10752046 0.12705153 -0.017004412
000260 fa d3 59 3d 12 aa fd bb 6e c8 40 bd 65 a5 8d 3d
       0.053180672 -0.007741221 -0.047066145 0.06916312
000270 60 25 87 bd 87 45 33 be f3 d0 76 3d 7c 29 99 3e
       -0.065989256 -0.17506991 0.060257863 0.29914463
000280 4d 87 c7 3c 85 50 cb bb 4e bc b8 bc d7 22 62 3d
       0.024356509 -0.006204667 -0.022550728 0.055209007
000290 41 41 7b bd ef 2d eb 3d d6 94 b3 bd ce f7 9e bd
       -0.061341528 0.114833705 -0.087686226 -0.07762109
0002a0 a3 a2 47 3c 8a a1 8d 3d fd 39 df 3c 8d 35 63 3e
       0.012184772 0.06915577 0.02724933 0.22188397
0002b0 4c ca c2 bd 91 33 13 be d5 70 4f be 77 f4 9a 3e
       -0.09511241 -0.1437514 -0.20257886 0.30264637
0002c0 8e af 92 3e 6a 49 34 3d 07 5c ea bd 62 e6 b1 3e
       0.28649563 0.044015326 -0.11443334 0.3474608
0002d0 43 76 76 3d f2 97 2b 3e 33 b3 7f bd d4 66 8d be
       0.060171377 0.16757181 -0.062426757 -0.27617514
0002e0 44 8b 83 bd 55 51 09 3e 91 e8 82 bd da c6 31 be
       -0.06423047 0.13409932 -0.06392015 -0.17361012
0002f0 78 19 a9 bd 18 f4 ef 3c f3 83 db bd 87 b7 c6 bb
       -0.08256811 0.029291198 -0.10718527 -0.0060643586
000300 01 e8 16 be da 9b b1 bd 8f 80 7e be 60 e6 d7 3c
       -0.1473694 -0.086723045 -0.24853729 0.026354969
000310 2d 5f 26 be bb 53 ad bd 64 ce 91 bd 18 d6 6b be
       -0.16247244 -0.08463236 -0.07119444 -0.23030889
000320 96 fd d3 bc 7a fb 80 3d 54 2d 9c bd 4f e5 77 3d
       -0.025877755 0.06297965 -0.07625833 0.06052142
000330 85 71 3f be a0 55 54 3e 44 51 17 3b 66 77 35 3e
       -0.18695648 0.20735788 0.002308921 0.17721328
000340 05 c4 1d 3c 08 bd 82 be 1f dc a4 3d 01 15 cd 3d
       0.009629254 -0.25534844 0.08049797 0.10013772
000350 17 79 d1 3c 85 c4 6e be 95 57 19 3c 3f 27 91 bd
       0.025570435 -0.23317154 0.00935926 -0.07087564
000360 8b 01 b3 3d b5 0d 87 bb 89 d8 bc 3d d5 34 31 3e
       0.08740529 -0.004121507 0.09220988 0.1730531
000370 52 b9 1f bd 10 ae 2d 3c f1 f9 46 be b1 b3 5b bd
       -0.038995095 0.010600582 -0.19431283 -0.053638164
000380 46 96 77 be 83 56 41 3d ba 1c e9 bd 34 dd 06 be
       -0.24178419 0.047201645 -0.11382432 -0.1317032
000390 e7 d0 a4 bd 39 47 87 bd a9 72 ad 3d 69 fb 95 3d
       -0.080476575 -0.066053815 0.08469135 0.07323343
0003a0 00 79 30 bd b5 ef f6 bd 99 2e b5 bd d0 bf 30 3e
       -0.043084145 -0.12057439 -0.088467784 0.1726067
0003b0 cc 8b ce bc 53 80 9f bd d8 96 b9 3d 5c e8 5e 3e
       -0.025213145 -0.07788148 0.09061974 0.21768326
0003c0 a9 3f 77 bd 09 63 c8 3a b9 ab 40 3c e2 e5 2e 3e
       -0.060363445 0.0015288304 0.011759692 0.17079881
0003d0 a3 67 95 bd b7 51 c6 3e 1e 36 0a be 5e 05 fb 3d
       -0.07295158 0.38734218 -0.13497207 0.12256883
0003e0 f3 98 a4 3d 68 27 0e bd 19 19 47 3b 2f 86 af 3c
       0.08036985 -0.03470555 0.003037995 0.021426288
0003f0 e6 a8 10 be 9a 9a 2a be 9e 3c 30 be 1e 7b 91 bc
       -0.1412693 -0.16660538 -0.17210624 -0.017758902

layer1.weight f4 [2, 1000]
000000 73 3a 01 bd 3c 40 f3 bc 20 87 37 bd 7b af 48 3c
       -0.031549882 -0.029693715 -0.0448066 0.012248869
000010 10 e8 07 bc 24 7a 4d bc 6f 76 0c 3c 88 82 b4 3c
       -0.008295074 -0.012541328 0.008573159 0.022034898
000020 4d e9 29 3d d5 fd 25 bd 53 cc d4 bc a4 c0 a4 3c
       0.04148226 -0.040525276 -0.025976336 0.02011139
000030 09 db c2 3b 08 ed a2 3a 77 db 19 bd 8e 2f 9e bc
       0.005946521 0.001243026 -0.037562814 -0.019309785
000040 8a 64 86 bc 34 67 8b 3c 04 11 3d 3c 18 a8 2d bc
       -0.016405363 0.017016985 0.011539701 -0.010599159
000050 5c 1a 4d bc 6a c5 86 3c c8 85 40 bc 11 43 50 bc
       -0.012518492 0.016451556 -0.011750646 -0.012711302
000060 f7 2f b9 bb dd cd 0b bd 48 85 54 3a 43 f8 3a 3c
       -0.00565147 -0.034131873 0.00081070187 0.011411729
000070 f9 79 9d bb bc 01 1d bc 7e da 12 bb a6 1e 25 3d
       -0.0048058 -0.009582933 -0.0022408064 0.04031243
000080 3d d7 44 bb f7 2c cb bb c2 9a 04 3d 4c 88 70 bb
       -0.0030035519 -0.0062004286 0.03237415 -0.0036702333
000090 48 80 33 3d 56 a2 0e bc a7 5b 15 3c e2 92 45 3c
       0.04382351 -0.008705696 0.00911609 0.012058945
0000a0 98 9b 94 3b 1b d9 ba bb 1a bf 45 3c 37 ca fc 3c
       0.00453515 -0.0057021505 0.012069488 0.030858142
0000b0 c8 ff 51 bd 7d 74 00 3d 13 65 20 3c d4 31 ea 3c
       -0.051269323 0.031361092 0.009789723 0.028588213
0000c0 90 d8 7a bc 78 f7 40 3c 18 ae 0b 3c 16 47 37 3d
       -0.015310422 0.011777751 0.008525394 0.044745527
0000d0 7e 65 10 bc 7b c6 04 bd 98 b6 b2 3c 12 44 b5 bc
       -0.00881326 -0.03241585 0.021815583 -0.022127185
0000e0 d9 08 36 3c ab 69 31 bc b6 66 89 3c 92 33 30 3c
       0.011110508 -0.010828416 0.01677261 0.010754483
0000f0 16 8d ea bc 47 cc 6e bc 03 f4 e1 bc 52 45 62 bd
       -0.028631728 -0.014575071 -0.027582174 -0.05524189
000100 69 f7 3c bc 7f 0e 74 ba 5d 23 0c 3d a6 14 b7 bc
       -0.011533597 -0.00093100214 0.034213413 -0.022348713
000110 40 9c 40 3d 53 57 06 bd 70 0a 93 3c 33 d3 1c 3a
       0.04702401 -0.032798123 0.017949313 0.0005982399
000120 4f 8a 99 3c bf 37 45 3b 7c 95 8b bc c2 6a 64 3a
       0.018742708 0.0030093042 -0.017039053 0.0008713418
000130 44 17 8e bc a3 17 0c bd ea 36 8b bc 6e 8a 2e bc
       -0.017345078 -0.03420223 -0.016993959 -0.010653121
000140 0e ac 86 3a 55 76 0b 3d 5c e8 05 bd fe 23 21 bd
       0.0010274665 0.034048397 -0.0326923 -0.039340965
000150 c0 75 9c bb 05 9e 3d 3d 14 ff a2 3c 2f 54 1b bc
       -0.004774779 0.046293277 0.019897021 -0.00948052
000160 1e d9 b9 bb e1 ce 81 3d f0 d3 44 bc e5 68 f8 bc
       -0.0056716343 0.06338287 -0.01201342 -0.030323455
000170 9a ae 9e 3c cf ac 2c 3b 38 99 81 bc 68 ae 26 bc
       0.019370366 0.002634812 -0.01582013 -0.010173418
000180 18 de 1e 3d f3 e5 cc bc 3f 33 04 3d 0b f4 57 bc
       0.038786024 -0.025011992 0.032275435 -0.013180743
000190 a4 50 8c bc b0 40 34 3d c6 21 db bc d7 5b 31 bc
       -0.017128296 0.044007003 -0.026749503 -0.010825119
0001a0 70 02 42 3c 4e 7d 8c 3d cb b3 92 b9 73 a4 7f 3c
       0.011841401 0.068598375 -0.00027981246 0.015603173
0001b0 a0 2d 25 bd 8a d4 90 3c c4 59 0a bc 50 a4 f2 ba
       -0.040326715 0.017679472 -0.008444253 -0.0018512104
0001c0 ac b6 8e bb f9 b9 ab bc b9 63 9f bc 6a 26 65 bc
       -0.0043552723 -0.020962702 -0.019456731 -0.013986209
0001d0 3c a5 80 3c 94 78 46 bd 0c ef f4 bc 34 3f 91 3c
       0.01570379 -0.048454836 -0.029899143 0.017730333
0001e0 70 09 68 3d 6b f9 e5 3a 70 7d b2 bc 3e 0c 79 3b
       0.056649625 0.0017545646 -0.021788329 0.0038001682
0001f0 3e ae 22 bc ec 30 55 bd 4e 15 04 bc 21 65 7e 3b
       -0.009929238 -0.05204861 -0.00806172 0.0038817602
000200 55 b7 17 3c 68 ab c0 3b 0a 1c d9 3c 40 62 0e bc
       0.009260018 0.005879808 0.026502628 -0.008690417
000210 85 d8 14 bd e4 bd 61 3c 44 94 91 bc f2 49 16 bd
       -0.0363393 0.013778184 -0.017770894 -0.036691613
000220 ff 8f 6d bc 24 44 fe bb e0 5d 75 bc 15 e1 67 3b
       -0.014499663 -0.007759588 -0.014975995 0.0035381962
000230 a8 bf 9a bc de 2d 95 3c b5 20 75 3a df bb c6 bc
       -0.018890217 0.018210348 0.0009350882 -0.024259506
000240 7c 3f 73 3d b5 e5 a1 3c 34 07 4b 3b 5c aa 31 3b
       0.059386715 0.019762853 0.0030979635 0.0027109599
000250 58 3f 3b bc 2d 7d 47 bd d8 52 a1 3b 1f db 2e 3b
       -0.011428677 -0.04870336 0.004923206 0.00266809
000260 67 38 02 bd 97 28 7c 3c b7 1d fa bc 06 c5 18 3c
       -0.03179207 0.015390537 -0.030531747 0.009324318
000270 70 8c 30 3c bd 98 9b 3c d3 cc e2 bc dd f5 1e 3c
       0.01077567 0.01899373 -0.027685558 0.009702173
000280 e6 48 cc bc 0c 0b 01 bd 9d 5c a6 bc 32 e4 6e bd
       -0.024937104 -0.031504676 -0.020307833 -0.058323093
000290 01 39 62 3a aa e2 09 bc 60 53 14 3d 68 1a 03 bd
       0.000862971 -0.008415857 0.036212325 -0.032007605
0002a0 53 b4 1f bc b6 f0 19 3d f4 ea 7c 3c 3b 2a 38 bd
       -0.0097475825 0.037583075 0.015436877 -0.04496215
0002b0 54 96 2c bc 56 8c 72 39 1d d6 1c 3c b7 b2 75 bc
       -0.010533888 0.00023131198 0.009572533 -0.014996222
0002c0 78 6c bd 3c 5a 23 23 bc 95 83 4f 3c e9 51 ac ba
       0.023123011 -0.009957159 0.012665649 -0.001314697
0002d0 b8 db 60 bc 8f ea b6 3c 29 e6 a1 bb bf 96 16 bc
       -0.01372426 0.022328643 -0.0049407673 -0.009191214
0002e0 01 19 eb 3c f1 23 73 bd 6a 90 f2 bb fe e9 99 bc
       0.028698446 -0.05936045 -0.0074024694 -0.018788334
0002f0 5d 5c 06 bc d3 f2 12 bd 01 d4 19 bb bc 57 d0 3c
       -0.008200732 -0.035876106 -0.0023472311 0.02543246
000300 4f 71 ea 3b 29 c6 ad bb fb 52 99 bb 4e b0 34 bd
       0.0071546207 -0.0053031635 -0.0046790815 -0.04411345
000310 1a 5e 01 bc 1b 90 9c 3c 20 3f 51 bc 9c 79 d7 bc
       -0.007895971 0.019111684 -0.012771398 -0.026303105
000320 69 1d 70 3b af 1d dc bc 2e 00 07 bd c3 29 96 bd
       0.0036638624 -0.026869623 -0.032959156 -0.07332184
000330 bc 9c d2 3c d8 99 bf bc aa 0b 8e bc 17 8a 0e bd
       0.025709502 -0.023388788 -0.017339546 -0.03479966
000340 0d 0c 94 3b 3f 4d fd bb c3 df 5d 3d 31 94 d8 39
       0.004518038 -0.0077301557 0.054168474 0.00041309142
000350 a8 94 48 ba 89 2e 5a bc 70 a6 a0 bc 36 e1 a9 3c
       -0.0007651546 -0.013316759 -0.019610614 0.020737272
000360 a1 59 84 bc 2a 33 85 bc d9 f1 d0 bc 31 ef 51 3c
       -0.01615602 -0.016259748 -0.025505947 0.012813375
000370 23 6c fa 3b 2d 7b 64 bd a1 b1 06 3d 2b 62 ed 3c
       0.0076422854 -0.055781532 0.032884244 0.028977474
000380 ae 94 ac 3b 0d c9 37 3c f4 5c 03 bd 84 00 86 3c
       0.0052667474 0.011217368 -0.03207107 0.016357668
000390 29 d0 c7 3c 4b 3b 2c bb 5f 40 06 bb aa a4 34 bb
       0.02439125 -0.0026280459 -0.0020485146 -0.0027563968
0003a0 9f 6c 2e bc ee c0 23 bd 2f ea 1f bd 66 fa 68 3c
       -0.0106460145 -0.039978914 -0.039041694 0.014219856
0003b0 ff 30 56 bc 25 80 88 3d 7c 36 d1 3c 68 86 20 3c
       -0.013073205 0.06665067 0.025538675 0.00979767
0003c0 b8 ff 0c 3c 74 04 89 bc 91 f6 3b 3b d7 6d 83 bc
       0.00860589 -0.016725756 0.00286809 -0.016043587
0003d0 45 4d 06 3d f3 45 d7 bc e0 51 ab bc 6e 82 67 bc
       0.032788534 -0.026278472 -0.020913064 -0.014130218
0003e0 85 65 dd bc 78 26 2a 3b 6e aa 6d bc 8d ee ea bc
       -0.027025947 0.002596287 -0.014505966 -0.028678203
0003f0 ed 2d cb 3c 78 fe 69 3c a1 95 5a 3c a3 90 61 bc
       0.024802173 0.0142818615 0.013341338 -0.013767394
