MLP_init_params.pt (torch, 5953 bytes, 2 tensors)

layer0.weight f4 [100, 10]
000000 65 73 a2 be 69 e5 e1 3c da 5a dd 3d 1d 4d c1 3e
       -0.31728664 0.027575212 0.10808344 0.37754145
000010 c4 31 4a be be 78 81 be c0 6a 93 bd ab 02 9a 3e
       -0.19745547 -0.2528743 -0.07198095 0.3008016
000020 53 1e 9f be 6f ac e0 bd 03 0d 4e bd 31 b4 01 3c
       -0.31077823 -0.10970389 -0.050305378 0.007916496
000030 33 26 57 3d 92 9a 0a 3d bb cf d1 bc 74 17 cf 3d
       0.052526664 0.033838816 -0.025611749 0.10111895
000040 c2 5c ba bd 44 3b 57 3e 7c 63 18 3e 41 91 11 3e
       -0.090997234 0.21018702 0.148817 0.14215566
000050 f5 51 1d be dc eb 0b be 35 15 af be c7 4e 99 3d
       -0.15363295 -0.13664192 -0.34195867 0.07485729
000060 18 ab 82 3e df e0 a7 3e 8c d6 85 3c 23 49 95 bd
       0.2552116 0.3278875 0.016337655 -0.0728934
000070 33 3a 11 3e d9 6e 94 3e 9f 0c ac bd 83 a1 7c be
       0.14182357 0.2899082 -0.08400845 -0.24670987
000080 b0 f0 26 be 03 a1 92 3e 5c eb c4 3d 3d fa d3 3e
       -0.16302752 0.28638467 0.09615204 0.41401854
000090 76 4d 4f 3e e9 9f 96 be 77 b7 4d be c7 20 b9 3e
       0.20244393 -0.29418877 -0.20089518 0.3615782
0000a0 16 71 bb 3d 38 56 27 be 5d 18 9b be 65 7d d1 3e
       0.09152429 -0.16341484 -0.30292025 0.4091598
0000b0 f4 09 56 be 0a bf 19 3e e3 19 12 be 44 70 f1 3c
       -0.20902234 0.15014282 -0.14267687 0.029472478
0000c0 49 7a 48 be 36 15 19 3e 73 81 ef bd 1d 14 d3 bd
       -0.19577898 0.14949498 -0.11694612 -0.10306571
0000d0 82 25 7a bb 00 d5 05 3d f0 9c 86 3e c6 f6 03 be
       -0.003816933 0.032673836 0.2629161 -0.12887105
0000e0 cd f2 3f 3e dc fd 3a be f7 c6 bf be 6a 02 a5 3e
       0.18744965 -0.18260902 -0.37456486 0.32228404
0000f0 da ca b5 3e d8 35 20 3e c1 b2 83 be 6f 35 c1 bc
       0.35506326 0.1564554 -0.25722316 -0.02358505
000100 13 a8 c2 3e 40 b2 81 be 4f 3f 50 be 1b 4a 68 be
       0.38018855 -0.25331306 -0.2033665 -0.22684519
000110 d4 3e 8e 3e 8a 1d ae 3e 8f 8b 2b 3d ac 7b b2 bd
       0.2778231 0.34006912 0.04188114 -0.08714995
000120 e3 52 b0 be 6f 3c 81 be 8b 25 15 3e a8 79 9d be
       -0.34438238 -0.2524142 0.14565103 -0.3075688
000130 92 f6 a0 be 8b d5 65 be a3 e3 a5 bc 3c f4 8a be
       -0.31438118 -0.22444741 -0.020250147 -0.2713946
000140 13 dd 23 3e 99 c2 8f 3e bb 5e f0 3d 00 92 e0 bd
       0.16002302 0.28078154 0.117368184 -0.10965347
000150 01 05 a6 3c 9b 98 f5 ba 70 a7 8b be 58 43 56 bd
       0.020266058 -0.0018737497 -0.27276182 -0.052310318
000160 9d 6c 3e 3e 5c f9 c0 bd 5f a3 8e 3e de f6 5d 3d
       0.1859612 -0.094225615 0.27859017 0.05419051
000170 5d 22 3a be c2 31 c1 3c e7 56 2c 3d f1 98 41 3d
       -0.18177171 0.023583297 0.042075064 0.047264997
000180 99 50 8f be ed bd 89 3e d9 30 66 3e 29 c9 5c be
       -0.2799118 0.26902714 0.22479571 -0.21561112
000190 b0 6c 2a 3d 3f 39 7a 3e 13 63 20 be 32 33 29 3e
       0.04160756 0.244359 -0.15662794 0.16523436
0001a0 80 51 a0 be 6a 34 12 3e d0 3c d1 bd de f5 0f 3d
       -0.3131218 0.14277807 -0.10216677 0.035146587
0001b0 03 44 dc 3d ed 69 49 3e 91 ea 71 3e 5a 4e 3e 3e
       0.1075516 0.19669314 0.23624636 0.18584576
0001c0 a3 eb 31 3e 6c 82 a1 be df 7d 03 bd 04 f7 c3 be
       0.17375045 -0.31544816 -0.032102462 -0.38274395
0001d0 49 60 a9 be 82 90 85 bd e5 10 40 3e 35 ef b6 be
       -0.33081272 -0.06521703 0.18756445 -0.35729375
0001e0 00 cb 76 be 94 3c f3 bd 98 c6 2e 3e ec 31 65 3e
       -0.24100876 -0.11876789 0.17067945 0.22382325
0001f0 5e 9a 67 bd cc 3b 25 3e 08 8a b4 3e 14 14 8d bd
       -0.0565437 0.16136092 0.3526156 -0.06888595
000200 9f cf 84 be 8a 5f 2d be 7f fc 81 3e df 8e a5 bd
       -0.25939652 -0.16930977 0.25387952 -0.08083891
000210 b5 93 a5 3e 57 ff b5 3e 7c 57 54 3e 1c c1 1e be
       0.32339254 0.3554637 0.20736498 -0.15503353
000220 66 ba 86 3d 4a db af be 3c 66 ba bb 33 05 07 3e
       0.065785214 -0.34346992 -0.005688457 0.13185577
000230 31 b0 fd bd 56 02 55 be b6 2d 36 be f5 57 a2 be
       -0.123871215 -0.20801672 -0.17790875 -0.3170773
000240 cb 98 03 3e d6 51 8c 3e 4f ee 1b be d8 20 01 be
       0.12851255 0.27406186 -0.15227626 -0.12610185
000250 80 b2 ae bd 59 84 81 be 7c 73 a6 bd 8e 67 1a 3e
       -0.0853014 -0.25296286 -0.08127496 0.15078565
000260 8b ab 84 3c 64 e8 12 be 64 87 25 be 01 eb 93 be
       0.01619508 -0.14346462 -0.16164929 -0.2889023
000270 9f 51 8e be 42 cb c3 3e 5e e8 b7 3e 41 54 33 be
       -0.27796647 0.3824101 0.3591947 -0.17512609
000280 97 05 03 3e 65 0c 9c 3e e1 9d aa be 95 09 cc 3d
       0.12795101 0.30478206 -0.33323577 0.09962765
000290 33 33 75 be 6f 00 80 be a4 c1 f2 3d 2a 27 ac 3e
       -0.23945312 -0.2500033 0.1185334 0.3362363
0002a0 0b 5a a6 3e 11 cf 37 be 34 20 a6 be ee 21 1f 3e
       0.32490572 -0.17950083 -0.32446444 0.15540287
0002b0 82 72 8e 3e 19 28 aa be 3d 2e 86 3e d1 3f 1a 3e
       0.27821738 -0.33233717 0.26207152 0.15063407
0002c0 ff b0 3c bd aa 4c 97 3b d4 95 ba 3e 36 ab 47 bd
       -0.046067234 0.0046172934 0.36442435 -0.048747264
0002d0 9d 04 57 3e cb 97 39 be 1d 3f 8c be 07 d9 0b 3e
       0.20997854 -0.1812431 -0.27391902 0.13657008
0002e0 5c e2 8b 3e 4f dd b2 be 0d 92 75 bd 9f c5 b1 3e
       0.27321136 -0.3493447 -0.059953738 0.34721085
0002f0 26 1d 1a bd 74 29 38 3e 43 88 96 3e f9 20 39 be
       -0.037625454 0.17984563 0.29400834 -0.18078984
000300 e4 cf bd 3d f2 e6 92 3e 25 e0 96 be 17 fc 38 3d
       0.092681676 0.28691822 -0.29467884 0.045162287
000310 46 6a 04 3e 84 0c 7a 3e 7c 46 08 3c 34 ee 92 3e
       0.12931165 0.24418837 0.008317586 0.2869736
000320 e0 aa 3b be 8b a1 08 be 0b d1 d3 3d 9f a0 f2 bc
       -0.18326902 -0.13342874 0.10342606 -0.029617606
000330 ca 5a aa be 64 00 a9 3e f5 0c 07 3d e5 e0 16 3e
       -0.33272392 0.3300811 0.03297134 0.14734228
000340 23 00 9d be fc d4 8f be 36 93 b9 3d da de 2f 3e
       -0.30664167 -0.28092182 0.090612814 0.17174855
000350 1e e3 7d be f8 80 34 3e 22 1b a8 be cd 92 85 3e
       -0.2479367 0.17627323 -0.328332 0.26088563
000360 63 bb 0b 3d ec 2a 33 be 24 31 85 3e 67 d5 5d be
       0.034114253 -0.17496842 0.26014054 -0.21663438
000370 4d 4d af bd bf f4 e7 3b 68 4f 74 bd 0b 8b b4 3e
       -0.08559666 0.0070787366 -0.05964604 0.3526233
000380 eb 8f dd 3d 68 89 4f be 1a 3e 59 be 8e eb 8e 3e
       0.10818466 -0.2026726 -0.21215096 0.2791409
000390 53 42 86 be e1 55 83 be 7b 05 f0 bd 8d a9 dd bd
       -0.26222476 -0.25651458 -0.11719795 -0.10823355
0003a0 71 28 57 be 34 75 24 be 0c d3 a0 3e 2f a0 7e be
       -0.21011521 -0.16060334 0.31411016 -0.24865793
0003b0 62 a7 a1 3e a3 31 98 be 0e ff a5 be e0 d7 6d be
       0.31573015 -0.2972537 -0.32421154 -0.23226881
0003c0 95 91 6d ba 22 28 90 3e 73 b0 89 3e c0 b8 5c 3e
       -0.0009062526 0.2815562 0.26892433 0.21554852
0003d0 45 65 49 3e 76 f1 a3 bd 73 49 a2 3e ce 1e 80 bb
       0.19667538 -0.080050394 0.31696662 -0.003909922
0003e0 dd 70 86 be d1 c2 a1 bd f1 f1 5b be 7b 8a 8f be
       -0.26257983 -0.078984864 -0.21479012 -0.2803534
0003f0 6b 22 08 be 38 1f 01 3b 3e 32 aa 3e fc 78 65 be
       -0.1329438 0.0019702446 0.33241457 -0.22409433

layer1.weight f4 [2, 100]
000000 fd a8 6f 3e dd ff de 3d 97 41 43 3e f4 f7 ba 3e
       0.23404308 0.10888646 0.1906799 0.36517298
000010 2f 81 99 3e d7 ef 5a 3e 51 c1 bc 3e 1c a2 30 3e
       0.29981372 0.21380554 0.3686624 0.1724934
000020 51 b0 96 3d 02 db 80 3e 27 c2 63 3e 9d 87 ac 3e
       0.073578484 0.2516709 0.22242032 0.33697215
000030 3e ab 91 3e 8d 5e 78 3e 05 5c b3 3d 07 42 8e 3e
       0.2845096 0.24254818 0.08757786 0.2778475
000040 6f ea 91 3e 12 e3 78 3e 06 5b 89 3e 12 43 12 3e
       0.2849917 0.2430537 0.26827258 0.14283398
000050 00 55 0b 3e e9 94 8b 3d c2 0f ad 3e 54 e1 04 3e
       0.13606644 0.06815512 0.33801085 0.12976581
000060 16 d0 85 3e c8 df 62 3e 52 3e be 3d 6a 99 84 3e
       0.2613532 0.22155678 0.092892304 0.25898296
000070 f7 4c 46 3e 16 33 ac 3c 9a 17 71 3e 62 47 5b 3e
       0.19365297 0.021020453 0.2354416 0.21413949
000080 3c 0d 0f 3e 93 40 50 3e 65 eb 08 3e 9f 5a 16 3e
       0.13969892 0.20337133 0.13371046 0.14683007
000090 f7 54 c9 3d cb f9 e8 3d 51 58 be 3e 04 00 0d 3e
       0.09830659 0.11375769 0.37176755 0.13769537
0000a0 fd 06 a8 3e c7 69 c6 3c db c7 b6 3d 8c 49 1b 3e
       0.32817832 0.02422036 0.08924838 0.15164775
0000b0 03 63 57 3e f7 43 46 3e 68 93 b9 3e 98 53 53 3e
       0.21033864 0.19361864 0.36245275 0.20637357
0000c0 35 60 55 3e 82 cc 80 3e b3 9a 12 3e a9 11 4d 3e
       0.20837481 0.25156027 0.14316826 0.20026268
0000d0 6f c1 e8 3d 25 52 33 3e 9d f0 ca 3d 10 da 83 3e
       0.113650195 0.17511804 0.099091746 0.25752306
0000e0 43 94 62 3e 09 20 7b 3e c4 52 0b 3e c4 01 88 3e
       0.2212687 0.24523939 0.13605791 0.26563847
0000f0 6e 19 54 3e 97 bf e8 3d df 74 81 3e 2c 6d 85 3e
       0.20712826 0.11364668 0.25284478 0.26059854
000100 c2 5e 4e 3e 59 58 18 3e 53 d2 a6 3e c9 af 88 3e
       0.20153335 0.14877452 0.3258234 0.26696613
000110 26 c7 07 3e 8c 67 83 3e 53 d7 27 3e 81 84 1e 3e
       0.13259563 0.25664937 0.16390733 0.15480234
000120 77 0d 2b 3e 0b 3c 1f 3e 45 2a 75 3e 7d 70 51 3e
       0.16704355 0.15550248 0.23941906 0.20453067
000130 0e 1a 96 3e ed f4 86 3e 99 9d af 3e 56 4a 92 3d
       0.29316753 0.2635874 0.34299925 0.07143085
000140 c8 18 9c 3e 96 f4 70 3e 4a ca 82 3e 89 7f 29 3e
       0.30487657 0.23530802 0.2554496 0.16552557
000150 9f 67 75 3e 2a 2c 01 3e 0d fd 83 3e 76 b0 2c 3e
       0.2396531 0.12614504 0.25779 0.1686419
000160 67 67 08 3e 5e bc f7 3c e4 2c c0 3d 45 8f ff 3d
       0.13320695 0.030241188 0.09383562 0.12478498
000170 13 61 35 3e 7e 03 03 3e 72 36 94 3e 58 d6 86 3e
       0.17712812 0.12794301 0.28947788 0.26335406
000180 14 0d 00 3e 4b 80 5b 3e d0 4a a0 3d 20 5d 7c 3e
       0.12504989 0.21435659 0.07826769 0.246449
000190 4e 94 9a be e1 53 d4 bd b6 3d 8e be 9b 74 e6 be
       -0.30191272 -0.10367561 -0.27781457 -0.45010838
0001a0 88 0c 9a be 67 83 88 be 96 5a ad be 63 51 94 be
       -0.30087686 -0.26662752 -0.33858174 -0.28968343
0001b0 0d 37 44 be 2a a2 80 be 18 36 37 be 30 01 8f be
       -0.19161625 -0.2512372 -0.17891729 -0.27930593
0001c0 a8 66 6a be 60 57 85 be 42 e6 08 be 06 68 b2 be
       -0.22890723 -0.26043224 -0.13369086 -0.3484499
0001d0 1b 46 91 be 72 90 6c be c8 99 83 be 2d 70 04 be
       -0.283738 -0.23101977 -0.25703263 -0.12933417
0001e0 db 0b 4f be 95 10 2a be fe 1d 46 be 0e 2c 25 be
       -0.20219366 -0.16607888 -0.19347379 -0.16130087
0001f0 62 76 0d be c1 65 19 be 97 3d 9c bd ba 1d 1e be
       -0.1381469 -0.14980222 -0.07628935 -0.15441027
000200 06 84 91 bd ff 8b f5 bc 05 56 52 be fc b8 c0 bd
       -0.071052596 -0.029973982 -0.20540626 -0.09410283
000210 06 18 9c be 5b e1 13 be d8 0f a8 bd 6d 5b 82 be
       -0.30487078 -0.14441435 -0.08206147 -0.25460377
000220 e7 3e 91 bd a1 4a 52 be 29 0a 5a be d6 e0 67 be
       -0.07092076 -0.20536281 -0.21292938 -0.22644362
000230 d0 9f 93 be 8b cd 02 be 59 64 d3 bd d3 0d 21 be
       -0.28832865 -0.12773721 -0.10321874 -0.1572793
000240 a6 09 89 be 01 0b 6f be 4d 66 cd be d8 10 a2 be
       -0.26765174 -0.23344041 -0.40117112 -0.31653476
000250 f8 2f 37 be 6e 78 8d be 4a e0 3a be a6 da a2 be
       -0.17889392 -0.27630943 -0.18249622 -0.3180744
000260 21 74 d8 bd 5a d4 47 be 2a 99 ff bd 09 be 67 be
       -0.10569025 -0.195146 -0.124803856 -0.22631086
000270 c5 20 8b bd f6 d5 73 be 51 a9 03 be 60 fe 49 be
       -0.0679336 -0.23812088 -0.12857558 -0.19725943
000280 19 d0 9a be 54 fc 80 be 4f 8c 5d be fc a2 64 be
       -0.3023689 -0.2519251 -0.21635555 -0.22327799
000290 1c e5 46 be 6f e4 76 be 65 c9 53 be 11 25 07 be
       -0.19423336 -0.24110578 -0.20682295 -0.13197733
0002a0 c3 9f 86 bd 21 42 81 be 7a 38 11 be 62 e2 8b be
       -0.06573441 -0.25245765 -0.141817 -0.27321154
0002b0 bd 06 85 be 6b 91 42 be ed 15 32 be 9d 6a 55 be
       -0.25981703 -0.19000785 -0.17391177 -0.20841451
0002c0 ed cb 75 be d5 8c 34 be e1 a2 29 be 09 07 39 be
       -0.24003573 -0.17631848 -0.1656604 -0.1806909
0002d0 a5 52 17 be a5 4f b4 be f3 1f 67 be 26 4e 54 be
       -0.1477762 -0.35217014 -0.22570781 -0.20732936
0002e0 be 7b 9f be 3d 60 75 be c7 1f 21 be 7b 44 bf bd
       -0.31149095 -0.23962493 -0.15734778 -0.093392335
0002f0 08 da 4b be 1b ed 51 be 3b bd 60 be f9 d2 39 bd
       -0.19907391 -0.20500605 -0.21947186 -0.045367215
000300 84 83 6a be 53 06 84 3c 0a cf e8 be ab 89 98 be
       -0.22901732 0.016116297 -0.45470458 -0.29792532
000310 65 9b 02 be af a9 e2 bd f5 43 3f be 7b 95 7f be
       -0.12754591 -0.11067521 -0.18678267 -0.24959366
