MLP_init_params.pt (torch, 49217 bytes, 2 tensors)

layer0.weight f4 [1000, 10]
0	0xbe365908	-0.178074
1	0xbd67f498	-0.056629747
2	0x3e9ce684	0.3064462
3	0x3d7e1a6b	0.062036913
4	0x3e9c368b	0.30510363
5	0xbe63f051	-0.22259642
6	0x3e7b6a57	0.24552284
7	0xbd79a69e	-0.060949914
8	0xbc865b05	-0.016400823
9	0x3e7da31b	0.24769251
10	0xbd5c8ace	-0.053843312
11	0x3e605226	0.21906337
12	0xbe40ce45	-0.18828686
13	0xbc15cccb	-0.009143065
14	0x3e1cbdc0	0.15306759
15	0xbdf8e1a4	-0.121524125
16	0xbe042d40	-0.12907887
17	0xbe5be622	-0.21474507
18	0x3d91ae0b	0.07113274
19	0x3c109507	0.008824593
20	0xbd9b46fa	-0.07581897
21	0xbde62d39	-0.11239094
22	0x3e18e2ee	0.14930317
23	0x3e81df9a	0.25365907
24	0xbe063140	-0.13104725
25	0xbebcbc7f	-0.3686256
26	0xbe56e982	-0.20987514
27	0xbe04ae77	-0.12957178
28	0x3eae54d8	0.34049106
29	0xbe911d7e	-0.28342813
30	0xbe0fbe7a	-0.14037505
31	0x3bd6bfe9	0.006553639
32	0xbc556e94	-0.013026852
33	0xbdf9f9f8	-0.12205881
34	0x3e3be219	0.18347968
35	0x3dfb3fd8	0.122680366
36	0xbe2d7155	-0.16937764
37	0x3d19ab8a	0.037517108
38	0xbe66abcc	-0.22526473
39	0xbd95520f	-0.07291042
40	0xbe7c0a79	-0.2461337
41	0x3e745800	0.23861694
42	0x3e8f0dbf	0.27940175
43	0xbe02315b	-0.1271414
44	0xbb6d80cd	-0.0036240101
45	0x3e2ec7ea	0.17068449
46	0x3df0ccca	0.117578104
47	0x3d170335	0.036868293
48	0x3daba3b2	0.08380832
49	0xbdf07f8a	-0.11743076
50	0xbd8426db	-0.064527236
51	0xbe821c4a	-0.25412208
52	0xbbe2feb8	-0.0069273375
53	0xbcc7c31e	-0.024385031
54	0xbdb0d7ae	-0.08634888
55	0xbe687d8f	-0.22704147
56	0x3e3e49e8	0.1858288
57	0x3ad2c72e	0.0016081089
58	0x3d7969c9	0.0608919
59	0x3e80a126	0.25122947
60	0xbddba237	-0.107242994
61	0xbe4515d4	-0.19246608
62	0xbe8a2c1c	-0.26986778
63	0xbe689b67	-0.22715531
64	0x3e0fdf9b	0.14050142
65	0x3d3977af	0.045280155
66	0xbe9c3331	-0.30507806
67	0xbe22a206	-0.1588212
68	0x3e8eba03	0.2787629
69	0xbe94bc36	-0.29049844
70	0xbc278b17	-0.010226033
71	0xbe0fde74	-0.14049703
72	0xbd0303d3	-0.03198607
73	0xbe53f9a0	-0.20700693
74	0x3e398e8b	0.18120782
75	0xbd8cf622	-0.068828836
76	0xbe26ed90	-0.1630156
77	0x3d87d0be	0.06631611
78	0xbe8f1747	-0.27947447
79	0xbe9f4763	-0.3110915
80	0xbd9820d4	-0.074281365
81	0x3db7bac8	0.089711726
82	0x3dd19ffa	0.10235591
83	0x3ce15367	0.02750559
84	0xbe5e6d49	-0.21721376
85	0x3eaeaac9	0.34114674
86	0x3d012ccd	0.031536866
87	0x3cc644d0	0.024202734
88	0x3af14054	0.0018406012
89	0x3e59ddeb	0.21276061
90	0x3e21769d	0.15767904
91	0x3dad5be9	0.08464796
92	0x3e7c657d	0.2464809
93	0x3dc26712	0.09492315
94	0xbda71f8f	-0.08160316
95	0x3ddf16c3	0.10893013
96	0xbe0fa1a9	-0.14026512
97	0x3d84a900	0.06477547
98	0xbe4aa6b2	-0.19790152
99	0x3e5c753f	0.21529101
100	0x3e6adc39	0.22935571
101	0xbcac659d	-0.021044547
102	0x3e2931e0	0.16522932
103	0x3e0776ab	0.13228862
104	0xbe6f3e8e	-0.23363706
105	0xbe5fbe79	-0.21850003
106	0xbda85a9f	-0.082204096
107	0x3cd9e02f	0.026596157
108	0x3e5568cd	0.2084076
109	0xbe426116	-0.18982348
110	0xbd8d9f0f	-0.06915104
111	0x3ea3df07	0.32006094
112	0x3c864822	0.016391817
113	0x3e8e83b2	0.2783485
114	0x3e084e18	0.1331104
115	0x3de4673b	0.11152502
116	0xbe5a4d46	-0.2131854
117	0xbe2ac7d5	-0.16677792
118	0x3e91a56f	0.28446528
119	0x3e128ca6	0.14311466
120	0x3e4a63b7	0.197646
121	0xbd9d21f1	-0.076724894
122	0xbea42d43	-0.32065782
123	0x3c40d56c	0.011769634
124	0xbdc35faf	-0.095397346
125	0xbdabb542	-0.083841816
126	0x3e9a5b18	0.30147624
127	0x3dd582d4	0.10425344
128	0xbd8e7c84	-0.06957343
129	0x3cf42846	0.02980436
130	0x3e719a77	0.2359408
131	0x3e860f5f	0.26183602
132	0x3e0d0863	0.1377273
133	0x3e3f085b	0.18655531
134	0x3dd1d810	0.10246289
135	0x3d37955c	0.044820175
136	0x3e53a902	0.2066994
137	0x3d13beba	0.036070563
138	0x3d8acd9b	0.067774974
139	0x3d9b5f98	0.075865924
140	0xbd945645	-0.07243017
141	0xbd8eb914	-0.069688946
142	0x3dc20c2c	0.09474978
143	0xbde7b7dc	-0.11314365
144	0xbcb9dde6	-0.022688817
145	0x3e393f73	0.1809061
146	0x3d11f9d5	0.03563865
147	0xbe190eb8	-0.14947021
148	0xbe2a9599	-0.1665863
149	0xbe244afe	-0.16044232
150	0xbdceaf0e	-0.10091983
151	0x3d6c7c46	0.057735704
152	0xbe74ad3a	-0.23894206
153	0xbea60cdd	-0.3243169
154	0x3e320a15	0.17386658
155	0xbe694231	-0.22779156
156	0x3e526a2d	0.20548315
157	0x3de373af	0.11106049
158	0x3df7aec1	0.120938785
159	0xbe289678	-0.1646365
160	0xbe8b4dca	-0.27207786
161	0xbe413d07	-0.18870936
162	0x3c64de1d	0.013968972
163	0x3d43825a	0.047731735
164	0x3e56d2ca	0.20978847
165	0x3e3f32e3	0.18671755
166	0x3ea0e926	0.31427878
167	0xbeb7f8c2	-0.35931975
168	0xbc87c18f	-0.016571788
169	0xbe07be02	-0.13256076
170	0xbe82b54c	-0.25528944
171	0x3e100def	0.14067815
172	0x3da831d7	0.08212631
173	0xbc7f79a8	-0.01559297
174	0xbe7edc52	-0.24888733
175	0x3dc3c4e8	0.09559041
176	0xbdec9395	-0.115515865
177	0xbe49e4e6	-0.19716224
178	0xbe8f9b6b	-0.28048262
179	0x3e0c933c	0.1372804
180	0x3d5bc203	0.05365182
181	0x3e990977	0.29890034
182	0xbdc4a455	-0.09601656
183	0x3df285f7	0.11841958
184	0x3c81f752	0.015865002
185	0x3e00747b	0.12544434
186	0x3ea0facc	0.31441343
187	0x3e538685	0.20656784
188	0x3e705ae7	0.23472176
189	0x3d93ea50	0.07222426
190	0x3e4edf58	0.20202386
191	0xbe6e797c	-0.2328853
192	0xbe14ea0d	-0.14542408
193	0x3e4bf1f6	0.1991652
194	0x3e3e495e	0.18582675
195	0xbe88fe1f	-0.2675638
196	0x3e4eedd2	0.20207909
197	0xbdd2d52e	-0.10294567
198	0xbde0e98a	-0.10982044
199	0xbe8b6917	-0.27228615
200	0x3db71031	0.08938635
201	0x3d91188d	0.07084761
202	0xbe5c19d5	-0.21494229
203	0x3d8cbdc5	0.06872133
204	0xbe09ade5	-0.13445242
205	0xbe9d357d	-0.3070487
206	0xbe8248b7	-0.25446102
207	0xbc9b98e9	-0.018993812
208	0x3eadef79	0.33971766
209	0x3d9ba4cd	0.07599793
210	0x3e5b07d0	0.21389699
211	0xbe569972	-0.20956972
212	0x3e13da0a	0.14438644
213	0xbc203861	-0.009779067
214	0x3e76130a	0.240307
215	0x3dd16be1	0.102256544
216	0x3e23b8bb	0.15988438
217	0x3ea13dd5	0.31492487
218	0xbe1895cf	-0.14900897
219	0x3e57d61d	0.21077771
220	0xbe0d4893	-0.13797216
221	0xbbc72574	-0.006077463
222	0xbe40715e	-0.18793246
223	0x3ea72c92	0.32651192
224	0xbe0d4708	-0.13796628
225	0xbdbb1b0e	-0.0913602
226	0x3d96037a	0.07324882
227	0x3dcd6a7b	0.10030075
228	0xbe4f2605	-0.20229347
229	0x3cadca50	0.021214634
230	0xbd6c6d04	-0.057721153
231	0x3e8e76f6	0.27825135
232	0x3e5ca334	0.21546632
233	0x3e7c8877	0.24661432
234	0xbe8775f9	-0.26457193
235	0xbd210e37	-0.039320197
236	0x3e49f171	0.19721009
237	0xbd5f9524	-0.05458559
238	0xbdf405be	-0.11915158
239	0x3e521d73	0.20519046
240	0xbbd68344	-0.00654641
241	0xbb9a3622	-0.00470616
242	0xbe3ba3ef	-0.18324254
243	0x3d2567da	0.040382244
244	0x3e4d7595	0.20064385
245	0x3e74d800	0.23910522
246	0x3e3a9cfc	0.18223947
247	0xbdeda870	-0.116043925
248	0x3ea15fe0	0.3151846
249	0x3e69d869	0.2283646
250	0xbd9a5ce2	-0.07537247
251	0x3e95599f	0.29169938
252	0x3d97ba88	0.07408625
253	0x3e2a8f83	0.16656308
254	0xbe25a3a6	-0.16175708
255	0x3cec3b62	0.02883691

layer1.weight f4 [2, 1000]
0	0x3f53277a	0.8248211
1	0x3ff55753	1.9167274
2	0x3ff58092	1.9179862
3	0x3fcbbcff	1.5917052
4	0x3fc57782	1.5427096
5	0x3f8f9c27	1.1219529
6	0x40008586	2.0081496
7	0x3f6c8597	0.9239134
8	0x3fe7e7bd	1.8117596
9	0x3fa7250e	1.3058183
10	0x3fb92864	1.4465451
11	0x3ff6df5f	1.9286917
12	0x3fb72288	1.4307413
13	0x3f99c52b	1.2013296
14	0x3fe68170	1.8008251
15	0x3f918a30	1.1370296
16	0x3fbcf605	1.4762579
17	0x40179fde	2.3691325
18	0x3f569456	0.8382009
19	0x3ff5dc2b	1.9207815
20	0x3faf0450	1.3673191
21	0x3ff6dd7b	1.928634
22	0x3fe97efe	1.824188
23	0x3fc0d124	1.5063825
24	0x40138378	2.3048992
25	0x3f9b1370	1.2115307
26	0x3fc7cf15	1.5610071
27	0x3fdcddd9	1.7255203
28	0x3f5b0848	0.8555951
29	0x3f98fef3	1.1952804
30	0x3fefb8f5	1.872832
31	0x4019f9b0	2.4058647
32	0x3f94c196	1.1621578
33	0x3fff4e7f	1.994583
34	0x40172221	2.361458
35	0x402f5bac	2.7399702
36	0x3f9457aa	1.1589253
37	0x3fb3a46b	1.4034551
38	0x3f8be713	1.0929893
39	0x3fa51ca6	1.2899368
40	0x3fbd3dd9	1.47845
41	0x400eab8f	2.229221
42	0x3feff5d0	1.8746891
43	0x3f49bb04	0.7880099
44	0x3ff99f49	1.9501735
45	0x3fdee43e	1.7413404
46	0x4018f4fa	2.3899522
47	0x3faaa1f3	1.3330673
48	0x3f5ceab7	0.86295646
49	0x3fc92ac1	1.5716172
50	0x3fab4530	1.3380489
51	0x4004c573	2.0745513
52	0x4026f334	2.608594
53	0x3f877bfb	1.0584711
54	0x3fa267ee	1.2687967
55	0x3fd10452	1.6329443
56	0x3fd242d7	1.6426648
57	0x3facd1cf	1.3501529
58	0x4007171e	2.110786
59	0x3fd8eb35	1.694678
60	0x4013e5cf	2.3109014
61	0x3f8a33af	1.0797023
62	0x4000a9cd	2.0103638
63	0x3f6e65ac	0.9312389
64	0x3fa3c0a3	1.2793163
65	0x3fcb5c7d	1.58876
66	0x3f9514c7	1.1646966
67	0x3f3fad01	0.7487336
68	0x40018e1d	2.024299
69	0x3f9db7dd	1.2321736
70	0x3f9908f2	1.1955855
71	0x400df942	2.2183385
72	0x3f87f4a7	1.0621537
73	0x3f9fb893	1.2478203
74	0x3fdd899a	1.7307618
75	0x3fb01ca3	1.3758739
76	0x3fb33072	1.3999159
77	0x3fb5f08f	1.4214038
78	0x3fb3ce1f	1.4047278
79	0x3fd4387a	1.6579735
80	0x3fab9032	1.340338
81	0x3fb04f3d	1.3774182
82	0x3fd85014	1.6899438
83	0x3f98c6f2	1.1935713
84	0x3f911a79	1.1336204
85	0x3ffa7008	1.9565439
86	0x3fcee6eb	1.616422
87	0x3fcc0ea2	1.5941966
88	0x3f9c5c1e	1.2215612
89	0x3f8e31fb	1.1109003
90	0x4003701d	2.0537179
91	0x3f927463	1.1441768
92	0x4021829b	2.5235965
93	0x3f3c32c7	0.7351498
94	0x3fa01c05	1.2508551
95	0x3f8952ea	1.0728428
96	0x3f474583	0.7784044
97	0x3fd2bacc	1.6463256
98	0x3fd455e0	1.6588707
99	0x3fb6bae8	1.4275789
100	0x3fff169c	1.9928775
101	0x40187f96	2.3827872
102	0x3fae1536	1.3600223
103	0x401b191f	2.4234083
104	0x3ff3faa5	1.9060866
105	0x3ff980db	1.9492449
106	0x3f85bec0	1.0448837
107	0x3f1711d7	0.59011596
108	0x3fb6ddd7	1.428645
109	0x3fbdbac6	1.4822624
110	0x3ff1cb8f	1.8890246
111	0x3fba35df	1.454769
112	0x3fa34799	1.2756225
113	0x3fea1a81	1.8289338
114	0x3f89d75b	1.0768846
115	0x401571d3	2.3350723
116	0x3fc8085a	1.5627549
117	0x3f8ef4b3	1.1168426
118	0x3f89dbd6	1.0770214
119	0x3f906020	1.1279335
120	0x3f8ef797	1.1169308
121	0x3f7b9817	0.98278946
122	0x3f9dff5d	1.2343556
123	0x3f9c5618	1.2213774
124	0x3ff93c3d	1.9471508
125	0x4001af7d	2.026336
126	0x3fbe466c	1.4865241
127	0x3fdfe5cb	1.7492002
128	0x3f4237e0	0.7586651
129	0x3f8bc05f	1.0918082
130	0x40142dad	2.3152878
131	0x3f890813	1.0705589
132	0x4003d1b1	2.0596735
133	0x3f783286	0.9695209
134	0x3fd71bb9	1.6805335
135	0x3fdbef92	1.7182486
136	0x40298e05	2.6492932
137	0x3fb70a6f	1.4300059
138	0x40357ce0	2.8357468
139	0x40308edf	2.7587202
140	0x3fdc4bc5	1.7210623
141	0x3fce80b5	1.6133028
142	0x3f98f614	1.1950097
143	0x3fece34c	1.8506866
144	0x4006c0ab	2.1055095
145	0x3f5ffa62	0.8749143
146	0x3fe53f47	1.7909936
147	0x3fd43e03	1.6581424
148	0x3f9bcd5c	1.2172046
149	0x3fb55f54	1.4169717
150	0x3fed292e	1.8528192
151	0x400fe0de	2.2480998
152	0x3fd5dc93	1.6707939
153	0x40083620	2.1283035
154	0x3fae14bb	1.3600076
155	0x3f952f08	1.1654978
156	0x3f57fa5d	0.843664
157	0x3f866aeb	1.0501379
158	0x4002c28b	2.043124
159	0x3ff219fe	1.8914182
160	0x3ff43a9e	1.9080389
161	0x40071b22	2.111031
162	0x3f760a31	0.961093
163	0x3fc9b4d2	1.5758307
164	0x3f93e1aa	1.1553242
165	0x3fa59c0e	1.2938249
166	0x3fd5ed67	1.6713074
167	0x3f8d02cf	1.1016482
168	0x3fe43385	1.7828223
169	0x3fd1df0c	1.6396194
170	0x4000e7f4	2.0141573
171	0x3f8ff5c7	1.124688
172	0x3fbb6174	1.4639115
173	0x3fd5eab1	1.6712247
174	0x3fc1ac41	1.5130693
175	0x3fff3da2	1.9940684
176	0x3f639cd9	0.88911206
177	0x402b9721	2.6810992
178	0x3fac3ba9	1.3455707
179	0x3fdaeab7	1.7102879
180	0x3fea3766	1.8298156
181	0x3f6a6e4e	0.9157456
182	0x3fdf01f3	1.742247
183	0x4003a45a	2.0569062
184	0x3feacbd3	1.8343452
185	0x3fe426e0	1.7824364
186	0x3fdbb54f	1.7164706
187	0x3f915fc6	1.1357353
188	0x3fafbc3d	1.3729321
189	0x3f73f40f	0.9529428
190	0x3ff7fb5f	1.9373587
191	0x3f843636	1.0329044
192	0x40173c47	2.363054
193	0x3f677fdc	0.9042947
194	0x3fc5ac21	1.5443155
195	0x3fef6015	1.8701197
196	0x3f7e1616	0.9925245
197	0x3fe44726	1.7834213
198	0x40170217	2.3595026
199	0x40013816	2.0190482
200	0x400740fa	2.1133409
201	0x3f851fcb	1.0400327
202	0x402d4046	2.707048
203	0x3ff69656	1.9264629
204	0x3f8085ba	1.004081
205	0x3fff3630	1.9938412
206	0x3fbfc02a	1.4980519
207	0x3ffb3e6d	1.9628426
208	0x4021d0d6	2.5283713
209	0x3f8898c6	1.0671623
210	0x4011721e	2.2725902
211	0x3f922e61	1.1420404
212	0x3fc098fe	1.504669
213	0x3fcb01e2	1.585995
214	0x3fc8b180	1.5679169
215	0x3fdac8a1	1.7092477
216	0x3fd727f1	1.6809064
217	0x3f541704	0.8284762
218	0x3fa32d46	1.2748191
219	0x401f06a3	2.48478
220	0x3f8c1837	1.094489
221	0x3fb46170	1.4092236
222	0x3fbc17e8	1.4694796
223	0x403ad58d	2.919284
224	0x3fef132f	1.8677729
225	0x3fce3eb9	1.6112891
226	0x3fc66959	1.55009
227	0x3f8b2d72	1.0873244
228	0x3f9cb03d	1.2241284
229	0x3fcba4a2	1.5909617
230	0x3fa405dd	1.2814289
231	0x3ff2d5b7	1.897147
232	0x3fa91424	1.3209271
233	0x3f9739a5	1.1814467
234	0x400f4dbc	2.2391195
235	0x3f4b1501	0.79328924
236	0x3fb48dfa	1.4105828
237	0x3f8ddf4c	1.108377
238	0x3faf095b	1.367473
239	0x402e21ce	2.7208133
240	0x3f85d90c	1.0456862
241	0x40075419	2.114508
242	0x3fa2c86e	1.2717416
243	0x3fd71f07	1.6806344
244	0x3ff035c8	1.8766413
245	0x4045048e	3.078403
246	0x3ff09b61	1.8797418
247	0x3f452195	0.7700437
248	0x3fb29e8c	1.3954635
249	0x4004e53a	2.0764909
250	0x4015d41c	2.3410711
251	0x3ffca286	1.9737098
252	0x3f8a49ed	1.080381
253	0x401e158a	2.4700646
254	0x3fdc5d53	1.721598
255	0x40047267	2.0694826
