MLP_init_params.pt (torch, 49217 bytes, 2 tensors)

layer0.weight f4 [1000, 10]
0	0x3e180b4f	0.14848064
1	0x3e83550c	0.25650823
2	0x3e9f080c	0.31060827
3	0x3e935532	0.28775936
4	0xbda3c98d	-0.07997427
5	0x3dfa73d5	0.122291245
6	0xbe9b1cf2	-0.3029552
7	0xbdf99036	-0.12185709
8	0xbdc61894	-0.09672657
9	0x3da5b9d5	0.08092085
10	0xbe93a301	-0.288353
11	0x3e9814d5	0.29703394
12	0x3e4c41f2	0.19947031
13	0xbe688c8b	-0.22709863
14	0xbc7d449e	-0.015458254
15	0x3e195e3a	0.14977351
16	0x3e0f8051	0.14013793
17	0x3e45bebf	0.19311045
18	0xbe067658	-0.13131082
19	0x3db321c5	0.087466754
20	0xbca33788	-0.01992394
21	0x3d9c34bf	0.07627248
22	0x3e8b1526	0.27164572
23	0xbe99d3cf	-0.3004441
24	0x3c5c3fb0	0.013442919
25	0x3e5526f4	0.2081564
26	0x3e63b8a5	0.22238405
27	0x3e57ff99	0.21093597
28	0xbe41588e	-0.18881437
29	0x3d476228	0.048677593
30	0xbdcce8e7	-0.1000536
31	0x3e40e74d	0.18838234
32	0x3de08ea5	0.10964707
33	0x3e288e16	0.16460451
34	0xbdb5f382	-0.08884336
35	0x3e4cb142	0.19989493
36	0x3e89442a	0.26809818
37	0x3e5cdfb9	0.21569718
38	0xbe867666	-0.26262206
39	0xbe502980	-0.20328331
40	0xbe7212ac	-0.23639935
41	0xbe86788c	-0.26263845
42	0xbdd94c70	-0.106102824
43	0x3c1c5fa6	0.009544289
44	0xbc0024cb	-0.007821272
45	0x3e6941a9	0.22778954
46	0xbe094360	-0.13404608
47	0xbe92f15d	-0.2869977
48	0x3c793d89	0.015212425
49	0x3e50c2b0	0.20386767
50	0xbe0308e8	-0.12796366
51	0x3e0670b0	0.13128924
52	0xbe42a49b	-0.19008105
53	0xbe7bc8a8	-0.24588263
54	0xbe1bb775	-0.15206702
55	0x3e044145	0.12915523
56	0x3e86f91a	0.26361924
57	0x3d8f0866	0.06984024
58	0xbabbaddf	-0.0014318785
59	0x3e8461af	0.25855777
60	0xbe194141	-0.14966299
61	0x3dc60dae	0.09670578
62	0x3e0f37cc	0.13986129
63	0x3e9a6124	0.30152237
64	0x3e708fb0	0.23492312
65	0xbe81ce73	-0.2535282
66	0x3e87a3df	0.2649221
67	0xbe824019	-0.25439528
68	0xbe7d7cb0	-0.24754596
69	0xbe87c20a	-0.26515228
70	0xbb1cc6ab	-0.0023922126
71	0xbe828a6d	-0.25496235
72	0xbdbbe79b	-0.091750346
73	0x3e20529d	0.15656514
74	0xbe0a2dbc	-0.13494009
75	0x3ddf0cb4	0.10891095
76	0xbe890362	-0.26760393
77	0xbe3fcd84	-0.18730742
78	0x3e8cfc09	0.27536038
79	0xbd058d21	-0.032605294
80	0x3e87aa19	0.26496962
81	0x3e05abce	0.1305382
82	0xbe193c17	-0.14964329
83	0x3e6d9f3d	0.23205276
84	0x3dc82390	0.09772408
85	0xbdb3a7ce	-0.087722406
86	0xbdafecf7	-0.08590119
87	0xbdb76432	-0.089546576
88	0xbe9fe6cb	-0.3123077
89	0xbe9c6959	-0.30549124
90	0xbd211af8	-0.03933236
91	0x3ca9b865	0.020717809
92	0xbe546727	-0.20742474
93	0x3e6b7e6e	0.22997448
94	0xbe935276	-0.2877385
95	0xbe7a7bcd	-0.24461289
96	0x3df894b6	0.12137739
97	0x3de3c7f1	0.1112212
98	0xbdbfbea6	-0.09362535
99	0xbe74219f	-0.2384095
100	0x3e3a5db7	0.18199812
101	0x3e05b497	0.13057171
102	0xbd959841	-0.07304431
103	0xbe6a12fc	-0.22858804
104	0xbe23565c	-0.15950912
105	0xbd2b197e	-0.041772358
106	0xbe006385	-0.12537964
107	0xbcdd4664	-0.027011104
108	0x3e5b416e	0.21411678
109	0x3e670fc7	0.22564612
110	0x3d9b7475	0.07590572
111	0x3e1cb163	0.15302043
112	0x3da52cf4	0.08065215
113	0xbd6955c4	-0.056966558
114	0xbe81ad43	-0.253275
115	0xbd25c4a6	-0.04047074
116	0x3d887253	0.066624306
117	0xbe105e0a	-0.14098373
118	0x3e0c69eb	0.1371228
119	0xbe84a903	-0.25910196
120	0x3e615c22	0.22007802
121	0xbe1d9fee	-0.1539304
122	0x3e046111	0.12927653
123	0xbe2843af	-0.16432069
124	0xbe017dfa	-0.12645712
125	0xb9c46226	-0.0003745716
126	0x3e367e0f	0.17821525
127	0x3c123b7f	0.008925318
128	0x3dd303f2	0.10303487
129	0xbe585f77	-0.21130167
130	0x3def82df	0.116948836
131	0x3e8db222	0.27674967
132	0x3d60146c	0.054706976
133	0x3db8e851	0.09028686
134	0xbe8042c8	-0.2505095
135	0xbe13b6c8	-0.14425194
136	0xbe8f7bf4	-0.28024256
137	0x3e8d63cf	0.2761521
138	0x3dd0731f	0.101782076
139	0x3d055fc3	0.03256203
140	0x3ba15e4e	0.004924572
141	0x3e8d9d9a	0.27659303
142	0x3d440016	0.047851644
143	0x3ea131d4	0.31483328
144	0x3e55b02e	0.20867988
145	0x3e1075ea	0.1410748
146	0xbdb0a190	-0.086245656
147	0xbd9ffad5	-0.07811514
148	0xbe82b53a	-0.2552889
149	0xbe6bbf0d	-0.23022099
150	0xbe6823d2	-0.22669914
151	0xbe8407d7	-0.2578723
152	0x3e12252a	0.1427199
153	0xbe37f9dd	-0.17966409
154	0x3e898de0	0.26866055
155	0x3ea18d8c	0.31553304
156	0xbe710e6c	-0.23540658
157	0x3e0bb18c	0.13641948
158	0x3e21fc83	0.15818982
159	0xbe95b435	-0.2923905
160	0xbe4a3b73	-0.1974924
161	0x3e3633ec	0.17793244
162	0xbe8517e7	-0.259948
163	0xbe814032	-0.2524429
164	0xbdd3e06d	-0.1034554
165	0xbcb46002	-0.022018436
166	0xbe6aa075	-0.22912772
167	0x3d9ab3d4	0.07553831
168	0x3df92e8c	0.12167081
169	0x3dc78cfa	0.09743686
170	0x3e25741e	0.16157576
171	0x3e8fce63	0.28087148
172	0xbd8b4c42	-0.068016544
173	0x3d30e447	0.043186452
174	0xbd9e10c0	-0.077180386
175	0x3e9971f5	0.29969755
176	0x3dc1ae78	0.094571054
177	0x3e1b7118	0.1517986
178	0x3df466d4	0.119336754
179	0xbdfd1ebc	-0.12359378
180	0xbe43505e	-0.19073626
181	0x3e2321b4	0.15930825
182	0xbe08c257	-0.13355385
183	0x3e36c60d	0.17848988
184	0x3e6a1425	0.22859247
185	0xbb5c42d1	-0.0033609162
186	0x3dbd2646	0.09235816
187	0x3e167892	0.14694431
188	0xbe7b12dd	-0.24518915
189	0xbe361789	-0.17782415
190	0x3d187565	0.03722133
191	0x3d93de86	0.07220177
192	0x3e7425bc	0.2384252
193	0x3dbc92ec	0.092077106
194	0xbc6df73f	-0.01452428
195	0xbe1e196c	-0.15439385
196	0x3d544afb	0.05182932
197	0x3e0e7516	0.13911852
198	0x3dd25024	0.10269192
199	0xbdfaa39a	-0.12238236
200	0xbe803537	-0.250406
201	0xbd95ff2d	-0.073240615
202	0xbd6c2791	-0.05765492
203	0x3e285aa0	0.1644082
204	0xbdc78110	-0.097414136
205	0xbe3bf8dd	-0.18356653
206	0x3e9fb367	0.3119156
207	0xbbc93396	-0.0061401827
208	0xbd546519	-0.051854227
209	0xbe27c3bf	-0.16383265
210	0xbe40d666	-0.18831787
211	0x3df6846f	0.120369785
212	0x3e6bb558	0.23018396
213	0x3d064d99	0.032788847
214	0xbdac7de8	-0.08422452
215	0x3df2ed10	0.11861622
216	0x3df26e05	0.11837391
217	0x3e49a8c2	0.19693282
218	0xbd3ff31d	-0.04686271
219	0x3e930b19	0.28719404
220	0xbc609dcb	-0.013709496
221	0x3df91329	0.12161858
222	0x3d403457	0.046924915
223	0x3baa32c8	0.005194042
224	0x3e925b74	0.28585398
225	0xbe992e12	-0.2991796
226	0x3e92198e	0.28535122
227	0xbd9cffef	-0.07666003
228	0xbd76bc92	-0.06023843
229	0xbe68f14d	-0.22748299
230	0xbd8837d7	-0.066512756
231	0xbe0f6414	-0.1400302
232	0x3e61b89c	0.22043079
233	0x3e96f326	0.29482383
234	0xbe9ebda8	-0.3100407
235	0x3d6c4af8	0.057688683
236	0xbe540bf0	-0.20707679
237	0xbd98aa60	-0.074543715
238	0x3e804694	0.25053847
239	0x3d1945b0	0.037419975
240	0x3d2642ca	0.04059104
241	0xbe461ee3	-0.1934772
242	0xbe891137	-0.26770946
243	0xbe692381	-0.2276745
244	0xbe993b6a	-0.29928142
245	0xbdcc1157	-0.09964245
246	0xbd86a4d4	-0.06574407
247	0x3e576df2	0.21038035
248	0x3e80e1ca	0.25172263
249	0xbe43b45d	-0.19111772
250	0x3d7ba402	0.061435707
251	0x3cf928f2	0.030415032
252	0x3d643a7f	0.05571985
253	0x3e543b1a	0.2072567
254	0x3d61dbae	0.055141144
255	0x3c8276fa	0.015925873

layer1.weight f4 [2, 1000]
0	0x3c05a406	0.008156782
1	0xbcb5fc6c	-0.02221509
2	0x3bb7af5a	0.0056056203
3	0xba5920f8	-0.0008282806
4	0x3b50bfd7	0.0031852627
5	0x3bca5a3a	0.0061753066
6	0x3c9a18a3	0.018810576
7	0xbcbb20f7	-0.022842867
8	0x3b3ef0c8	0.0029135216
9	0x39b7ce98	0.00035058404
10	0x3c5ad100	0.013355494
11	0x3b95efa4	0.0045756865
12	0x3c6f6752	0.014612036
13	0x3ccde7dc	0.025134973
14	0x3cafc76c	0.021457396
15	0xbccd991c	-0.025097422
16	0x3ba13d9b	0.004920674
17	0xbcec4c2c	-0.028844915
18	0xbcd36307	-0.025804056
19	0x3cba09b0	0.022709697
20	0xbc89cc8c	-0.016821168
21	0x3cee70cf	0.029106526
22	0xbcfad2b7	-0.030618055
23	0x3cdb24a6	0.026750874
24	0xbcb8b328	-0.022546366
25	0x3cecf0ec	0.028923474
26	0xbc39074f	-0.011293246
27	0xbb270f40	-0.0025491267
28	0xbb4c12a9	-0.0031139052
29	0xbc57e2c3	-0.013176623
30	0xbc58c6dc	-0.0132310055
31	0xbbf42f2a	-0.0074519115
32	0xbcb0a959	-0.021565126
33	0x3ca4c74b	0.020114562
34	0x3ccfd345	0.025369296
35	0xbcf5d1cd	-0.030007267
36	0xbc4762d0	-0.012169555
37	0x3c90a2d2	0.017655764
38	0xbb12affb	-0.0022382725
39	0x3cbff38a	0.023431558
40	0xbcd82428	-0.026384428
41	0x3c82afb5	0.015952924
42	0x3cbd71cb	0.02312555
43	0x3c244889	0.010027059
44	0xbcc3c9e3	-0.023899978
45	0xbb6bdd9d	-0.0035990246
46	0xbc54f7c6	-0.012998527
47	0xbc8e2d5f	-0.017355619
48	0x3c382880	0.011240125
49	0x39b38e9b	0.0003424779
50	0x3cdd7087	0.027031196
51	0x3c192ae8	0.009348609
52	0x3cf8677e	0.030322786
53	0x3c7c09b6	0.015383175
54	0xbca5f2ef	-0.020257441
55	0xbc6389ba	-0.013887817
56	0xbc3433db	-0.010998691
57	0x3cc04d99	0.023474501
58	0x3c02b797	0.007978342
59	0xbb91afb1	-0.004445993
60	0x3c1b9f3b	0.009498413
61	0xbc19ecf7	-0.009394876
62	0x3ca835c9	0.02053346
63	0x3ad8753a	0.0016514428
64	0xbc72dffb	-0.014823909
65	0x3cd49a77	0.02595256
66	0xbcbb827a	-0.022889365
67	0xbc10477e	-0.008806108
68	0x3b9016c5	0.0043972456
69	0x3c99ef4b	0.018790862
70	0x3ca1fc60	0.019773662
71	0x3c8fe58f	0.017565517
72	0x3a33b458	0.00068551814
73	0x3bc963df	0.0061459388
74	0xbc0eeb16	-0.008723041
75	0xbcd4b090	-0.025963098
76	0xbc84a50a	-0.016191978
77	0xbc3f491d	-0.011675146
78	0x3b88a51e	0.004170074
79	0xbcbdf930	-0.02319011
80	0x3c40c388	0.011765368
81	0x3c5db107	0.013530976
82	0x3c2035e8	0.009778477
83	0x3cd9cb08	0.02658607
84	0xbbc569df	-0.0060245837
85	0xbc91c89f	-0.017795859
86	0x3cbc85f1	0.023013087
87	0x3c35d904	0.011099104
88	0xbc5f14c1	-0.013615788
89	0x3ccad7fd	0.024761194
90	0xbcd016cb	-0.025401494
91	0xbcaf5193	-0.021401202
92	0xbbb2d82a	-0.0054578977
93	0xbc704988	-0.014665969
94	0xbcd79f4a	-0.026321072
95	0x3a4eac0f	0.0007883915
96	0xbcc864cd	-0.024462128
97	0xbcd3be7e	-0.02584767
98	0x3c477cbd	0.012175736
99	0x3c335d1a	0.01094749
100	0xbccf6627	-0.025317265
101	0xbcab18b7	-0.020885808
102	0xbc05b5e2	-0.00816104
103	0xbc00ff9e	-0.007873444
104	0x3cae7f94	0.021301068
105	0xbcb66e5f	-0.022269426
106	0x3ccb08a9	0.024784403
107	0x3c67e68f	0.014154091
108	0x3c9c37f5	0.019069651
109	0x3b36a923	0.002787181
110	0xbcbc1b0a	-0.022962112
111	0x3cfea912	0.031086478
112	0x3a90e382	0.0011054131
113	0xbbc7bb57	-0.0060953307
114	0x3cca4be7	0.024694396
115	0x3adcbecb	0.0016841529
116	0xbcf2e138	-0.029648408
117	0xbcf7b73e	-0.030238744
118	0x3b1ce69c	0.0023941165
119	0xbb87705f	-0.0041332687
120	0x3aad7032	0.0013232289
121	0xbc5ea6a0	-0.013589531
122	0xbca383a9	-0.019960241
123	0x3cfc7e51	0.030821951
124	0x3b5c801a	0.003364569
125	0xbc1b358b	-0.009473215
126	0x3b9b302a	0.004735966
127	0xbb5b2677	-0.0033439675
128	0x3c06a996	0.008219143
129	0x3cb894f8	0.022531971
130	0xbca07ee0	-0.019591749
131	0xbcd7c718	-0.026340052
132	0xbc6b32cc	-0.014355373
133	0x3c8d2f1b	0.017234376
134	0x3ab7e06f	0.0014028678
135	0xbca62140	-0.020279527
136	0xbcbf7c69	-0.023374753
137	0xbcbd8f75	-0.023139695
138	0x3c52f9eb	0.012876968
139	0x3ceecdb2	0.029150818
140	0x3c881331	0.016610714
141	0xbccca7cd	-0.024982357
142	0xbc7ca68b	-0.015420566
143	0xbc1bc0e7	-0.009506441
144	0x3c8c68cc	0.017139815
145	0x3b889844	0.004168542
146	0x3cb64519	0.022249745
147	0x3cd50c92	0.02600697
148	0x3c16938e	0.009190453
149	0x3cf7dcd6	0.03025667
150	0xbae643ec	-0.001756785
151	0x3c995e2d	0.018721664
152	0xbc7de1d8	-0.01549574
153	0x3ce85002	0.028358463
154	0x3c912d36	0.017721754
155	0x3badddb4	0.00530597
156	0x3c40749e	0.011746554
157	0x3ca940b7	0.020660741
158	0xbcc2e9c3	-0.023793107
159	0x3c99c3fa	0.018770207
160	0xbbce48d3	-0.0062953024
161	0x3bf53205	0.0074827694
162	0xbc19794b	-0.009367297
163	0x3c9256a4	0.01786358
164	0xbd014695	-0.031561453
165	0x3cd2e432	0.025743578
166	0x3cb30038	0.02185069
167	0xbc55a282	-0.013039233
168	0xbcdaae5c	-0.02669447
169	0x3ce3747c	0.027765505
170	0x3a62ff41	0.00086592516
171	0xbc0cb226	-0.008587396
172	0x3c9120f5	0.01771591
173	0xbc3757a6	-0.011190331
174	0xbcd4366b	-0.025904855
175	0x3c513d5d	0.012770978
176	0x3bc7acb1	0.0060935845
177	0xbad4d35d	-0.0016237308
178	0x3aa3fba9	0.0012510914
179	0x3c11c6cb	0.008897494
180	0xbc631144	-0.013859097
181	0xbcb48a73	-0.022038674
182	0xbd00bac6	-0.03142812
183	0x3bc5cf55	0.006036679
184	0xbcd86370	-0.026414603
185	0xba9eced6	-0.0012116085
186	0x3c814197	0.015778346
187	0xbc152caa	-0.009104887
188	0xbc88bec4	-0.016692527
189	0xb889532e	-6.5481625e-05
190	0xbc9cabe8	-0.01912494
191	0x3c511162	0.012760492
192	0x3b081ee2	0.002077036
193	0x3c718155	0.014740308
194	0xbc9c956b	-0.019114217
195	0xbc06bc3d	-0.00822359
196	0x3cd63c9f	0.026151953
197	0x3c061ebd	0.0081860395
198	0x3cc60c64	0.02417583
199	0x3cd64403	0.026155477
200	0xbb54cc14	-0.0032470273
201	0xbc971b68	-0.018445686
202	0xbc66c3ec	-0.014084797
203	0xbca85773	-0.020549512
204	0xbbf8505e	-0.00757794
205	0x3c7fafbe	0.015605865
206	0xbc89a8d9	-0.016804146
207	0x3becf3cd	0.0072312118
208	0x3c9f7d42	0.019468907
209	0x3c04d466	0.00810728
210	0xbc1747c4	-0.009233419
211	0xbc5c06a7	-0.01342932
212	0xbcf69e9a	-0.030104924
213	0x3cd918ec	0.026501141
214	0xbcbaabc3	-0.02278698
215	0xbcfb041f	-0.030641614
216	0x3cfadd60	0.030623138
217	0xbcde25c4	-0.027117617
218	0x3bb92eb4	0.0056513194
219	0xbbccbb85	-0.00624794
220	0x3cea482b	0.028598865
221	0xbb0da120	-0.002161093
222	0xbc53c3c2	-0.01292509
223	0xbcd2704a	-0.02568831
224	0x3c2fe99e	0.010736851
225	0xbb94f747	-0.0045460793
226	0x3cec9086	0.028877508
227	0xbbce475c	-0.006295128
228	0x3c96d5b0	0.018412441
229	0x3c9a4db9	0.01883589
230	0xbc21a16d	-0.009865147
231	0xbccc803d	-0.024963493
232	0xbc9dae7a	-0.019248236
233	0x3b6ef3f4	0.0036461325
234	0xbcbbad84	-0.022909887
235	0x3ca43415	0.020044366
236	0xbcc2048f	-0.023683814
237	0x3c11f531	0.008908556
238	0xbc4df618	-0.01257088
239	0x3c8f89c2	0.017521743
240	0xbc55ebe2	-0.013056727
241	0x3c7826bf	0.015145957
242	0x3b2d4283	0.002643735
243	0x3c74ffb2	0.014953541
244	0x3cd9db6c	0.026593886
245	0x3c9d1758	0.01917617
246	0x3c8be72e	0.017078009
247	0xbcabf2ab	-0.020989737
248	0x3cf0a4a8	0.02937539
249	0x3b728722	0.0037006815
250	0xbc611754	-0.013738472
251	0xbccf8948	-0.025334015
252	0x3c9cf98f	0.019161968
253	0xbba59663	-0.005053328
254	0xbb2da5cc	-0.0026496528
255	0x3cbbc393	0.022920405
