MLP_init_params.pt (torch, 5953 bytes, 2 tensors)

layer0.weight f4 [100, 10]
000000 dd 13 91 bd 53 5c 85 3d 74 dd bd bd 7b 6b 48 be
       -0.07083867 0.0651175 -0.092707545 -0.1957225
000010 b4 2c 34 3e 39 a2 3c be 0e 75 82 3e d9 52 7c 3e
       0.17595178 -0.18421258 0.2547993 0.24640979
000020 03 ed 82 3e 73 1f 98 bc e2 af 5e bd 42 be 1f be
       0.2557145 -0.018569684 -0.054366954 -0.15599921
000030 36 3a 25 be fb e0 b5 bc fa 5f 78 3e 8f 83 92 3d
       -0.16135487 -0.022202006 0.24255362 0.07153999
000040 bd 86 4a 3e a9 e0 92 3e ad 7d bd 3d 10 61 3b 3e
       0.19777961 0.28687027 0.092524864 0.18298745
000050 38 d1 4d be 13 d3 ea bd 7b 9c 5c 3e 5a 59 8d 3e
       -0.20099342 -0.114660405 0.21544068 0.27607232
000060 39 93 6b 3e 36 58 a0 be c7 26 17 be 7b 24 37 3e
       0.2300538 -0.313173 -0.14760886 0.1788501
000070 33 33 97 be e2 99 e1 3d 93 1f d3 bd f6 6e 81 3e
       -0.2953125 0.11015679 -0.10308757 0.2527997
000080 3b 28 09 3e e5 f3 4a be 47 a1 65 3e cc 86 4a be
       0.13394253 -0.19819601 0.22424804 -0.19777983
000090 83 3c d0 bd dc 04 37 3e 3a 83 09 3e 47 22 36 bb
       -0.10167792 0.17872947 0.13428965 -0.0027791427
0000a0 40 45 77 3d 71 7d 07 3c 38 1f 86 3d ae 79 8c be
       0.060368776 0.008269654 0.06548923 -0.27436584
0000b0 c3 44 07 3c c0 66 08 3e 00 7c 56 be 14 08 ad bd
       0.00825614 0.13320446 -0.2094574 -0.084488064
0000c0 d7 ca 34 be 4c 04 2f be 4c a9 8d 3e c3 b0 83 be
       -0.17655502 -0.17091483 0.27668226 -0.25720796
0000d0 31 2d 56 bd 8d 99 98 bd 99 e8 c3 3d d7 21 7a 3e
       -0.05228919 -0.074511625 0.09565849 0.24426971
0000e0 71 38 0d be 24 e9 84 be 9f a0 15 3e 8c e9 6a 3e
       -0.13791062 -0.25959122 0.14612053 0.22940654
0000f0 08 b6 68 3e 54 37 05 3e ec 1e 5e be 0d fc 74 be
       0.2272569 0.13009387 -0.21691483 -0.23924275
000100 4b 02 3e 3e 56 97 21 3c 0c 4b d5 bb ec 8c 48 bd
       0.18555562 0.009862741 -0.0065091904 -0.04896252
000110 8d 5a 8e be 3c 24 a1 be 32 80 d2 bd 13 59 8a be
       -0.2780346 -0.31472957 -0.102783576 -0.27021083
000120 be 4a 2b be 49 e7 8d be bc 35 71 be e6 82 6b 3e
       -0.1672773 -0.2771552 -0.23555654 0.22999153
000130 72 fe 9c 3e ac 38 9b 3e 07 36 89 3d 46 3a 8b be
       0.30662876 0.30316675 0.06699758 -0.27192897
000140 e4 2a 55 be 6d 17 8e be ab 3f 4c bd ed af 8f 3e
       -0.20817143 -0.27752247 -0.049865406 0.28063908
000150 e8 7b f2 3c ee a8 3a be ba bc 85 3e a6 e9 2f be
       0.029600099 -0.18228504 0.2612055 -0.17178974
000160 10 d1 93 be b0 09 4a be 05 08 96 3e b3 ef 98 be
       -0.2887044 -0.19730258 0.29302993 -0.29870376
000170 c4 48 52 3e 16 d4 de bc 91 cd 8a 3d 36 32 1c 3c
       0.2053557 -0.02720074 0.0677749 0.009533456
000180 f2 e2 82 be a5 97 13 bd f7 eb 97 be 72 c2 00 be
       -0.2556377 -0.03603329 -0.29672214 -0.12574175
000190 ab c7 1e 3e b2 27 34 3e c9 70 66 be 2a 33 77 be
       0.15505855 0.17593268 -0.22503962 -0.24140611
0001a0 23 76 12 3e 16 75 91 be ee 61 2f be 3b a5 8a 3e
       0.14302878 -0.28409642 -0.17127201 0.27079186
0001b0 74 ec 55 39 bb 5f 06 3d 6e ec 73 3e e5 7a 1c 3e
       0.00020401349 0.03280614 0.2382066 0.15281256
0001c0 a1 96 e2 bd 8b a9 1a 3e 53 e0 9d 3e a7 6f 94 3e
       -0.110638864 0.15103738 0.30835208 0.28991434
0001d0 78 44 df 3d 16 de b0 3d d6 40 83 be 3f 9b 9e be
       0.10901731 0.086361095 -0.25635403 -0.30977818
0001e0 18 e1 a7 3d ad 08 5b bd 01 07 0f 3e 0d 1d c1 bd
       0.0819723 -0.05347507 0.13967516 -0.09429369
0001f0 da fa 28 3c bc a4 04 be 8e c4 4e be 72 78 16 be
       0.010313714 -0.12953466 -0.20192167 -0.14694384
000200 c2 39 8b 3e 28 a0 42 3e 9b 41 f3 bd 3a 7b 54 be
       0.27192503 0.19006407 -0.118777476 -0.20750132
000210 24 d8 2c be 1e 07 f5 3d 20 6d 2c be d5 a9 44 3d
       -0.16879326 0.11964248 -0.16838503 0.048013527
000220 63 6e 35 be 46 14 98 3e fa 88 f0 3d 35 22 0b be
       -0.1771789 0.29702967 0.11744876 -0.13587268
000230 eb d7 6d bd 19 fa eb 3d b2 13 29 3e 7a e3 9d be
       -0.058067244 0.11522312 0.1651142 -0.30837613
000240 2c 6f 7b 3d 55 0c 07 be 75 83 74 3e 6c f3 5a 3e
       0.06138532 -0.13188298 0.23878272 0.2138192
000250 dd 33 a8 bd 96 e0 ff 3d 2c ef 0d 3e 2f cc 34 3e
       -0.08213017 0.12494008 0.13860768 0.17656015
000260 f3 53 6b 3e 6e d0 8e be 55 f6 53 be 5c 64 99 3e
       0.22981243 -0.27893394 -0.20699437 0.2995938
000270 8c da 86 bd a2 92 cb bd 77 e1 93 bd 1d e3 98 3e
       -0.06584653 -0.09940077 -0.072207384 0.29860774
000280 81 be 12 be fc 56 f2 3c 99 c1 4c bc 69 5b 84 bc
       -0.14330484 0.029582493 -0.012497329 -0.016156869
000290 8b 18 2d 3e bd aa 94 3e ed ae 33 3d f8 ce 83 3e
       0.16903894 0.29036513 0.043867994 0.25743842
0002a0 8c f3 4d bc 0c 7b 3a be 4a 97 28 3e d5 53 06 bd
       -0.012570273 -0.18211001 0.16463962 -0.032794792
0002b0 ad 7d 20 3e 03 c2 82 be a4 68 73 bd e7 90 3a bb
       0.15672942 -0.25538644 -0.059425965 -0.0028467716
0002c0 af 61 82 bd ea 38 7d 3d 84 fd 41 bd 4a 59 9f be
       -0.06366288 0.061821856 -0.047360912 -0.3112281
0002d0 78 53 8b be 33 26 62 3b c1 64 3f be fa ec 20 be
       -0.2721212 0.0034507632 -0.18690778 -0.157154
0002e0 fc 55 1c be 41 15 39 be 3b 89 2f 3e 09 f1 26 3d
       -0.15267175 -0.18074514 0.17142193 0.040757213
0002f0 a0 7d ab bd 13 a6 37 3e f1 e2 f6 3d 47 51 9f 3e
       -0.083735704 0.17934446 0.120550044 0.31116697
000300 42 c2 90 bc 09 80 4b be db 9a d5 bd b9 dd 7e be
       -0.017670754 -0.1987306 -0.10429927 -0.24889268
000310 78 c4 70 be 38 b5 53 3e 7a b5 5b 3e 2d b4 42 bd
       -0.23512447 0.20674598 0.21455947 -0.04753511
000320 fb b4 95 3e 01 8a 68 3e 3f df 59 3e e9 10 26 3e
       0.2923964 0.22708894 0.21276568 0.16217388
000330 94 95 cb 3d 5a ed 10 3e 2f 16 dc bd 72 7d 9b 3e
       0.09940639 0.14153042 -0.10746419 0.30369145
000340 18 ac 57 be 9a f0 63 be 4f 37 39 3e bc 66 19 3e
       -0.21061742 -0.22259751 0.18087505 0.14980596
000350 85 3e af bc 3f 18 30 3e c8 9f 5f 3e 21 a6 11 be
       -0.021392116 0.17196749 0.21838295 -0.1422353
000360 c9 14 33 be 68 fc 5e 3e 0d 47 de 3d 2f 2a 9f 3c
       -0.17488398 0.21775973 0.108533956 0.019429294
000370 28 9e 3d 3e 26 f5 7a bc d5 96 73 be 35 7f 62 bd
       0.18517363 -0.015317237 -0.23788007 -0.055297095
000380 31 53 94 3e 5c c8 9c bd 6e 7f 85 3e 93 7b d9 3d
       0.2896972 -0.07655403 0.26073784 0.10619273
000390 2e c1 e5 bc 64 d2 36 3e c5 95 12 be e9 d4 01 be
       -0.028046217 0.17853695 -0.14314945 -0.12678875
0003a0 51 d3 d1 bd 07 07 4b be 71 46 6b 3e 06 65 94 3e
       -0.102453835 -0.198269 0.2297609 0.28983325
0003b0 d5 44 5a be 83 f3 57 be 2f 3d 60 bd f0 38 96 be
       -0.2131532 -0.21088986 -0.05474585 -0.29340315
0003c0 00 ff 72 3e 0b e9 d8 3c 1d 0d 24 be f7 2d ad 3d
       0.23730087 0.026478311 -0.16020627 0.08456033
0003d0 77 71 24 bd e3 d6 76 3e 7b 65 75 3e 2b 50 ab bd
       -0.04014727 0.2410541 0.23964493 -0.083649
0003e0 ff 25 46 be 65 fd 4f 3e 28 a2 8e 3e 8f 67 ca 3d
       -0.19350432 0.20311506 0.2785809 0.098830335
0003f0 d0 b4 d6 3d 50 ef 54 be a1 93 d3 bd 61 c4 13 3e
       0.10483706 -0.20794415 -0.10330892 0.14430381

layer1.weight f4 [2, 100]
000000 0c e4 99 bd b9 34 99 bd 07 0d 52 3d 3f 9c 0c 3d
       -0.075141996 -0.07480759 0.051281955 0.034328695
000010 9e 1b 9c bd a2 fc 7d 3c 1b 53 0f bd 28 d5 c4 bd
       -0.07622455 0.015502127 -0.034991365 -0.09610969
000020 80 d0 dd bb f7 02 68 bc 43 5f 78 bc 6b e5 79 bd
       -0.00676924 -0.014160863 -0.015159431 -0.061009806
000030 58 14 5a bc fd b6 15 3d 8c e3 3b bc 25 42 93 bd
       -0.013310514 0.036551464 -0.011467826 -0.071903504
000040 db 48 33 bb c2 e4 b4 3c e5 d0 50 3d 24 dd c4 3d
       -0.0027356658 0.022081736 0.050980467 0.09612492
000050 41 9f e0 3c cc 84 14 3d ab 70 8c 3d 7b db c8 3d
       0.027419688 0.036259457 0.06857427 0.098074876
000060 ea c4 2b bd 4b 27 5f bd f9 2f bc 3d 20 bd 0e bd
       -0.04193584 -0.054480832 0.091888376 -0.034848332
000070 7f f4 d8 3c 27 88 b7 3d f6 8f 77 bc 7e ad cc 3d
       0.026483772 0.08961516 -0.015110007 0.099940285
000080 72 a5 0b 3d 14 62 9c 3d a6 70 9f bd 98 86 b8 bc
       0.034093328 0.076358944 -0.07785158 -0.022525117
000090 3a 93 a2 bd 08 47 a9 3b d1 21 a0 3d 39 8d c2 3d
       -0.079382375 0.0051659383 0.0781895 0.09499592
0000a0 5c 95 bb 3d bd d3 ea bb c7 7a 86 bd e7 97 2a ba
       0.091593474 -0.0071663545 -0.06566387 -0.00065076206
0000b0 86 12 d1 3c 51 70 c4 3d 42 80 5e 3d ef 50 b0 3d
       0.025521528 0.09591735 0.054321535 0.08609187
0000c0 cf 04 9a 3d 27 4a 4b bd f6 fc 40 3d 7e 18 a3 ba
       0.075204484 -0.049631264 0.047116242 -0.0012443212
0000d0 6b ff 2a bd 88 f8 96 bd 7c 39 9d 3d 75 ae 72 bd
       -0.04174749 -0.07371622 0.0767698 -0.059248406
0000e0 00 dc 85 bd bf b5 b6 bd 66 ce d1 bc 97 85 2a 3c
       -0.06536102 -0.08921384 -0.025611114 0.010407827
0000f0 d7 ee cb 3d ff 53 9c bd 05 14 c4 3c b5 0c 25 bd
       0.099576645 -0.076332085 0.023935327 -0.04029532
000100 9f f2 30 3d ae e0 d5 bc 64 9d 0a bd b9 aa 93 3d
       0.04320013 -0.026108112 -0.033841506 0.07210297
000110 c7 7f 3e bd ae 83 65 bb 75 5f 76 3d 8f 87 71 bd
       -0.046508577 -0.0035021114 0.06014963 -0.05896717
000120 56 e8 e5 39 2d 99 08 bb 33 74 c1 3c de fc 28 bd
       0.00043851387 -0.0020843253 0.023614978 -0.041256778
000130 87 12 b5 bd c3 b9 ab 3d 66 9f 30 3d 13 f7 20 bc
       -0.088414244 0.083850406 0.043120764 -0.009824532
000140 9c 36 65 3d 26 3a 93 3d d3 be 85 bb 7b 4f c3 bd
       0.055960283 0.07188825 -0.004081586 -0.09536644
000150 18 6c 50 3d 07 1e 1f 3d 3b a6 ab bd 03 c7 6a 39
       0.050884336 0.038846996 -0.08381315 0.00022390117
000160 4c fd c3 3d a9 34 84 3d d3 c9 16 3c 15 41 14 bd
       0.09569797 0.06455357 0.009203392 -0.03619488
000170 b2 4f 05 bd e8 59 cd 3b af ac 96 3d a9 be bb bd
       -0.032546706 0.006266821 0.073571555 -0.09167225
000180 59 43 4c bd bf 0b 46 bd 66 7a d9 bc b0 fa a8 3c
       -0.049868915 -0.048351046 -0.026547622 0.02062735
000190 c3 9a c0 3c c7 b2 c0 bd d0 b9 17 3d fb a9 9a bd
       0.023511296 -0.09409099 0.03704244 -0.075519525
0001a0 b9 51 74 3d ba d2 b8 bd c8 9c 09 3d 35 2b 94 3d
       0.05964825 -0.09024568 0.033596784 0.072348036
0001b0 f7 b1 b7 3d a9 7e 86 3d 69 28 39 bd 2f 53 a8 bd
       0.08969491 0.06567127 -0.045204554 -0.08218991
0001c0 82 6c 1a bc 4b f5 bd 3d 3b 2c 5c bd 9b 01 86 bd
       -0.009425284 0.092753015 -0.05375312 -0.06543275
0001d0 2f 70 7a bc 3b 90 b3 bc 1e 0d 80 bd 5e 4f ba bd
       -0.015285536 -0.02191936 -0.06252502 -0.09097169
0001e0 1b 02 55 bc 00 e9 9a bd 2d e7 63 3c 2e e9 ce 3b
       -0.01300099 -0.075639725 0.013910097 0.0063144183
0001f0 47 5c 9a bd a0 3e 0e bc 0b f8 64 bd 87 1d 0c bd
       -0.07537132 -0.008681923 -0.055900615 -0.034207847
000200 67 03 9e bd 8f 1b 09 bd 80 e5 90 bd 6c 21 b0 bd
       -0.07715493 -0.033473548 -0.07075024 -0.08600125
000210 22 35 5c bd 69 ab a4 3d 39 f8 a2 3d bb 43 4a bd
       -0.05376161 0.080405064 0.07957501 -0.049381
000220 13 8f 46 bd 8e 4f f3 bc ef fd 01 bd 33 81 36 bd
       -0.04847629 -0.02970102 -0.03173631 -0.044556808
000230 f0 1f 8f bc eb f0 39 3c bb 96 b5 bd 81 fe a9 bc
       -0.017471284 0.011348943 -0.0886664 -0.02075124
000240 74 c6 67 bc 8c 14 a5 3d 35 f6 5d bd cb 91 98 bd
       -0.014146436 0.0806056 -0.05418988 -0.07449683
000250 e1 63 b1 bd 60 bb c7 bd 71 85 92 bd f3 b9 a2 3d
       -0.086616285 -0.09752536 -0.07154358 0.07945623
000260 a0 e3 1e 3c cf 36 ad 3d ef ef b6 3d 3b fe bf bb
       0.009697825 0.084577195 0.089324825 -0.005859164
000270 fe 55 54 3c 3a 3a be bd 65 1d 32 3d 72 d0 c0 3d
       0.012959955 -0.092884496 0.043485064 0.09414758
000280 4c 64 fc 3c c1 8f 70 3d 55 e8 ac bd 6b 27 7d 3d
       0.030809544 0.058730844 -0.08442751 0.06180517
000290 e6 2e cb bd db 3c 21 bd 0b 1c 4c 3d bc 46 b4 bd
       -0.099210545 -0.039364677 0.04983143 -0.08802554
0002a0 70 d4 c3 bd c7 2e 06 3d 39 5a cf bc 1f 9a a8 3c
       -0.095620036 0.032759454 -0.025311576 0.020581303
0002b0 8e 27 8b bd f9 f8 ae 3d 5e 4a 20 3c 43 75 a2 bc
       -0.06794654 0.085435815 0.0097833555 -0.019831305
0002c0 e3 17 ad 3d 20 d1 9e 3d 5e 53 3b 3d 2f 91 0d bd
       0.08451822 0.07754731 0.045733802 -0.034562286
0002d0 56 35 97 3d c6 c4 28 3d 15 68 87 3c 69 29 b5 3d
       0.0738322 0.041203283 0.016529122 0.08845789
0002e0 2b 4b 49 bd 03 18 9a 3c 89 aa 32 3c 33 04 c6 3d
       -0.04914395 0.018810278 0.010904917 0.0966877
0002f0 e5 cd 61 3d 59 e5 49 bc 03 ea b5 3d 84 83 95 bd
       0.055127997 -0.012322747 0.08882525 -0.07300475
000300 70 7b c6 3c 4e 8f 6d bd e0 55 84 bd cf ee e7 bc
       0.024228781 -0.057997994 -0.06461692 -0.028312115
000310 96 5a 3b bb 2a ed 88 bc df 58 6d 3d 28 88 65 bd
       -0.002858793 -0.016714651 0.057946082 -0.05603805
