MLP_init_params.pt (torch, 49217 bytes, 2 tensors)

layer0.weight f4 [1000, 10]
000000 10 60 96 be ba ac 91 3e 0d 7a f5 bd a8 9a 96 be
       -0.29370165 0.28452092 -0.1198617 -0.29414868
000010 aa 45 76 be 52 35 fe 3b 97 10 24 be 96 12 a9 bd
       -0.24050012 0.007757821 -0.16021954 -0.08255498
000020 40 3b 4c bd 3b 16 ae bd b5 06 08 3d 54 c6 87 3e
       -0.049861193 -0.08500334 0.03320952 0.265185
000030 ad 65 29 3e ce 65 14 3e e2 be 58 be b2 be 22 3e
       0.16542692 0.1449196 -0.21166566 0.15893057
000040 6c 4f 0a 3d 63 59 b7 bc 62 c0 76 3e b6 e0 12 bd
       0.03376715 -0.02238149 0.24096826 -0.035858832
000050 b9 da 79 be fb 55 00 be 05 cb aa be b5 7f 5c 3d
       -0.24399842 -0.12532799 -0.33358017 0.05383273
000060 b7 16 8d be a8 e1 c4 3e e1 2f 36 3e a4 84 b4 bc
       -0.27556393 0.38453412 0.17791702 -0.022035904
000070 29 83 1c bd b5 1b 9d 3e 8e 3d 07 3e fb 94 63 be
       -0.03821102 0.306852 0.13207075 -0.222248
000080 74 15 85 be 9d 44 8e 3d cb d1 a9 3e 30 e4 f6 3e
       -0.2599293 0.06946681 0.33167872 0.48220968
000090 e1 94 61 3e f6 1b f3 be 5c bd cc 3d fc ba de 3e
       0.22029449 -0.4748227 0.09997055 0.43502033
0000a0 9a 75 fe 3d fc 06 9c 3d ee ea 25 bd 9b f0 89 3e
       0.124247745 0.0761852 -0.04050725 0.2694138
0000b0 37 d6 7a 3c 8c a0 2f 3c bf 3a 6b 3e 58 c8 ae b9
       0.015309862 0.01071943 0.22971629 -0.00033337134
0000c0 94 04 b9 3c 5f 7f 1c 3e 9b 2a 6a 3e 7e d0 88 be
       0.02258519 0.15282963 0.22867815 -0.26721567
0000d0 25 a9 18 3d 2c 9f 72 be 47 c4 86 be a5 81 e2 bd
       0.037270684 -0.23693532 -0.26321623 -0.11059884
0000e0 fd 89 28 3e 09 6a 49 3e ab 2a f7 3d d3 37 10 be
       0.16458888 0.19669355 0.12068685 -0.14083795
0000f0 39 80 81 3e ed 73 88 be b0 82 10 be ac f4 5e be
       0.2529314 -0.26650944 -0.14112353 -0.21773022
000100 47 4c 48 3d 81 91 86 3e 11 8d 73 3e 48 44 0c 3d
       0.04890087 0.26282886 0.23784281 0.034244806
000110 82 09 35 be 74 83 a9 3e 1b a8 23 bd 2d 32 94 be
       -0.17679408 0.33108103 -0.03995524 -0.2894453
000120 e1 4f 15 be 6b 6c 73 be d9 7a 8a bd 6a ab 7c be
       -0.14581253 -0.23771827 -0.067617126 -0.24674764
000130 5d b2 b6 3d 1b db 11 3e c8 10 13 3e 8c e3 ea bd
       0.08920739 0.14243738 0.1436187 -0.11469182
000140 54 b8 79 3d 18 c5 46 be db 5f a1 3d 00 17 2c be
       0.060966805 -0.19411123 0.07879611 -0.16805649
000150 a1 a8 4d 3e 01 5a 8c be 27 c9 21 3e f2 9b 48 bd
       0.20083858 -0.27412418 0.1579939 -0.048976846
000160 30 da 0d 3e a9 cc 9e be 71 3a 41 bd 06 b8 08 3e
       0.13852763 -0.31015518 -0.047174875 0.1335145
000170 a2 33 e7 3d 4b 7a 2d bd fd 3b 8d bd 3e 82 81 be
       0.11289145 -0.042352956 -0.068962075 -0.2529468
000180 4a 0f 04 3e 14 f7 9c be 7c 5b b2 3e ec ff a9 be
       0.12896457 -0.30657256 0.34835422 -0.33203065
000190 e3 eb 3f 3d 0e 47 29 3e 2a 65 81 3d bf 80 89 3e
       0.04685582 0.16531011 0.06318124 0.26856038
0001a0 87 91 b4 3d fc 48 fa 3d ee bc aa 3e 9b 9e a0 be
       0.0881682 0.12220952 0.33347267 -0.31371006
0001b0 34 39 e0 3b 88 fd 88 be ce a3 d5 3d 2a 8e a4 3c
       0.0068427566 -0.2675593 0.10431634 0.02008732
0001c0 62 df 44 be 33 d2 14 3d 80 8f b6 3d f9 99 94 3d
       -0.19225839 0.036333274 0.08914089 0.072559305
0001d0 68 40 85 3e d7 83 a0 be 66 0b 96 be f7 b1 87 be
       0.260257 -0.31350586 -0.2930557 -0.26502964
0001e0 91 ae 4d bd 4b be 32 3e d5 50 11 3e 8f c3 03 3e
       -0.050215308 0.17455404 0.14190991 0.12867568
0001f0 2a 0f 6b 3e 76 9f 84 3e 6b a0 44 3e a2 f9 0a be
       0.22955003 0.2590291 0.1920182 -0.1357179
000200 f4 ba 27 be bc f2 83 3e 04 fb 2a 3e 71 b7 17 3e
       -0.1637991 0.2577113 0.16697317 0.14816071
000210 0e 5a 66 be d6 b0 f7 bc d1 cc 2b be 7d 48 93 3d
       -0.2249529 -0.03023569 -0.1677735 0.071915604
000220 0f 72 40 be 00 b8 bf bd 6b b5 bf 3d ac 34 84 bd
       -0.1879351 -0.09361267 0.093607746 -0.06455359
000230 64 76 34 be 00 cd ee bd 17 fb d5 bd 8d 57 e2 bd
       -0.17623287 -0.116601944 -0.10448282 -0.11051855
000240 04 d8 ef 3d 98 fa a2 3e a8 af c8 3d a4 21 18 3e
       0.117111236 0.31831813 0.09799129 0.14856583
000250 97 f2 98 be cf f4 0f bd 26 c0 9e be a9 0c a1 bc
       -0.2987258 -0.035145577 -0.31005973 -0.019659357
000260 98 f1 e5 3d 16 a4 12 3e 07 42 3b 3e 37 a6 42 3d
       0.11227721 0.14320406 0.18286906 0.047521796
000270 1b 78 91 3e 2a 0e 96 be c0 b1 04 3d 8a c4 1f 3e
       0.28411946 -0.2930768 0.032396078 0.15602317
000280 e9 ed 7a bc 68 a7 4c 3e 2a 7a 9a 3e 22 9d 88 be
       -0.015315511 0.19985735 0.3017133 -0.26682383
000290 c3 63 3d be 43 43 0c bd a8 26 0b 3c 91 8e e5 3d
       -0.18495087 -0.034243833 0.008493103 0.11208833
0002a0 1a d1 9a be 63 a0 57 3e 1d 4b 42 3e ab 81 0d 3e
       -0.30237657 0.21057276 0.18973966 0.13818996
0002b0 06 b4 89 be f4 eb dc 3b 41 88 92 be e0 04 96 3e
       -0.2689516 0.006741995 -0.28619578 0.29300594
0002c0 cf 7d c7 bb 00 c4 cf 3b b3 c9 66 3e f5 ca 44 be
       -0.0060879956 0.0063405037 0.2253788 -0.19218047
0002d0 6a c8 6b 3e da 57 74 be 3e f5 93 be bd 0d e3 3d
       0.2302567 -0.23861638 -0.28898042 0.11086605
0002e0 a6 d7 9e 3e 5b 72 b2 3c f7 85 f1 3d 39 38 4c 3c
       0.31023902 0.021783045 0.1179313 0.012464576
0002f0 8e 8c 83 bc df 2f 63 bd 69 8b 9f bd 57 08 7a 3c
       -0.016058233 -0.055465575 -0.07790262 0.015260777
000300 b2 70 e0 bd a8 47 09 3c 6c 11 4c be e6 2d 0c be
       -0.10958995 0.008378901 -0.19928521 -0.13689384
000310 83 28 34 be fc 29 1b 3e 3b b1 5c be c2 fa 8e 3d
       -0.17593579 0.15152735 -0.21551983 0.06981422
000320 74 1f 96 be 87 0b 3e 3e ee 72 51 3c c2 42 79 3e
       -0.29320872 0.18559085 0.012783749 0.24341872
000330 61 ff e7 3d 3f f3 06 3d 6c a4 0f 3e 1e 15 c6 bc
       0.113280065 0.03294682 0.14027566 -0.024179991
000340 04 76 c5 bd d8 d5 94 3e 73 a7 90 3e e3 ad 84 bb
       -0.0964165 0.290694 0.28252754 -0.004049049
000350 c6 b6 73 be de 3e 39 3e 72 d0 36 be 5c b9 10 be
       -0.23800191 0.18090388 -0.17852953 -0.14133209
000360 73 83 16 bd 87 0e 77 3e 1b d8 aa 3d 85 40 28 3e
       -0.036746453 0.24126635 0.08342 0.16430862
000370 e8 01 34 be b4 73 0b 3e 91 3b 74 bd 48 3a 1e 3e
       -0.17578852 0.13618356 -0.05962712 0.1545192
000380 25 07 50 be 48 4a 58 3e 11 2e 91 be 05 8a 85 be
       -0.20315225 0.21122086 -0.28355458 -0.26081863
000390 05 6c 3f 3e 5f 44 39 bd 06 94 ad be f9 5b 97 be
       0.1869355 -0.04523122 -0.33901995 -0.29562357
0003a0 39 47 9e be 1a 47 a8 be 94 6f 0e bd 48 bd 83 be
       -0.30913714 -0.32866746 -0.034774378 -0.25730348
0003b0 88 a3 6a 3e e8 b6 43 3e ab c3 99 3e eb df 83 3e
       0.22913945 0.19112742 0.30032095 0.25756773
0003c0 6e 06 59 3e fa 82 85 3c 13 fa 69 bc ee 17 9e be
       0.21193859 0.016297806 -0.014280814 -0.30877632
0003d0 71 12 3e bd 88 51 64 3d b5 4a f3 bd c7 8a fb bd
       -0.046404306 0.055741817 -0.118794836 -0.12282329
0003e0 a4 09 64 3e 23 87 91 3e 8c 6d 2f be db e8 04 3e
       0.22269303 0.28423414 -0.17131633 0.12979452
0003f0 46 08 7a be cc 5c ee bd 82 db 03 bc 71 78 6b be
       -0.24417219 -0.11638793 -0.00804794 -0.22995164

layer1.weight f4 [2, 1000]
000000 63 be 94 3f 3e 91 60 3f dd 0b 37 40 83 ab 33 40
       1.1620601 0.8772162 2.860099 2.8073432
000010 4b b4 b0 3f b0 b0 a1 3f b6 61 0c 40 d5 95 bd 3f
       1.3805021 1.2632046 2.1934638 1.481135
000020 dd e3 9d 3f fd 56 84 3f 6f 95 ba 3f 25 e7 de 3f
       1.2335163 1.0339047 1.4576854 1.741429
000030 6d 0f 14 40 24 5e a2 3f 26 ff ed 3f 3e 43 db 3f
       2.3134415 1.268498 1.859349 1.7129896
000040 4c fb af 3f 0f 90 8f 3f ad b9 fb 3f e0 71 dd 3f
       1.3748565 1.1215838 1.9666039 1.7300377
000050 ad 75 01 40 27 0a e3 3f 38 6c c5 3f 24 6c e1 3f
       2.0228074 1.7737473 1.5423651 1.7611127
000060 b6 e4 e5 3f 4e 48 90 3f 2d de d3 3f 5b 3c a6 3f
       1.7960422 1.1272066 1.6552178 1.2987169
000070 46 e8 ac 3f f7 ff 5b 3f fc eb 30 40 3a 4e 8b 3f
       1.3508384 0.85937446 2.7644033 1.0883248
000080 f1 6a c9 3f 49 d0 96 3f de 93 01 40 af 55 d7 3f
       1.5735761 1.1782314 2.02465 1.6823024
000090 f9 04 d1 3f b6 5e bf 3f 9a 99 0f 40 e0 5a 58 3f
       1.6329643 1.4950778 2.24375 0.84513664
0000a0 2f 84 36 40 0a b6 87 3f f2 b2 f7 3f 53 a6 06 40
       2.8518178 1.0602429 1.9351485 2.1039016
0000b0 7a 8e c5 3f 94 eb b5 3f 18 a0 0b 40 d2 cb a6 3f
       1.5434105 1.4212518 2.1816463 1.3030951
0000c0 33 19 1b 40 33 61 cd 3f 0f 82 80 3f 09 05 b4 3f
       2.423413 1.6045288 1.0039691 1.4064037
0000d0 1d 8c 16 40 cd fd b7 3f cc c8 09 40 2b 3d b5 3f
       2.3523018 1.4374329 2.1528807 1.4159292
0000e0 b5 17 fa 3f 54 bf 8c 3f 96 97 a9 3f 68 dc ca 3f
       1.9538485 1.0995889 1.3249385 1.5848513
0000f0 45 aa cd 3f 84 6c f1 3f 99 e1 c0 3f 61 84 83 3f
       1.6067587 1.8861241 1.5068847 1.0274774
000100 07 83 b8 3f a8 9f ae 3f c6 93 86 3f 0f b2 f0 3f
       1.4414986 1.3642473 1.0513847 1.8804339
000110 1f a0 14 40 5c 1e 5f 3f a9 9b be 3f 33 8d ff 3f
       2.322273 0.871557 1.4891254 1.9964966
000120 27 b1 f0 3f fc 45 e4 3f b2 44 5d 3f ce fc c9 3f
       1.8804063 1.7833858 0.86432946 1.5780275
000130 b1 0a aa 3f 19 41 a1 3f 65 c5 2c 40 9d 70 a0 3f
       1.3284513 1.2597991 2.699548 1.2534367
000140 ed bc db 3f 3d 11 87 3f cc bf 07 40 4d 7c 63 3f
       1.716703 1.0552136 2.1210814 0.8886154
000150 b8 74 9d 3f 0d ab c6 3f 98 2a cd 3f 8d 8a f3 3f
       1.2301245 1.552095 1.6028624 1.9026657
000160 6e 7f bf 3f 96 44 ed 3f 3d cc 12 40 ee 38 a2 3f
       1.4960763 1.8536556 2.2937157 1.2673624
000170 ee e8 bb 3f 45 da 1c 40 ba e6 b7 3f cb 2a a5 3f
       1.468046 2.450822 1.4367287 1.2903684
000180 09 9c db 3f d7 25 cf 3f a1 4c fc 3f 6e dd 6a 3f
       1.7156993 1.6183423 1.9710885 0.91744125
000190 2d 5e e9 3f 94 c6 06 40 fc fc bd 3f fe 2d 91 3f
       1.8231865 2.1058702 1.484283 1.1342161
0001a0 20 c6 e1 3f a9 fa bc 3f 58 f9 e3 3f 9d fa b8 3f
       1.7638588 1.4763995 1.7810469 1.4451481
0001b0 62 6a 01 40 eb 32 fe 3f 6d 96 b9 3f 6c 06 f5 3f
       2.022118 1.9859289 1.4499031 1.9142585
0001c0 d7 20 fc 3f 4a fa 32 40 06 98 10 40 eb af d8 3f
       1.9697522 2.7965264 2.2592788 1.6928686
0001d0 e4 df 0f 40 e1 d9 36 40 a9 8a d0 3f bc 84 19 40
       2.2480402 2.8570483 1.6292316 2.3987265
0001e0 44 c5 13 40 28 c7 af 3f 28 be ac 3f 03 e7 4e 3f
       2.3089151 1.3732653 1.3495531 0.80821246
0001f0 87 e7 b6 3f 9b cb 2f 40 f9 50 7a 3f 05 f9 d6 3f
       1.4289407 2.746802 0.97779804 1.6794745
000200 ea ba d6 3f af 13 e0 3f 13 8b d6 3f d0 fe d8 3f
       1.6775792 1.7506007 1.6761192 1.6952763
000210 30 ec 9d 3f 1a 4f 96 3f f8 bd aa 3f 01 d0 b7 3f
       1.2337704 1.174289 1.3339224 1.4360353
000220 99 24 d6 3f 3e 1a f2 3f a9 f8 bf 3f 9e cc 22 40
       1.6729919 1.8914258 1.499776 2.5437388
000230 b1 83 de 3f 60 90 fe 3f 2b 02 f5 3f d9 68 a1 3f
       1.7383939 1.988781 1.9141287 1.2610122
000240 e2 e0 c8 3f 5e f7 89 3f d3 60 11 40 75 0d e4 3f
       1.5693629 1.0778615 2.2715347 1.7816607
000250 1e 3e 11 40 ab fa 6a 3f 22 1a 08 40 c6 9a eb 3f
       2.2694163 0.9178874 2.126595 1.8406608
000260 32 14 d6 3f cf 2e 0f 40 d4 b1 8f 3f 83 f5 1b 40
       1.6724913 2.237232 1.1226144 2.4368598
000270 b9 46 af 3f d9 c6 bd 3f cd 36 bc 3f a8 74 b2 3f
       1.3693458 1.4826308 1.4704224 1.3941851
000280 27 95 b2 3f 5d 38 b5 3f cb 24 f1 3f 3e 1a f0 3f
       1.3951768 1.4157826 1.8839353 1.8758008
000290 f8 3d f8 3f 62 d4 d9 3f ac 7f e3 3f f5 49 0f 40
       1.9393911 1.7017939 1.7773337 2.238889
0002a0 64 be e4 3f c3 07 7d 3f ca ea 0d 40 04 41 bc 3f
       1.7870603 0.9883997 2.2174554 1.4707341
0002b0 a0 de 8e 3f ab 7c cd 3f af 8e 9e 3f 65 f7 ac 3f
       1.116169 1.6053671 1.2387294 1.3512999
0002c0 22 07 cf 3f 1c 21 e1 3f 72 73 39 40 36 54 d9 3f
       1.6174052 1.7588229 2.8976712 1.6978824
0002d0 c8 dc e2 3f 14 c8 98 3f a5 7e 35 3f 96 48 e3 3f
       1.7723627 1.1936059 0.7089637 1.7756526
0002e0 73 e5 a5 3f af 37 df 3f 18 24 41 3f 99 26 01 40
       1.2960647 1.7438868 0.754457 2.0179808
0002f0 18 eb b5 3f b8 9d b2 3f c5 f5 9a 3f ef 06 e2 3f
       1.421237 1.3954382 1.2106253 1.7658366
000300 6e 61 d9 3f f0 63 b3 3f 64 f8 d5 3f a0 c0 44 3f
       1.6982858 1.4014874 1.6716428 0.7685642
000310 d5 88 ed 3f ac 1e 81 3f 68 cd 87 3f 67 3c de 3f
       1.8557383 1.0087485 1.060956 1.7362183
000320 b1 9c d0 3f 39 31 25 3f 02 59 bc 3f d0 49 8f 3f
       1.6297818 0.6452823 1.4714663 1.1194401
000330 59 40 92 3f be df a4 3f ff 55 19 40 75 1a 0e 40
       1.1425887 1.2880781 2.3958738 2.2203648
000340 64 68 bc 3f 54 c4 c7 3f 17 8a a2 3f 4c c1 b2 3f
       1.4719357 1.560679 1.2698392 1.396524
000350 51 b3 d7 3f 89 14 9f 3f 4e 82 b1 3f f5 e1 19 40
       1.6851598 1.2428142 1.3867891 2.4044163
000360 66 db fa 3f f6 1f e8 3f 3d f0 b4 3f f2 a9 72 3f
       1.9598205 1.8134754 1.4135815 0.94790566
000370 ec ae 73 3f 9a fd 02 40 6c 52 e2 3f 4e 04 08 40
       0.95188785 2.0467286 1.7681403 2.1252627
000380 86 fc 05 40 e6 f8 c1 3f a2 83 06 40 df 99 98 3f
       2.0935378 1.5154083 2.1017842 1.1921958
000390 d1 ff cf 3f 4f 9c a1 3f 5b 04 e4 3f 3c 38 03 40
       1.6249944 1.2625827 1.7813829 2.0503073
0003a0 06 bd 1f 40 44 54 04 40 73 29 ae 3f 4f 42 94 3f
       2.495912 2.0676432 1.3606399 1.1582736
0003b0 eb 72 f8 3f 40 3d c9 3f ee 62 1c 40 46 d0 9f 3f
       1.941007 1.5721817 2.4435382 1.2485435
0003c0 f2 86 f4 3f 4b 0b a7 3f a9 d6 d7 3f 28 77 06 40
       1.9103682 1.3050321 1.6862384 2.1010227
0003d0 8e 3e f3 3f c8 ca a5 3f ba 6f b2 3f 68 3a 22 40
       1.9003465 1.2952509 1.3940346 2.5348148
0003e0 ef d5 1c 40 3d 6f e9 3f c8 76 62 3f c6 f6 ec 3f
       2.4505575 1.8237072 0.88462496 1.8512809
0003f0 b8 be b6 3f 21 63 93 3f 9c 94 df 3f ed 70 88 3f
       1.4276953 1.1514627 1.7467227 1.0659462
