MLP_init_params.pt (torch, 49217 bytes, 2 tensors)

layer0.weight f4 [1000, 10]
0.06449122 0.15448378 -0.11159032 -0.0031286045 -0.12293639 0.017783888 0.15688099 -0.1748841
0.12691848 0.025856571 -0.06804745 0.15162195 0.23606645 0.12608407 -0.0022865601 -0.15668508
-0.19858538 -0.2403264 -0.13232435 0.22556855 -0.067619085 -0.25446934 0.15087892 -0.25547653
-0.30235815 -0.082951486 0.25397837 -0.256029 0.2458389 -0.2485437 -0.02397126 -0.112933666
-0.096929945 0.00571825 0.1629624 0.14721729 -0.12302252 -0.05411524 0.037780195 0.26171294
0.08450583 -0.17261747 -0.22456896 0.283152 0.23818108 0.19163783 0.0247473 6.60341e-05
0.30221093 -0.17135756 0.302543 -0.22638476 0.30535573 -0.3138072 0.2443919 -0.034467608
0.090589374 0.049786866 -0.2887343 0.19100124 0.10535988 -0.019342514 -0.1621615 -0.19259329
0.20556793 0.057723287 0.009689773 0.19473451 -0.1115408 0.1377215 0.013327206 0.031353727
-0.062443487 0.25127357 -0.02018518 0.24848105 -0.06977489 0.1687796 0.28031015 0.13659094
-0.042720925 -0.2626182 0.110921174 -0.09763363 -0.22504526 -0.12239032 0.01689732 0.010959288
-0.09547672 0.107094646 -0.092748955 -0.30880666 0.25230497 0.16275899 0.07913893 -0.2189282
-0.20840637 0.2123142 0.23757224 -0.03034334 -0.1567377 0.1714825 0.26816905 0.003839473
-0.28160766 0.14356737 0.15024696 0.1004166 0.30819422 -0.28720307 -0.1043225 -0.2871073
-0.06798661 0.30906025 0.05445703 -0.2322331 0.27263132 0.11483134 -0.040120408 0.19547656
0.014391315 -0.15717247 0.1466369 -0.06370943 -0.025102817 -0.04761992 0.087374896 -0.07751159
-0.13713539 0.008038567 -0.20116316 0.20543 -0.22092101 -0.27300254 -0.044728067 0.08964998
-0.21203744 0.21810721 0.07091001 -0.20625792 0.12188559 0.1517856 0.060134057 0.0024583428
0.16462205 0.020833215 0.3054844 -0.24292682 0.06928119 -0.19545327 -0.07997204 -0.13902901
-0.30440986 0.0700398 -0.123001546 -0.30196542 0.07147018 0.16349986 0.085808896 -0.25054735
-0.0076493514 0.07638143 0.1541229 -0.09886832 0.12911606 -0.30259117 -0.105085455 -0.12608492
-0.21734248 0.06534337 -0.07308608 0.11444314 0.28260532 -0.23347606 0.082036756 -0.046271864
0.18450779 -0.31221834 -0.0068092546 -0.12658496 -0.12233381 -0.07434713 0.17464273 0.058721412
0.26350436 0.24510804 0.17891283 0.013698195 0.05382845 0.30681342 -0.13354395 0.109587975
-0.28777793 0.20481895 0.17740071 0.30068758 0.03349661 0.08921632 0.06567682 0.12516786
-0.13770574 0.19579364 -0.049357936 -0.06204172 0.25282288 -0.31347203 0.055030506 -0.11112791
-0.16704082 0.06038271 0.008367172 -0.07063256 -0.22924422 0.23143879 -0.048521042 -0.12881717
-0.1451585 0.27075544 0.053548153 -0.020759337 -0.024591133 -0.021025794 0.107958645 -0.06640592
0.18890698 0.1616432 0.24900232 -0.21389695 -0.10282558 -0.1647348 0.25355536 0.2812829
-0.21145436 -0.17296885 0.31147477 -0.059516046 0.24172682 -0.21115664 -0.2515426 0.24142106
0.18425952 -0.047664985 0.20733987 0.04029341 -0.07824026 -0.13600841 0.08381075 0.31602374
-0.072515674 0.31027958 -0.20876756 -0.028662296 -0.2744939 -0.2668334 0.22348602 -0.21872777
00000000: f913 843d ff30 1e3e 7789 e4bd 4609 4dbb
00000010: 13c6 fbbd 84af 913c 69a5 203e d114 33be
00000020: ebf6 013e 29d1 d33c 765c 8bbd c942 1b3e
00000030: 67bb 713e 2f1c 013e 1dda 15bb 0e72 20be
00000040: f759 4bbe 2018 76be 0980 07be 71fb 663e
00000050: e07b 8abd ce49 82be 0180 1a3e d2cd 82be
00000060: b0ce 9abe 78e2 a9bd 7409 823e 3c16 83be
00000070: 31bd 7b3e 3d82 7ebe 605f c4bc c449 e7bd
00000080: 3583 c6bd 2860 bb3b 9edf 263e 21c0 163e
00000090: 3bf3 fbbd f1a7 5dbd 68bf 1a3d 3dff 853e
000000a0: 6511 ad3d a2c2 30be 68f5 65be 4df9 903e
000000b0: bee5 733e b53c 443e daba ca3c ca7b 8a38
000000c0: 64bb 9a3e 5b78 2fbe ebe6 9a3e 68d1 67be
000000d0: 9657 9c3e 56ab a0be df41 7a3e e82d 0dbd
000000e0: ec86 b93d 50ed 4b3d fbd4 93be d495 433e
000000f0: ecc6 d73d 3174 9ebc aa0d 26be 2d37 45be
00000100: 6680 523e 416f 6c3d dbc1 1e3c 7c68 473e
00000110: 816f e4bd dd06 0d3e 5a5a 5a3c c46c 003d
00000120: bec4 7fbd eea6 803e 645b a5bc d171 7e3e
00000130: 23e6 8ebd 8fd4 2c3e d084 8f3e 7fde 0b3e
00000140: 23fc 2ebd e575 86be a42a e33d 24f4 c7bd
00000150: 4472 66be c7a7 fabd 406c 8a3c 968e 333c
00000160: 4c89 c3bd 7054 db3d 2af3 bdbd e81b 9ebe
00000170: 1e2e 813e 4baa 263e 9713 a23d b72e 60be
00000180: 7b68 55be e568 593e 2346 733e 9992 f8bc
00000190: d97f 20be 1c99 2f3e 744d 893e ab9f 7b3b
000001a0: e12e 90be 5303 133e 57da 193e 38a7 cd3d
000001b0: a2cb 9d3e 480c 93be 09a7 d5bd baff 92be
000001c0: 903c 8bbd 253d 9e3e 560e 5f3d 84ce 6dbe
000001d0: 5596 8b3e b22c eb3d 4c55 24bd 022b 483e
000001e0: 8dc9 6b3c d2f1 20be fc27 163e 177a 82bd
000001f0: 6ca4 cdbc 1b0d 43bd 9cf1 b23d 66be 9ebd
00000200: 386d 0cbe 32b4 033c b7fd 4dbe 3e5c 523e
00000210: 1e39 62be fdc6 8bbe c734 37bd 699a b73d
00000220: 5820 59be 7f57 5f3e 4439 913d 4735 53be
00000230: 279f f93d af6d 1b3e 214f 763d 261c 213b
00000240: af92 283e 6baa aa3c 7468 9c3e cfc1 78be
00000250: 4ce3 8d3d e724 48be 62c8 a3bd 9f5d 0ebe
00000260: 9cdb 9bbe 0771 8f3d 3ce8 fbbd 369b 9abe
00000270: f55e 923d 826c 273e 93bc af3d be47 80be
00000280: 69a7 fabb de6d 9c3d 65d2 1d3e 797b cabd
00000290: 0037 043e 3bed 9abe 0b37 d7bd 681c 01be
000002a0: 078f 5ebe bfd2 853d 28ae 95bd 2a61 ea3d
000002b0: a5b1 903e 5914 6fbe e302 a83d 9187 3dbd
000002c0: 9cef 3c3e 15db 9fbe 2b20 dfbb 7d9f 01be
000002d0: 268a fabd 4f43 98bd 8bd5 323e dd85 703d
000002e0: 0bea 863e 9afd 7a3e ed34 373e 656e 603c
000002f0: 397b 5c3d a616 9d3e bfbf 08be a96f e03d
00000300: a157 93be 0fbc 513e 88a8 353e b9f3 993e
00000310: be33 093d 0cb7 b63d 9281 863d 012c 003e
00000320: bc02 0dbe 217e 483e 8c2b 4abd 751f 7ebd
00000330: 0072 813e 687f a0be ab67 613d 0897 e3bd
00000340: c00c 2bbe dc53 773d 7716 093c cea7 90bd
00000350: ffbe 6abe 4afe 6c3e 00be 46bd a6e8 03be
00000360: 6ea4 14be 75a0 8a3e 4f55 5b3d 7c0f aabc
00000370: 5873 c9bc 493e acbc 6c19 dd3d d4ff 87bd
00000380: d570 413e cc85 253e 77fa 7e3e cd07 5bbe
00000390: 3896 d2bd 3db0 28be 02d2 813e 5004 903e
000003a0: 7e87 58be bf1e 31be 9f79 9f3e 19c7 73bd
000003b0: 3c87 773e 7239 58be 31ca 80be 1537 773e
000003c0: 87ae 3c3e 5c3c 43bd e750 543e b40a 253d
000003d0: 6e3c a0bd ca45 0bbe f8a4 ab3d ddcd a13e
000003e0: 1983 94bd f7dc 9e3e 2ac7 55be 31cd eabc
000003f0: 778a 8cbe 639e 88be 85d9 643e 2cfa 5fbe

layer1.weight f4 [2, 1000]
0.0046106423 0.0023597009 0.01584401 0.0029273594 -0.005326375 0.02019795 -0.02488154 -0.002004946
-0.015902333 -0.019130167 0.02841723 -0.012297703 -0.014638372 0.017063718 -0.00476968 -0.027596954
-0.025148457 0.004360336 -0.018697526 -0.014162429 0.009270269 0.021433283 0.013756545 0.02915277
-0.0014830224 -0.031006755 0.031039588 0.020573443 0.017714962 -0.022453766 -0.022338996 0.022123978
-0.012005953 -0.006476031 -0.006084048 -0.025439532 -0.0018770437 0.029181506 0.013639315 -0.012474195
-0.026420468 -0.0005268526 0.0062558167 0.01913348 -0.03089067 -0.025104204 0.028986303 -0.008341821
-0.00790653 -0.018161247 0.031180417 -0.030650202 -0.01720756 0.010986483 0.0040281555 -0.002361955
-0.0032261033 0.006505568 0.017560309 -0.0039688926 0.021302477 -0.019196598 0.0045787343 -0.00069576595
-0.0101574985 0.0151580265 -0.01824294 -0.0018222542 -0.015541531 0.027520226 0.015063367 0.025270198
-0.012113685 0.025192233 0.021003488 0.0062264293 0.0070689092 -0.025743391 -0.030589769 0.019970398
-0.0070804507 -0.013507559 0.0026612415 -0.030591425 0.022469157 -0.025963586 -0.013920966 -0.0046021845
-0.022430977 -0.018961629 0.013994906 -0.017571732 -0.030244682 -0.015811194 -0.002075811 0.02740833
0.009238647 -0.009974568 -0.01485151 -0.019505136 0.012757709 -0.023433406 -0.014299478 0.001469352
-0.020842647 -0.025996786 0.009788378 0.018703211 0.006707 0.02561643 -0.014982626 -0.00223036
0.02164107 0.030667415 0.031207943 -0.0014613096 -0.016286295 0.021851767 -0.01663957 0.008642514
0.026720276 -0.0059740557 0.014423211 -0.012138526 0.010241449 -0.015612319 0.013928085 -0.023056837
0.008514534 0.0045833536 -0.000840386 0.0017230371 -0.019405093 0.008240654 -0.016273957 -0.027743539
-0.009519743 -0.014762383 0.0005859768 0.017868599 -0.006301717 -0.018957956 -0.017641643 0.0027441739
-0.017555218 -0.0002433311 -0.014677115 -0.030265199 -0.022964481 -0.016873982 0.01181414 0.024137806
0.0032635324 0.0023416677 0.022939984 -0.010920997 0.031224346 -0.01122407 0.012713755 -0.0025291245
0.030476632 0.000661248 -0.0045112246 -0.020855406 0.009773415 -0.021338597 0.0014937052 -0.025969615
-0.0018127077 0.002106154 -0.020485131 -0.00023855308 0.0141968895 -0.020242732 0.024064308 0.0051351064
0.02428706 -0.0074535343 0.022173077 0.018161453 0.026076645 0.017811121 0.019635808 0.021750465
-0.02615211 0.03081749 0.02151525 -0.012990427 0.025428968 0.0009330023 0.030313145 -0.020532183
0.026351405 0.008161714 -0.014942107 -0.024427153 0.002552653 0.00018244785 0.014467069 -0.027601711
-0.023943081 -0.011187676 0.02345699 -0.0104405945 0.030292416 0.023658575 0.019545667 -0.014872269
-0.0075202673 -0.00013899199 -0.010602152 -0.025842618 0.030910188 0.02823034 -0.016804134 -0.0028390116
-0.014900023 -0.011526675 -0.023063699 0.030406082 -0.012164285 -0.008989369 -0.007541718 -0.010166209
-0.0064550973 -0.013916088 -0.022644237 0.0009361854 0.023557799 -0.024327757 -0.023150884 0.017740343
0.0035776682 -0.027373021 0.02092787 -0.005648619 -0.028576124 -0.026175706 0.007520676 0.022289462
0.015096243 0.021143733 0.031238383 -0.009488609 0.015724061 -0.030382639 0.02161905 -0.02251435
-0.01625917 0.02179691 0.0072157695 0.027779067 -0.01622998 -0.0027642287 0.0156573 0.020426488
00000000: df14 973b 36a5 1a3b 4ccb 813c f1d8 3f3b
00000010: df88 aebb 2c76 a53c 5fd4 cbbc 6a65 03bb
00000020: 9c45 82bc deb6 9cbc 40cb e83c 4e7c 49bc
00000030: c8d5 6fbc 36c9 8b3c fa4a 9cbb 0213 e2bc
00000040: 2304 cebc 26e1 8e3b 8e2b 99bc 8809 68bc
00000050: 54e2 173c da94 af3c 2263 613c cad1 ee3c
00000060: f961 c2ba e101 febc bc46 fe3c a389 a83c
00000070: f81e 913c f6f0 b7bc 4500 b7bc 583d b53c
00000080: 9eb4 44bc e334 d4bb b25c c7bb 9166 d0bc
00000090: 2307 f6ba 0e0e ef3c 6f77 5f3c 9160 4cbc
000000a0: bd6f d8bc 7b1c 0aba 98fd cc3b d1bd 9c3c
000000b0: 6e0e fdbc 55a7 cdbc af74 ed3c 22ac 08bc
000000c0: 648a 01bc e5c6 94bc 136e ff3c 2216 fbbc
000000d0: def6 8cbc a600 343c 9efe 833b 07cb 1abb
000000e0: 086d 53bb a92c d53b a3da 8f3c 7c0d 82bb
000000f0: 8882 ae3c 2f42 9dbc 3509 963b 1064 36ba
00000100: a36b 26bc 5f59 783c 3872 95bc b4d8 eeba
00000110: e8a1 7ebc 1972 e13c 57cc 763c 7203 cf3c
00000120: 7a78 46bc f15f ce3c 820f ac3c 1307 cc3b
00000130: 4fa2 e73b cee3 d2bc 6597 fabc f698 a33c
00000140: 2003 e8bb cf4e 5dbc 3968 2e3b de9a fabc
00000150: 3d11 b83c 96b1 d4bc c314 64bc eccd 96bb
00000160: 2bc1 b7bc 6b55 9bbc e44a 653c 98f2 8fbc
00000170: b2c3 f7bc 7a86 81bc 540a 08bb 6f87 e03c
00000180: b25d 173c 5f6c 23bc bf53 73bc 3cc9 9fbc
00000190: b605 513c 6af7 bfbc 5c48 6abc 4697 c03a
000001a0: 33be aabc 36f7 d4bc 6f5f 203c 7a37 993c
000001b0: 65c6 db3b 8cd9 d13c b079 75bc 3b2b 12bb
000001c0: 9d48 b13c 3b3a fb3c cda7 ff3c 6a89 bfba
000001d0: d66a 85bc 7a02 b33c b54f 88bc 5599 0d3c
000001e0: 7be4 da3c 03c2 c3bb 554f 6c3c abe0 46bc
000001f0: c0cb 273c d0ca 7fbc 9f32 643c b1e1 bcbc
00000200: 8b80 0b3c f52f 963b 5a4d 5cba 88d7 e13a
00000210: 6ef7 9ebc cf03 073c f650 85bc 6b46 e3bc
00000220: b2f8 1bbc ecdd 71bc 3d9c 193a 2b61 923c
00000230: a27e cebb b74d 9bbc 3585 90bc 99d7 333b
00000240: f6cf 8fbc b226 7fb9 4878 70bc b9ee f7bc
00000250: 0220 bcbc 4e3b 8abc 1890 413c a6bc c53c
00000260: fde0 553b aa76 193b a2ec bb3c fbed 32bc
00000270: 33ca ff3c 29e5 37bc 5a4d 503c abbf 25bb
00000280: 21aa f93c 9a57 2d3a e5d2 93bb f5d8 aabc
00000290: ac20 203c 48ce aebc 6ec8 c33a 3bbe d4bc
000002a0: 6198 edba 6707 0a3b 6fd0 a7bc 1b24 7ab9
000002b0: 129a 683c 16d4 a5bc 8322 c53c 6544 a83b
000002c0: a8f5 c63c c73c f4bb 50a4 b53c 54c7 943c
000002d0: b09e d53c a1e8 913c 46db a03c 082e b23c
000002e0: f33c d6bc f674 fc3c c040 b03c cdd5 54bc
000002f0: 6950 d03c b994 743a 4653 f83c 1c33 a8bc
00000300: e7de d73c b6b8 053c bdcf 74bc 741b c8bc
00000310: 694a 273b 794f 3f39 4907 6d3c fc1c e2bc
00000320: 4824 c4bc 844c 37bc e028 c03c 070f 2bbc
00000330: cd27 f83c a1cf c13c 3c1e a03c d1aa 73bc
00000340: 936c f6bb 61be 11b9 a6b4 2dbc e6b3 d3bc
00000350: 5d37 fd3c 5043 e73c d3a8 89bc b60e 3abb
00000360: 3a1f 74bc 61da 3cbc 15f0 bcbc 2d16 f93c
00000370: b64c 47bc 2548 13bc 8420 f7bb 2c90 26bc
00000380: 4885 d3bb 4e00 64bc 6880 b9bc 576a 753a
00000390: 49fc c03c 014b c7bc eca6 bdbc 3254 913c
000003a0: 5077 6a3b 633d e0bc ed70 ab3c 0d18 b9bb
000003b0: 7a18 eabc 6f6e d6bc 0170 f63b 6498 b63c
000003c0: 3b56 773c 9f35 ad3c a3e7 ff3c 1c76 1bbc
000003d0: bfcf 803c 03e5 f8bc 6f1a b13c 0470 b8bc
000003e0: f331 85bc 6f8f b23c 4372 ec3b ed90 e33c
000003f0: bcf4 84bc 1028 35bb bd43 803c 7355 a73c
