MLP_init_params.pt (torch, 49217 bytes, 2 tensors)

layer0.weight f4 [1000, 10]
-0.25052384 0.21470615 -0.040892866 -0.15554559 0.16228718 0.18419904 -0.18045731 0.004020609
-0.26114136 -0.3007638 0.1494406 -0.26142794 -0.13570526 -0.12774451 -0.06259139 0.15123329
-0.12055286 0.18181652 0.16448987 0.0830098 -0.22747451 0.20183681 -0.049825255 0.29038912
-0.030554177 -0.2675528 0.19525895 -0.03482528 0.27033255 0.25020847 -0.009378269 0.08570795
0.19123659 -0.30711195 -0.2749609 0.057303753 -0.09813473 0.1352174 0.2782056 0.044557087
-0.18384744 -0.14812893 -0.054937758 -0.31562385 -0.11422201 0.09266702 -0.29461393 0.08738281
0.09171951 0.22443824 -0.2008583 0.24076185 0.102378316 0.09753256 -0.2826169 0.07637128
-0.07225982 -0.072031096 -0.13862196 -0.038979426 -0.30633175 -0.30986315 -0.25949097 0.021300515
0.040239528 -0.005807976 -0.000901633 -0.30284786 0.021992449 -0.26233205 0.17036906 -0.25589237
0.012147367 -0.22193299 0.095463954 0.11542503 -0.04878969 0.06155611 0.30845517 0.1369738
0.110831104 -0.1007019 -0.0706587 0.24836881 0.068955176 0.2874977 -0.046376426 -0.28240898
0.30630463 -0.1956486 0.091765784 0.06918582 -0.18972202 -0.27951095 -0.010535463 0.2720025
-0.093483634 -0.19692568 0.15665819 -0.2210384 0.049204618 -0.16462547 0.2626306 0.24949352
0.093221635 -0.04509888 0.2097045 -0.068127364 0.20882289 0.108824156 -0.26493284 -0.09423794
0.048154466 -0.15067008 -0.25398028 0.16133843 0.30662185 0.2278009 0.067012556 -0.25146288
0.008714101 0.01732926 0.2721803 0.061875172 0.2114291 0.067762874 0.21626191 -0.15400617
-0.26338562 0.13051018 -0.01683451 -0.21336876 0.24717487 -0.09134319 0.0031244636 0.10206138
-0.08898208 0.20911336 -0.19806677 0.13992472 -0.080627985 0.3066443 -0.27788684 0.13717213
-0.1727878 0.2952438 -0.13667047 0.17159367 -0.11911923 -0.018094895 -0.16686727 -0.039615422
0.21150811 0.09556104 -0.03314992 -0.19092032 0.04396254 -0.051634684 -0.0071893698 -0.1736111
0.23453715 0.2518232 -0.2946412 -0.06227147 -0.27180117 -0.2925781 -0.14271061 0.15320602
0.13327254 0.16050579 -0.15545295 -0.15739194 -0.18523419 0.13215917 0.2104217 0.08999017
-0.16148308 0.29516974 -0.27948016 0.10260117 0.092995614 -0.0884424 0.121244244 0.18324025
0.03705865 0.2033658 -0.17704722 0.11016382 0.07581897 -0.16577545 -0.03209442 0.1906447
-0.31542963 -0.2814039 -0.26330757 -0.23610468 0.3155357 -0.10607747 -0.04848537 0.036086578
0.11558695 0.07527995 -0.1884481 -0.25173327 0.22822724 0.13607077 0.22872949 -0.15474093
0.1753894 -0.2434831 -0.20748581 0.13138908 0.013302404 0.17987725 0.18097034 0.08694395
0.01866839 -0.23685043 -0.22524165 0.19747336 -0.029465744 -0.098355845 -0.092987195 -0.24102364
0.11692518 -0.08503159 -0.203443 0.15664344 0.1305865 0.19844967 -0.2634183 -0.010969959
0.24241303 -0.116818026 0.20952995 0.0006754478 0.24570447 0.088656336 0.03245122 0.28630546
0.07031266 -0.28750536 -0.20384257 -0.08575337 0.3140375 0.12674965 -0.109556235 0.1961319
-0.25665277 0.27379775 -0.039238892 0.22521219 0.0074313073 0.24706075 0.2523102 0.21650165
00000000: a944 80be eedb 5b3e 477f 27bd 5847 1fbe
00000010: 9c2e 263e ac9e 3c3e cdc9 38be 50bf 833b
00000020: 52b4 85be b6fd 99be f506 193e e2d9 85be
00000030: 52f6 0abe 75cf 02be ea2f 80bd e6dc 1a3e
00000040: 6be4 f6bd 1c2e 3a3e 0870 283e 0b01 aa3d
00000050: 14ef 68be 4fae 4e3e 9115 4cbd e2ad 943e
00000060: c14c fabc aefc 88be f6f1 473e f4a4 0ebd
00000070: 0769 8a3e 531b 803e 50a7 19bc a687 af3d
00000080: 86d3 433e c73d 9dbe adc7 8cbe 57b7 6a3d
00000090: dcfa c8bd 6e76 0a3e f770 8e3e 7e81 363d
000000a0: 8142 3cbe 1caf 17be 6a06 61bd 7399 a1be
000000b0: 3bed e9bd 35c8 bd3d a3d7 96be c2f5 b23d
000000c0: 70d7 bb3d 23d3 653e ccad 4dbe 468a 763e
000000d0: b9ab d13d 27bf c73d 2ab3 90be 8c68 9c3d
000000e0: f5fc 93bd 0a85 93bd eaf2 0dbe e4a8 1fbd
000000f0: 84d7 9cbe 62a6 9ebe 00dc 84be 6b7e ae3c
00000100: 34d2 243d d550 bebb 915b 6cba e00e 9bbe
00000110: 8229 b43c 6350 86be 3a75 2e3e 5304 83be
00000120: c005 473c 6742 63be 9b82 c33d f563 ec3d
00000130: b3d7 47bd 4222 7c3d d6ed 9d3e dc42 0c3e
00000140: 6bfb e23d cc3c cebd 82b5 90bd 6554 7e3e
00000150: 5f38 8d3d e632 933e 35f5 3dbd e997 90be
00000160: f6d3 9c3e 1b58 48be b3ef bb3d 4cb1 8d3d
00000170: 7d46 42be 0f1c 8fbe ef9c 2cbc e943 8b3e
00000180: 5974 bfbd e3a6 49be 016b 203e e457 62be
00000190: c88a 493d 9493 28be 8577 863e 3b7b 7f3e
000001a0: fcea be3d 9ab9 38bd c7bc 563e 5c86 8bbd
000001b0: abd5 553e 33df de3d 47a5 87be d2ff c0bd
000001c0: 9e3d 453d 4249 1abe b409 82be e735 253e
000001d0: 8afd 9c3e a444 693e e13d 893d bebf 80be
000001e0: 97c5 0e3c 18f6 8d3c 375b 8b3e d270 7d3d
000001f0: df80 583e 43c7 8a3d c373 5d3e cbb3 1dbe
00000200: 7bda 86be 76a4 053e 87e8 89bc 577d 5abe
00000210: 691b 7d3e 2312 bbbd cdc3 4c3b 8f05 d13d
00000220: 3d3c b6bd d021 563e 04d2 4abe 6d48 0f3e
00000230: 4920 a5bd 7b00 9d3e 2f47 8ebe da76 0c3e
00000240: 49ef 30be 322a 973e 58f3 0bbe 40b6 2f3e
00000250: c8f4 f3bd bf3b 94bc 41df 2abe c843 22bd
00000260: 9595 583e 82b5 c33d 36c8 07bd 9e80 43be
00000270: 1012 343d e47e 53bd ce94 ebbb 1cc7 31be
00000280: 822a 703e f8ee 803e 36db 96be 5e10 7fbd
00000290: 8629 8bbe cccc 95be bb22 12be 0ae2 1c3e
000002a0: 9978 083e a15b 243e 0f2f 1fbe 5a2b 21be
000002b0: 08ae 3dbe bc54 073e c978 573e c44c b83d
000002c0: d25b 25be 7d20 973e 0618 8fbe 9020 d23d
000002d0: 7c74 be3d 4a21 b5bd e74e f83d 55a3 3b3e
000002e0: d0ca 173d 203f 503e de4b 35be 929d e13d
000002f0: fa46 9b3d 0ac1 29be 7075 03bd 5d38 433e
00000300: fe7f a1be 2c14 90be 40d0 86be 6dc5 71be
00000310: e58d a13e 253f d9bd 9898 46bd 85cf 133d
00000320: dab8 ec3d 602c 9a3d 8af8 40be 2fe3 80be
00000330: 67b4 693e 2356 0b3e 1038 6a3e 6874 1ebe
00000340: 4799 333e a253 79be 2977 54be dc8a 063e
00000350: 54f2 593c be31 383e 4a50 393e ab0f b23d
00000360: 74ee 983c eb88 72be bfa5 66be 7536 4a3e
00000370: 2562 f1bc ca6e c9bd 1270 bebd e7ce 76be
00000380: 7876 ef3d 0b25 aebd 5d53 50be 2367 203e
00000390: 78b8 053e 6436 4b3e c3de 86be 58bb 33bc
000003a0: 1f3b 783e 4a3e efbd 058f 563e 8910 313a
000003b0: f499 7b3e 7491 b53d 92eb 043d a196 923e
000003c0: 1500 903d e733 93be 1bbc 50be 769f afbd
000003d0: 86c9 a03e a9ca 013e 055f e0bd cdd6 483e
000003e0: fe67 83be 382f 8c3e f6b8 20bd 069e 663e
000003f0: 5382 f33b 7efd 7c3e cd2e 813e 9cb2 5d3e

layer1.weight f4 [2, 1000]
0.025487652 -0.02509577 -0.012667415 -0.0132441055 -0.029548334 -0.0214126 0.029984867 0.00313794
-0.028680576 -0.031615272 -0.022566298 -0.02761763 0.012931676 0.023289576 -0.029128762 -0.02654265
-0.0049278443 0.0012082455 0.017010441 -0.008043789 0.0148078855 -0.0041587455 0.028851409 -0.030522143
-0.022775492 0.022606093 0.004875602 -0.016202763 -0.014882732 0.017470427 0.02869257 0.0007111739
0.021093778 0.01463884 0.028822878 -0.0179653 0.024570873 0.004562161 -0.02416608 0.001686548
-0.013598336 -0.014567575 0.016894612 -0.00632378 -0.02562715 0.019599315 -0.022763481 -1.122257e-05
-0.0062924805 -0.025576832 0.017943088 0.0069551594 0.02444995 0.019616686 0.009247443 -0.016440442
0.02376546 -0.004765486 0.023216018 -0.002927883 -0.018003533 -0.004554548 -0.01054837 -0.018942509
-0.020812687 0.020716514 0.013769999 -0.027349565 -0.024386687 0.029979268 0.0139985485 0.0025486874
0.0069644153 0.0055901143 -0.005895275 0.011103834 -0.03156737 -0.0053319586 -0.03071832 -0.00031678323
-0.020380046 -0.028575161 0.004981907 0.024114024 0.013734792 -0.010497244 -0.009442547 0.0032251247
-0.030389229 -0.020551745 0.022272019 -0.00016035649 -0.013879701 -0.0109476475 -0.02779962 -0.029653441
0.008141768 0.024895525 -0.025663117 0.018629745 -0.01190019 0.008368046 0.021708826 0.00897385
0.03039346 -0.024193993 0.031160304 -0.01083488 -0.013746722 -0.018890126 0.020870384 0.0063568465
-0.024584161 -0.0011575968 -0.013316815 0.017589418 -0.024485938 -0.021913948 0.029551737 0.022553708
0.0058874367 -0.0053487597 -0.026597615 -0.007694564 -0.018319974 -0.031273626 0.029270235 -0.016798895
0.025047194 0.018724531 -0.02026094 -0.028939916 -0.025756903 0.018743532 0.0052878004 0.016292132
0.024180423 -0.022200966 -0.022748038 -0.029654916 -0.02617028 -0.01752287 0.01977156 -0.01021316
0.016196568 -0.023552136 0.014461833 0.0011200518 0.010730353 -0.017142296 -0.020888694 -0.027722402
0.0077623976 0.015371448 0.014230416 0.023203334 0.013305177 0.014724999 4.6866262e-05 0.02802502
-0.015091977 0.023595003 -0.030608442 -0.021729374 -0.013652138 -0.026038503 -0.0054473267 0.021243436
0.02269852 -0.026039742 -0.013582052 0.00676009 0.025368828 0.025406543 -0.02076779 0.03104564
-0.004397005 0.00776353 0.028432557 -0.008803 0.015572809 0.008352342 0.02168263 -0.020520233
0.008267481 0.01481147 0.025194965 -0.002908227 -0.0258123 0.008228931 -0.02369324 -0.025240669
0.012632545 0.0049727503 -0.021909224 0.011113811 0.015308066 -0.0027134204 0.003369486 -0.024831846
-0.016870722 -0.024201812 0.01921216 -0.022598278 -0.01521787 0.0011002353 0.024615075 0.013567245
0.008456741 -0.025139892 -0.005052824 -0.0052782837 0.020021318 -0.014529475 -0.025886962 -0.005828332
0.005522154 0.0012440933 -0.028269194 -0.016508162 0.01880965 0.0015418539 -0.004849426 0.020142982
0.012552227 0.02498347 -0.011865779 0.002688516 0.026627317 0.010325816 0.023108406 0.024147026
0.005134972 -0.024203287 -0.016136913 0.012902383 0.0014824168 0.011195723 0.026675077 0.0025263557
-0.001547972 0.028649058 -0.024061346 0.012530895 -0.025970042 0.024202865 0.001527451 -0.026915312
-0.0016248671 -0.028099043 0.030387428 -0.013213282 -0.016214998 0.011038754 -0.02741529 -0.0053250035
00000000: 7bcb d03c a595 cdbc fd8a 4fbc cefd 58bc
00000010: 590f f2bc 7a69 afbc d3a2 f53c e6a5 4d3b
00000020: 87f3 eabc 047f 01bd f5dc b8bc 5e3e e2bc
00000030: 61df 533c c8c9 be3c 719f eebc f96f d9bc
00000040: c179 a1bb fe5d 9e3a 7b59 8b3c 19ca 03bc
00000050: c69c 723c 1646 88bb ca59 ec3c 9309 fabc
00000060: ab93 babc 6a30 b93c 84c3 9f3b a8bb 84bc
00000070: b4d6 73bc 241e 8f3c ae0c eb3c 136e 3a3a
00000080: dccc ac3c bfd7 6f3c f51d ec3c f72b 93bc
00000090: db48 c93c 2e7e 953b f1f7 c5bc 290f dd3a
000000a0: 8ecb 5ebc d7ac 6ebc 9266 8a3c b637 cfbb
000000b0: 07f0 d1bc be8e a03c 7b7a babc 9248 3cb7
000000c0: 2731 cebb 8186 d1bc 62fd 923c 1be8 e33b
000000d0: 434b c83c 2cb3 a03c 9682 173c 1bae 86bc
000000e0: c8af c23c cb27 9cbb 852f be3c bae1 3fbb
000000f0: 257c 93bc 513e 95bb 12d3 2cbc 522d 9bbc
00000100: 5e7f aabc aeb5 a93c 909b 613c 320c e0bc
00000110: 97c6 c7bc 1597 f53c 2b5a 653c e107 273b
00000120: c035 e43b 472d b73b 272d c1bb dbec 353c
00000130: c94c 01bd b6b7 aebb fca4 fbbc ed15 a6b9
00000140: 0ef4 a6bc 7516 eabc 443f a33b c68a c53c
00000150: e507 613c a2fc 2bbc eab4 1abc 9d5c 533b
00000160: d5f2 f8bc 225c a8bc cf73 b63c 5e25 28b9
00000170: af67 63bc c35d 33bc 07bc e3bc c6eb f2bc
00000180: 0d65 053c b3f1 cb3c 753b d2bc 689d 983c
00000190: 04f9 42bc 211a 093c b5d6 b13c 0e07 133c
000001a0: b5fb f83c 7b32 c6bc e543 ff3c c884 31bc
000001b0: ee39 61bc 77bf 9abc 5ef8 aa3c 184d d03b
000001c0: b964 c9bc 81ba 97ba c52e 5abc af17 903c
000001d0: bc96 c8bc e184 b3bc 7c16 f23c 8ec2 b83c
000001e0: 66eb c03b a644 afbb 3ee3 d9bc ae22 fcbb
000001f0: c513 96bc c618 00bd 22c8 ef3c d69d 89bc
00000200: c62f cd3c 3064 993c 45fa a5bc 6713 edbc
00000210: 2400 d3bc 098c 993c 4945 ad3b 1477 853c
00000220: 0616 c63c cdde b5bc 185a babc deee f2bc
00000230: 0e63 d6bc 1f8c 8fbc f7f7 a13c 1955 27bc
00000240: aaae 843c 69f0 c0bc 53f1 6c3c b4ce 923a
00000250: 5dce 2f3c 006e 8cbc c41e abbc 171a e3bc
00000260: b65b fe3b 87d8 7b3c b126 693c eb14 be3c
00000270: f5fd 593c 1f41 713c 4492 4438 ba94 e53c
00000280: 5744 77bc 4f4a c13c 8ebe fabc cd01 b2bc
00000290: 38ad 5fbc b34e d5bc 7d7f b2bb b706 ae3c
000002a0: 3ff2 b93c 4c51 d5bc 4187 5ebc bf83 dd3b
000002b0: 4ad2 cf3c 6221 d03c 3621 aabc 6d53 fe3c
000002c0: c014 90bb 3665 fe3b 65eb e83c 753a 10bc
000002d0: 1825 7f3c 43d8 083c c59f b13c 0c1a a8bc
000002e0: 5474 073c cfab 723c ac65 ce3c f497 3ebb
000002f0: 5174 d3bc a3d2 063c 5318 c2bc 85c5 cebc
00000300: bcf8 4e3c 74f2 a23b f97a b3bc b416 363c
00000310: afce 7a3c a4d3 31bb 98d2 5c3b 286c cbbc
00000320: 7834 8abc e142 c6bc d262 9d3c 0620 b9bc
00000330: 5f54 79bc c535 903a 8ea5 c93c 2649 5e3c
00000340: 258e 0a3c 2df2 cdbc 2992 a5bb 74f5 acbb
00000350: bf03 a43c 090d 6ebc e510 d4bc 98fb bebb
00000360: 2ff3 b43b d810 a33a cc94 e7bc 203c 87bc
00000370: b216 9a3c 0818 ca3a efe7 9ebb e502 a53c
00000380: dba7 4d3c 22aa cc3c af68 42bc d031 303b
00000390: 8821 da3c 9d2d 293c d74d bd3c fccf c53c
000003a0: 4443 a83b f945 c6bc 8f31 84bc 8464 533c
000003b0: a74d c23a 446e 373c b185 da3c 3791 253b
000003c0: 52e5 caba 6eb1 ea3c 4d1c c5bc 624e 4d3c
000003d0: 20bf d4bc 1645 c63c c034 c83a 807d dcbc
000003e0: 7ef9 d4ba f72f e6bc 0eef f83c 867c 58bc
000003f0: 51d5 84bc e4db 343c 0896 e0bc 5e7d aebb
