MLP_init_params.pt (torch, 49217 bytes, 2 tensors)

layer0.weight f4 [1000, 10]
000000 81 3c 66 3e 65 cc 22 3e ab 9f 30 3e 1b ac 82 3d
       0.22484018 0.15898283 0.17248408 0.06380483
000010 eb 66 c5 3c 01 5f 3a 3e b5 6d 00 3d 4d 18 87 3c
       0.024096927 0.18200304 0.031354625 0.01649108
000020 c8 d4 f3 3d ab 94 80 3d db b9 4e 3e 88 73 3a 3b
       0.11905819 0.06278356 0.20188086 0.002845021
000030 7d 34 07 3d 48 9c d5 bd 04 e8 ad bc be ac 8e 3c
       0.03300904 -0.10430199 -0.021228798 0.017416354
000040 f1 f9 dd bd c2 4d 01 be fd 72 f4 bc 2b dd e9 3b
       -0.10838688 -0.12627319 -0.029839987 0.007136961
000050 b4 d5 1a be 3f 4a ff 3d e6 37 c7 bc db f7 45 bc
       -0.15120584 0.12465333 -0.024318647 -0.012083019
000060 e0 f6 c5 bd 70 f5 01 3d 93 ae 0c 3e 92 75 a7 3d
       -0.09666228 0.031728208 0.1373847 0.08176722
000070 2a 0a 05 be 4d 2b be bd f5 09 3f be 56 fa ce bd
       -0.12992159 -0.09285603 -0.18656142 -0.101063415
000080 ff 8f ed bc 07 7f 24 bd 28 15 45 be 91 58 2b be
       -0.028999327 -0.040160205 -0.19246352 -0.16733004
000090 1d 8b 98 be 68 29 49 bd 27 e4 e4 bc fa f9 21 3e
       -0.29793635 -0.049111754 -0.027940823 0.15818015
0000a0 79 e7 05 3e fc 0d 43 3e 45 04 9a bc d2 5f c3 bc
       0.13076581 0.19048303 -0.018800864 -0.023849402
0000b0 66 1d cf bd d7 40 86 bd 8e 69 92 3d 0e 41 7e 3d
       -0.10113029 -0.06555336 0.07149039 0.06207376
0000c0 98 3b d9 3c 36 e5 25 be e6 ef 91 3e 0a 39 c7 bb
       0.026517674 -0.16200718 0.2850334 -0.0060797976
0000d0 17 bd d5 3c 5d 79 44 bd 60 9d 11 be 13 ed 0d bd
       0.026091142 -0.047967304 -0.1422019 -0.03464992
0000e0 93 77 42 3a d3 ec db ba 61 fc fb 3c 78 83 50 3d
       0.00074183306 -0.0016778953 0.030759992 0.05090663
0000f0 39 e7 a4 3d 00 5c da 3d 27 2e d7 bd ea 3b ef 3c
       0.08051915 0.10662079 -0.1050685 0.029203374
000100 02 cb 75 be a2 72 2e 3e bd 51 d4 bd dd bd 89 be
       -0.24003223 0.17035916 -0.10367153 -0.26902667
000110 86 d3 69 bd 6d 6b 4f 3d 23 34 d1 3d 64 64 8a 3d
       -0.05708649 0.05063956 0.102150224 0.06757429
000120 14 d6 2d 3e 15 f0 48 bd e8 ac ac bd 62 91 78 bd
       0.16976196 -0.049057085 -0.08431417 -0.060685523
000130 5b da da bd be b6 db 3d 50 a9 52 3d 4e 4e a6 bd
       -0.10686179 0.10728215 0.051431 -0.08120404
000140 00 86 1a 3e c5 6f ba 3d 4c 7b a2 bd 44 9c b7 3d
       0.1509018 0.091033496 -0.07933673 0.08965352
000150 9c ba 01 bd be 55 93 bd 21 a5 d0 bc 19 67 b1 3d
       -0.031672105 -0.071940884 -0.025469365 0.086622424
000160 e1 57 12 3e d4 b3 d4 bd 98 08 7f 3d 88 ff 9e 39
       0.14291336 -0.10385862 0.062264055 0.00030326494
000170 6b ef 9d bd 1c 2a a8 bc 9e dd 48 be 96 08 a4 3d
       -0.07711681 -0.020527892 -0.1961579 0.0800945
000180 ae fd da bd d2 ad 0a be 72 b5 cf b9 b5 21 fa 3d
       -0.10692917 -0.1354287 -0.00039617304 0.1221346
000190 2c 20 7e 3d cb 5a d0 bd a2 cc c2 bd 14 f8 c8 bd
       0.0620424 -0.101735674 -0.09511687 -0.09812942
0001a0 6b 89 b6 bd fd 5e 63 3c 5c b1 f0 bd 58 2a 01 bd
       -0.08912929 0.013877627 -0.117525786 -0.031534523
0001b0 e1 f6 4b 3d a1 f3 01 be 17 ad 42 3e 99 7c c7 bd
       0.04979599 -0.12690593 0.19011341 -0.09740562
0001c0 c8 0c 36 3e 3c 9a 15 3d 96 9a f9 bd 66 3f 66 3e
       0.17778313 0.036524042 -0.12187688 0.22485122
0001d0 b8 fb 70 be 44 d6 95 3c bd 73 96 3d f0 c2 4a 3e
       -0.23533523 0.018290646 0.07346294 0.19800925
0001e0 97 de 11 3e 7a cf 96 3e 92 9c eb bd ba f0 05 3e
       0.14245068 0.29455167 -0.11504473 0.13080111
0001f0 44 c7 33 bd b0 de a0 3e 9c 40 60 be a1 69 f6 3d
       -0.043891206 0.31419897 -0.21899647 0.12031866
000200 ca 2c 07 be 00 f2 1b 3e cc 04 5e 3e 10 e9 dc 3d
       -0.1320068 0.15229034 0.21681517 0.10786641
000210 1c 40 28 3e b8 03 1e bb 89 d3 82 3a 0b d2 9a bd
       0.16430706 -0.0024111103 0.0009981255 -0.07559594
000220 1e 5d 98 3d 8c 79 da bd 05 1b 15 3d 99 fd 01 3f
       0.07439636 -0.106677145 0.03640272 0.50777584
000230 d2 8b 36 3e f1 a9 08 3d 39 60 1e 3c 7a f4 da bd
       0.17826775 0.033365194 0.009666496 -0.106911615
000240 1f 4c 53 bd bc 81 a6 3d 1a 68 ff bd a5 2e 36 bd
       -0.051586267 0.081302136 -0.12471028 -0.044478077
000250 30 0d 17 be 87 5d 0e 3d 71 95 2d bd 99 1b c2 3d
       -0.14751124 0.034757163 -0.042378847 0.0947792
000260 d2 42 2f 3d 89 a4 c0 bc 3c 70 b4 3d 51 5b 45 be
       0.042788334 -0.023515956 0.088104695 -0.19273116
000270 d5 28 91 bd a4 db 7d 3e 9e b1 93 3d 69 7e 4d be
       -0.07087866 0.24790817 0.07211612 -0.20067753
000280 b1 3e fa bd 4f 8c a4 3d 8d f3 3c 3d 6a 78 b0 3d
       -0.12218989 0.08034574 0.046130706 0.08616717
000290 88 42 13 bd 94 ba d0 3b 2f 0e 13 be f0 f0 49 3e
       -0.03595212 0.006369898 -0.1436088 0.19720817
0002a0 67 9b 41 3d d1 2f 08 be d0 f3 1c 3e cd 5e 46 3e
       0.047267344 -0.1329949 0.15327382 0.19372101
0002b0 c3 d8 9d 3e c4 9f 8e bb 0c d9 55 3e c1 61 7c 3c
       0.3082944 -0.0043525416 0.20883578 0.015404166
0002c0 21 fb 20 3d d0 2e 8d ba 80 5e a1 3d f2 17 25 3e
       0.039301995 -0.0010771398 0.078793526 0.16122416
0002d0 32 20 12 be c8 57 55 3e 54 8a 9b bd c7 5c b9 3c
       -0.14270094 0.20834267 -0.07594743 0.022627247
0002e0 bd da c7 bc a1 b2 11 3e 00 94 48 bd e0 9f 6c 3c
       -0.024396295 0.14228298 -0.04896927 0.014442414
0002f0 97 4e 22 be 7b c2 6d be a7 45 af 3d d7 58 91 bd
       -0.15850292 -0.2321872 0.08558207 -0.07097023
000300 ec 47 fc bc fc d2 0a 3e bd d1 a8 bd 4e a9 11 be
       -0.030796014 0.13557047 -0.082431294 -0.14224741
000310 3f aa 4d bd fc eb cf bc ec 2c 95 bc 34 e2 91 3e
       -0.050211187 -0.02538108 -0.018209897 0.28492892
000320 a9 28 0b 3e 39 57 30 be a3 1e 0c be 0c c0 75 bd
       0.1358973 -0.17220773 -0.13683562 -0.059997603
000330 21 53 01 be dc 2d db 3d cf 81 a4 be 04 c4 41 bd
       -0.12629367 0.10702106 -0.32130286 -0.047306076
000340 7d d4 e5 bd 8c 4e 5f 3e 3c 65 fa bd c1 07 0d 3d
       -0.112221695 0.21807307 -0.1222634 0.034431223
000350 0b 85 6a be e2 4b 15 3e 80 88 7e be 44 e5 fa 3d
       -0.22902314 0.14579728 -0.24856758 0.1225076
000360 e0 7f 06 be 41 ee 02 3e d3 4c f1 bd 53 a6 8d 3e
       -0.13134718 0.12786199 -0.11782231 0.27665958
000370 32 ac 95 3d bf 39 a9 3d cb 90 f3 bd 33 53 ad bc
       0.07308234 0.08262967 -0.118928514 -0.021157837
000380 42 5b b9 3b 11 c0 a9 bd c9 a3 8c bc bb 81 33 be
       0.0056566307 -0.08288587 -0.017167943 -0.17529957
000390 44 12 d1 bc e4 f9 26 3e 02 e8 51 3e 80 6e d4 3d
       -0.025521405 0.16306263 0.2049866 0.10372639
0003a0 69 c8 b4 3b bc af 35 3d 34 ed d3 bb 5a 38 4a 3e
       0.005517055 0.044357046 -0.006467486 0.19748059
0003b0 33 2d 5e bd 8a 64 90 bd 79 14 2a 3d 6c f1 a4 3d
       -0.054242324 -0.07050426 0.04152343 0.0805386
0003c0 0b 2a 84 3c c3 75 47 3e ca be 2a 3d 02 dd 1c 3e
       0.016133329 0.19478516 0.041685857 0.15318683
0003d0 9b 4e 03 3e f1 37 b2 3a 88 71 90 3d d0 e5 10 3e
       0.12822954 0.0013596994 0.07052904 0.14150167
0003e0 0f fb 9c bd c6 6f c5 3e be 41 3f 3e e8 d3 4b 3e
       -0.07665073 0.3856184 0.18677422 0.19905055
0003f0 73 b4 93 3d 9b ef a5 3a 6b 41 08 be 29 80 6f 3d
       0.07212152 0.0012659909 -0.13306205 0.058471832

layer1.weight f4 [2, 1000]
000000 86 8e 15 bd c0 47 7b 3b 8a 46 18 bd 77 1c f2 3a
       -0.036512874 0.0038342327 -0.037176646 0.0018471618
000010 64 09 ad bc af 8d e9 bc 26 0c 83 3c dc 84 d0 b9
       -0.021122642 -0.028509943 0.015997004 -0.0003977184
000020 9e e4 c4 bc d0 20 ad bc 6f a0 ad 3c 11 ed 00 bd
       -0.024034794 -0.02113381 0.021194665 -0.031476084
000030 47 ec 18 3d 6a d0 80 bc a9 51 a3 3b 12 30 0a bd
       0.037334707 -0.01572438 0.0049841 -0.03373725
000040 42 01 ff 3c 20 2f 7c 3c 2b 98 0c bc b2 a5 a8 3c
       0.03112853 0.015392095 -0.008581202 0.020586822
000050 30 5c cb 3c 37 83 a3 bb 52 bb 1c bd b7 0a 4e 3c
       0.024824232 -0.0049900073 -0.03826458 0.012575797
000060 8c e3 05 3d 0c 55 83 bd 11 ed 68 3c f9 e7 15 bc
       0.03268771 -0.06412706 0.014216677 -0.009149545
000070 c9 f2 ba 3c b2 7e 38 bc c8 f5 56 bc 31 e9 98 bc
       0.022820847 -0.011260675 -0.013120122 -0.018665882
000080 5f d9 60 3d 60 28 01 bc 13 1d c9 bb ec a9 69 3b
       0.0548948 -0.007883161 -0.006137499 0.003565426
000090 56 b0 fe 3c 90 30 27 bd 4a bb db bb 7e 1d 0d bc
       0.031089943 -0.040817797 -0.006705676 -0.0086129885
0000a0 f4 1b 6e bc c1 88 64 3b 90 1d f7 bc 38 3b 1b bd
       -0.014533032 0.003487155 -0.030165464 -0.037898272
0000b0 ee 9e 55 3c ac b6 11 3c 77 7d 83 ba d0 e3 d8 bc
       0.01303838 0.00889365 -0.0010031898 -0.026475817
0000c0 d8 95 bb 3c 44 7b eb bb 49 32 ea 3b eb 36 99 ba
       0.0228986 -0.0071863253 0.0071471077 -0.001168934
0000d0 65 68 6c bc 86 6c 39 bc a0 41 8f bc 13 b8 06 bc
       -0.0144291865 -0.011317378 -0.017487347 -0.008222598
0000e0 6c 0a b8 3c fb 68 4c 3c d4 04 54 3c 0f 22 9f bc
       0.022465907 0.012476201 0.012940604 -0.01942542
0000f0 ad d5 12 bd fa 18 17 bd 35 94 85 bb 8d 48 40 bb
       -0.03584831 -0.036889054 -0.0040765055 -0.0029340119
000100 4d 32 5a 3b 1d 30 90 3a 8c c9 b5 bc f2 33 12 bd
       0.0033294142 0.0011000667 -0.022190832 -0.03569407
000110 e3 9c c4 3c d9 fd a8 bc dc c3 d0 3c 3b c4 c9 bc
       0.02400059 -0.020628856 0.025484018 -0.024629703
000120 8a 59 8c bb 2b 0e 80 b9 13 63 08 3d 9a 29 01 bc
       -0.004283135 -0.00024424618 0.03329761 -0.007883454
000130 4e a7 1e 3c 4a 03 86 3a ed f8 1a 3d 67 40 e2 3a
       0.009683443 0.0010224369 0.03783505 0.0017261625
000140 7e c4 6c bb 0b e1 cb 3c c0 27 eb 3c 35 93 00 3d
       -0.003612786 0.024887582 0.028705478 0.031390388
000150 8c e8 b0 3b 08 64 df bc 74 66 c1 bc 7c 05 07 bd
       0.0053988155 -0.027269378 -0.023608424 -0.032964215
000160 2f 82 e3 bb 88 7d 77 3c ab 32 b7 bc 29 cd 8c 3a
       -0.0069430093 0.015105613 -0.022363028 0.0010742295
000170 c4 80 54 ba 2d b8 e9 3a 99 4e b3 3c ae 29 2b 3c
       -0.0008106346 0.0017831378 0.021888064 0.010446949
000180 8c d9 2d 3d db cc 8f 3c 82 2d 48 3d 32 b0 b8 bb
       0.042443797 0.017553737 0.048871525 -0.0056362385
000190 78 b2 0a 3d 7a 10 64 3c 53 57 70 bc a6 bb 70 bb
       0.033861607 0.013919944 -0.014669257 -0.003673294
0001a0 bb 76 46 3c 25 62 aa bc db c4 8f 3b 6d 85 6a 3c
       0.0121132685 -0.020798752 0.0043874807 0.014314038
0001b0 38 55 10 3d af d5 d0 3c eb f9 45 bc 4d 58 19 bc
       0.03523752 0.025492517 -0.012083511 -0.009359431
0001c0 79 c6 45 bd f4 c3 39 3a 2b b0 20 3d 4f bd 18 3c
       -0.04828498 0.0007086389 0.039230507 0.009322478
0001d0 44 b9 c6 bc 3d 4d 0b 3d 14 42 b8 3b cc 30 cf 3b
       -0.024258263 0.034009207 0.0056231115 0.0063229557
0001e0 08 0a c7 3c cd c7 14 bd d2 cf 13 3b 4f 1c 9d 3b
       0.024296775 -0.036323357 0.002255429 0.0047946344
0001f0 71 97 02 3d 23 b9 02 3d 14 35 8f bc 0d 98 2b 3d
       0.031882707 0.03191484 -0.017481364 0.041893054
000200 ed d8 f2 3b 1a 54 94 bc ef 8b c9 3c be 6a b8 3c
       0.0074111135 -0.018106509 0.024602858 0.022511836
000210 45 ce b5 3b 92 8f 9a 3c ce 55 09 bd ec 74 1f 3d
       0.005548271 0.018867288 -0.033529095 0.038929865
000220 70 e8 35 bc ad 77 2f bd 91 25 19 3d 9a cd df 3c
       -0.011102781 -0.04283874 0.03738934 0.027319718
000230 f4 ce 9b 3b ed bc 32 3a 47 53 b1 3c 98 51 61 3c
       0.0047548953 0.0006818313 0.021646155 0.013752364
000240 c3 88 5a 3b 6f 12 27 3c ec 7b e6 3b d6 0c 95 3b
       0.0033345676 0.010197266 0.0070338156 0.0045486493
000250 9e e1 2a 3d 54 bf 96 bc a5 c1 03 3c ac 56 e9 3c
       0.04171907 -0.01840178 0.008041774 0.028483711
000260 89 5b b0 bc 10 80 48 bc 78 60 5d bc 1a 44 c4 3c
       -0.021528022 -0.012237564 -0.0135117695 0.023958255
000270 2b 5f 20 bc 4f cf 2a 3c 55 b6 09 3d 78 5c 73 bd
       -0.009788315 0.010425403 0.03362115 -0.059414357
000280 3d a7 51 bc d6 8c 0f 3d c6 57 17 3c b8 db eb bb
       -0.01279622 0.03504642 0.009237235 -0.0071978234
000290 12 88 23 3d d8 5c c9 3b c0 3d c8 3b f7 ad 91 3b
       0.03992469 0.006145101 0.006110877 0.004445787
0002a0 37 13 dd 3b b5 93 17 3d 4e f1 58 bc 4c b0 ab 3c
       0.0067466754 0.0370061 -0.013241125 0.020958088
0002b0 d0 5c c1 3c 94 fa e9 bc 04 2c 2a 3d 84 77 d3 3a
       0.023603827 -0.028561868 0.041545883 0.0016133641
0002c0 81 0a 64 3c d3 58 f7 bc 81 9e 17 bc 11 14 18 bc
       0.01391852 -0.030193722 -0.009254099 -0.009282128
0002d0 8d 59 cd bb 9f ee 15 3b 68 60 c9 3c ff d7 8d bc
       -0.006266779 0.0022877825 0.024582103 -0.017314909
0002e0 7d 18 55 bc f0 3d c1 3b 64 44 73 bc 91 f2 dc 3c
       -0.013006327 0.005897276 -0.014847849 0.026971133
0002f0 5a 14 d9 3c c1 1a 93 3c 7a f2 e5 3b 21 bc ca bc
       0.026498962 0.017957093 0.007017431 -0.02474791
000300 bf 58 bf bb f6 34 81 3c 55 8e 89 3d 23 c6 89 bc
       -0.005839437 0.015772324 0.06716601 -0.016818112
000310 f6 fb 2c bb 32 ac 00 3b e6 45 7d 3c 15 55 aa bc
       -0.0026395298 0.0019633886 0.01545856 -0.020792523
000320 b7 7f bf 3b 20 72 0d bd 9f 21 89 3c 3a 9e 5d 3c
       0.005844082 -0.034532666 0.016739665 0.013526494
000330 91 5b 64 bd 09 97 b2 bc 1c 00 de 3c b4 8b 0e bc
       -0.055751387 -0.021800535 0.027099662 -0.0087003
000340 6a 95 af 3c 82 97 39 3d 34 af 2d 3d 17 53 0e bd
       0.02143355 0.045310505 0.042403415 -0.03474721
000350 da 7c b5 3b 72 0f eb bc 58 14 86 bc 64 ae 3b bc
       0.005538565 -0.028693888 -0.016367123 -0.011455152
000360 fe 14 0c 3c c2 d5 24 3d 97 65 aa bb 92 71 60 3d
       0.008549927 0.040242918 -0.0052000987 0.05479581
000370 14 3f c6 bb db e3 a9 3c 92 d9 49 bc f7 22 58 3b
       -0.00605 0.020738533 -0.012319939 0.0032979825
000380 a4 e6 e6 bb bd de 17 bc ed 21 4a bc 7a b3 cd 3c
       -0.0070465375 -0.009269414 -0.01233719 0.025109995
000390 0c cc 15 3d 3c cc cc b9 cb e9 44 bc f5 f6 02 bd
       0.036571547 -0.0003906208 -0.012018631 -0.031973798
0003a0 d8 11 6f 3c 5d 2d d0 3c ef 34 46 bd 4d 43 dc 3b
       0.014591657 0.025412256 -0.048390325 0.00672189
0003b0 99 4e 99 bc fb be 98 3b 45 f9 b4 bc 17 54 a7 bc
       -0.018714236 0.0046614385 -0.022091517 -0.02042584
0003c0 50 a1 b1 3c 80 28 f2 bb cd 38 2f bd 3e 39 8d 3c
       0.021683365 -0.007390082 -0.04277878 0.01723921
0003d0 fa ec 96 bc 20 d1 d9 bb 9b e2 c9 bb 24 4d 33 bb
       -0.018423546 -0.006647244 -0.0061610467 -0.0027359212
0003e0 b3 fd 1a 3b 19 00 ae 3c 58 3c bc bc ea 79 14 bd
       0.0023649752 0.021240281 -0.022977993 -0.03624908
0003f0 05 2c 75 bc 55 42 15 3d 40 f2 2e bd bd 1e 25 3b
       -0.014964108 0.036440212 -0.042711496 0.0025195323
