MLP_init_params.pt (torch, 49217 bytes, 2 tensors)

layer0.weight f4 [1000, 10]
00000000: 2b5a 6c3e 7238 603e 30a7 7fbe 5438 543d
00000010: 266e 113e 1cda e93d 4184 90be 28e2 10be
00000020: fff7 5a3e 6253 753e 196c 3fbe 832b 233d
00000030: 0392 34be d77b 213d 04cc f83b 328c 37be
00000040: 36dc 3e3e e2ca 5f3e 0a6b cf3c de63 85be
00000050: 15d5 0a3e b9cd 4b3e a21a a6bd 5e4e 0fbe
00000060: 450a 943e 93ed 8f3e 46c5 81be e0f9 34be
00000070: 671e 7fbe d95c 793e 1a94 8a3e 843d 64be
00000080: 639a 84be b6b6 65be 2c51 b7bc d9c4 9c3e
00000090: b400 433d 4b05 8c3e c6f8 3a3e 30d8 94be
000000a0: b7ea 243d 73e7 653e 7776 9dbe 60d0 e03d
000000b0: e18f 64be 96f9 29bc 9243 98be ec2e 0b3e
000000c0: d79e 483d 5bba 81be 9122 f6bd a6ae 843e
000000d0: 1419 ee3d 2394 283e 2196 683e e3cf 053e
000000e0: 36c4 7dbe 6120 e83c a9e7 63be 58d1 0bbd
000000f0: bf81 fbbc baf8 063e 3b8f 243e d144 723e
00000100: b6bc 47bb 00b0 7f3d ecd1 823c 33d1 17be
00000110: 7ccc 99be 026c 48be 425f 353e d9a9 01bd
00000120: 318b 59bd 7b9f 84be d819 bebc 0c36 84be
00000130: 61b6 16be 854b ec3d fcb6 723e d65a 3c3d
00000140: 6336 323e 824c 6d3e 4f78 2e3e a09a 90be
00000150: 2c82 223e 5d42 753e 9b25 84be a27e 0fbe
00000160: b547 1e3e 7655 0bbe 891f 3d3e c8b4 5d3e
00000170: 49e2 19be a8c9 2fbe c0e0 ca3d 2874 67be
00000180: f303 31bd 6ad8 9fbd 4da2 a0be a3e2 a13c
00000190: fe02 693d e5d5 85be 381c 253e 063e 26be
000001a0: 7f4f 843e 5aa0 e63d 8a08 b93d d7f3 d2bd
000001b0: ef98 9d3b e7cc 73be 3a33 493e e496 c73d
000001c0: fcaf 7bbe c5a3 aabd a59c 2cbe 2176 b93d
000001d0: 8e5a 2abe 33a7 083d 53d2 943e c22a 583d
000001e0: 04a7 c33c 7c0c f33d f7e6 653e 7f8f 19be
000001f0: 1c7c 8dbe 3bcd 8bbe ab88 5a3e dbe5 99be
00000200: 40a9 e6bd 9a8c 1e3e c1a3 80be 7d39 b73d
00000210: 6e7c 923e 22a0 4d3e c22a 82bd 9b27 843e
00000220: a225 42be 6306 973b 1d76 77be fa54 4c3c
00000230: 19cf 293d 0139 053c e720 13be 189d b23d
00000240: d033 80be 6c4e 66bd a156 9c3e b0de 16be
00000250: bce5 9e3e c870 783d faf5 033d 2f52 333e
00000260: 49af 893e a0df fe3c 2c70 0c3e d34f e33d
00000270: bbf6 8a3d 7793 9b3d 1e64 243e dc2a b53d
00000280: 13f0 96be 650a a13e be05 0b3e a3c0 b63d
00000290: 052e cfbc cf8c 053e 85fc 5c3e f7f0 62be
000002a0: 34b7 9fbe 6784 dd3b 6c84 dabd efde 00be
000002b0: 26af 1fbe 3e9a b8bb f1d2 7cbd 25c2 a63c
000002c0: 37b2 84be 5632 cfbc 34b1 5a3e e70f edbd
000002d0: 2ca0 523e 7572 87be a338 623e dbbd e73d
000002e0: f7b8 8cbc f62f 8b3e 70e7 3fbc 1701 97bd
000002f0: 007a 133e 8d02 9c3e aefd d1bd 47a4 86bd
00000300: 2455 09be 29bb cdbd 02d3 12be b0c2 4e3d
00000310: 87f5 823e c203 d9bc 6a5d 353d f64c 903e
00000320: 797f 7a3e dd5d 863d e009 153e 50be 253e
00000330: 0ebf 253e eaf1 9f3e 5b5c 9e3e de6f c7bd
00000340: b999 dbbd 0e85 8dbe ce36 6c3c 5256 0f3e
00000350: 67c4 5e3d 8906 0f3e 974f 33be ec52 1bbd
00000360: ff6a 9e3e 8071 eabd c4b9 6a3e 20aa 8cbe
00000370: 1667 9dbe 4167 7bbe f544 7dbe 0f36 7b3e
00000380: 9d22 593e f814 ed3c cf66 a33d 6212 5bbe
00000390: edcf 8f3d 5e40 60be dbc0 833e 083f 3c3e
000003a0: 89e8 b83d 788f 98bd 8bd9 68be d182 123e
000003b0: 4ab1 383e ec45 adbd e370 35be 6ccb 653e
000003c0: 000d 81be c9e6 d4ba fcff b9bd 152f 123e
000003d0: 245f 1d3e 53af ad3d 4652 f0bc 1d18 9fbd
000003e0: 1106 17be 6b2e 9b3e dc85 a83d bbda f33d
000003f0: a184 77be e7fe 62be f02a 39be 0393 39be
0.23081271 0.21896532 -0.2496612 0.05181153 0.14202175 0.11418554 -0.28225902 -0.14148772
0.21383666 0.2395759 -0.1869358 0.039836418 -0.17633824 0.039424744 0.00759268 -0.17924574
0.18638691 0.21854737 0.025319595 -0.26052755 0.13557847 0.19902696 -0.081105486 -0.13994738
0.28914085 0.28110942 -0.2534582 -0.17673445 -0.24913941 0.24351825 0.27066118 -0.22289091
-0.25899038 -0.2243298 -0.022377573 0.30618933 0.047608092 0.27347788 0.18258962 -0.29071188
0.040262904 0.22451572 -0.30754444 0.109772444 -0.2232051 -0.010374447 -0.29739052 0.13592118
0.048979606 -0.2533749 -0.12018312 0.25914496 0.11625877 0.1646276 0.2271352 0.13067584
-0.2478188 0.028335752 -0.2225634 -0.034135193 -0.030701516 0.13180819 0.16070263 0.23659064
-0.003047747 0.062423706 0.01596924 -0.14825897 -0.30038822 -0.19572452 0.17712119 -0.03165612
-0.05311126 -0.25902924 -0.023205683 -0.25822484 -0.1471801 0.11537842 0.23702615 0.045985065
0.1740356 0.23173717 0.17038082 -0.2824297 0.15869969 0.23951097 -0.2580994 -0.1401315
0.15457042 -0.1360682 0.18469061 0.21650994 -0.15027727 -0.1716677 0.09906149 -0.22602904
-0.043216657 -0.078049496 -0.31373826 0.01976139 0.05688762 -0.2613975 0.16124046 -0.16234598
0.258419 0.112610534 0.09034832 -0.10300415 0.004809491 -0.23808633 0.19648448 0.09745577
-0.24578851 -0.08332018 -0.1685663 0.090557344 -0.16636106 0.03336258 0.29066715 0.052775152
0.02388335 0.118676156 0.22451387 -0.14996146 -0.2763375 -0.27305016 0.21341197 -0.30058178
-0.112627506 0.15483323 -0.25124934 0.08946512 0.28610557 0.20080617 -0.06355812 0.25811467
-0.18959668 0.0046089157 -0.2416615 0.012471432 0.04145727 0.008131267 -0.1436802 0.087213695
-0.2503953 -0.056227133 0.30534843 -0.14733386 0.31034648 0.06065443 0.032217003 0.1751182
0.26891544 0.031112492 0.13714665 0.1109921 0.06785341 0.07596486 0.16053817 0.088460654
-0.29480037 0.31453243 0.13576409 0.08923461 -0.025290499 0.13041995 0.21580704 -0.22162233
-0.3119446 0.0067601684 -0.10669789 -0.12585042 -0.15594158 -0.0056336215 -0.061724607 0.020356247
-0.25917217 -0.025292557 0.2135666 -0.11575299 0.20568913 -0.2645451 0.22091918 0.11315509
-0.017178042 0.2718503 -0.011712894 -0.07373255 0.14402008 0.30470696 -0.10253464 -0.06574302
-0.13411385 -0.100454636 -0.14338306 0.050478637 0.25577947 -0.02649105 0.04427854 0.28183717
0.2446269 0.06560872 0.14554548 0.1618588 0.16186163 0.31239253 0.30929837 -0.09738134
-0.1072268 -0.27640575 0.014417363 0.13997772 0.054386523 0.13967337 -0.1751083 -0.037920877
0.30941007 -0.1144743 0.22922426 -0.27473545 -0.3074271 -0.24551107 -0.24733336 0.2453234
0.2120461 0.028940663 0.079785936 -0.21393731 0.070220806 -0.21899554 0.25733075 0.1838342
0.090287276 -0.074492395 -0.22739236 0.14307715 0.1803638 -0.08460602 -0.17718844 0.2244088
-0.2520523 -0.0016243096 -0.09082028 0.14275773 0.15368325 0.08480706 -0.029336106 -0.07768271
-0.14748408 0.30308852 0.08228657 0.11906954 -0.24171688 -0.2216755 -0.18082786 -0.18122487

layer1.weight f4 [2, 1000]
00000000: 9125 763c 8bfe 13bc 74dc 953c f4c9 e13c
00000010: 2405 1ebb eb24 44bc 0277 aebc 85b4 3cbc
00000020: adcb 88bc 7a8c 263c d2d3 203c cfb3 ea3c
00000030: 3fe2 b63c 97e9 02bb ca3b 53bb 8f2c 513c
00000040: 705e 3fbc 04b7 16bb 5daa e83c 78fa a3bb
00000050: 318e c4bc 77fd 6b3b 8baf dabc 6c07 943c
00000060: bb5e 86bc 9696 6b3c 22df 43bc 0748 a7bc
00000070: c88f 8c3c b4a9 87bc f545 9cbc 6ff6 9ebc
00000080: cd17 06bc 3252 8ebc 4f4d 1b3b cfa9 b43b
00000090: b9eb edbb b056 073c 54b5 913c 68a2 e0bc
000000a0: 0025 a9bb d0a1 7a3b de30 9abc 23bd d7bb
000000b0: bb64 123c ff62 503c e113 bfbc bd0b f93a
000000c0: a0f0 94bc 163f e2bc 6916 253c bcda bd3a
000000d0: 2cc9 653c 1256 89bc b72d f73c 2c10 cabc
000000e0: fe51 be3b 72db b93b 6607 563b 0904 b4bc
000000f0: 4a32 613c 009b b0bc c7a4 0cbb 815a 49bc
00000100: e782 95bc ff87 b9bc cded d33c 16ec 003d
00000110: 7237 2d3c f738 f5bc 4ad8 82bc 01ef 47bc
00000120: b8ae fb3c 20f6 723c 00a1 e9bc 5099 8cbc
00000130: 7c69 8abc 581f 723c f67b 5bbb 9ca7 59bc
00000140: 762f 4c3b fccb b33c 2be4 98bc 3340 283c
00000150: 5ab6 cb3c 33d2 a33c 5d8b 9bbb 23d7 bbbc
00000160: 057f 353c 74a4 bebc 49ca 75ba 5a3f ed3c
00000170: 0f23 a53b 47e7 3dbc 7819 61bb e00a 82bc
00000180: e51c 403c 9a73 c4bc 96b3 84bb 954f c93c
00000190: ee02 0b3c 9eb1 b13c 5907 94bb c022 143a
000001a0: dfb3 bcbb 9b7b a5bc 482d 8abc 6138 1abc
000001b0: 8b96 a1bc 28e9 643c a50b 91bc 4e70 ff3c
000001c0: b489 0639 2d47 f1bc adbf e6b9 f89f cabc
000001d0: a366 3bbb f978 e3bc 3dd0 343c 7624 c53c
000001e0: e454 7e37 0812 8338 6932 85bc 244b 5fbc
000001f0: ba37 0fba a3af a13c cc6c 01bd 13a2 76bb
00000200: 0e18 1f3c 0738 953b 0aaa 1cbc 668b 903c
00000210: ce40 db3c 3d5f a7bc 000b 513c 7b8c ac3c
00000220: 01b4 c8bc 8f41 3fbc f26c 893c 5739 32bc
00000230: 6736 f1bb 0c13 143c b7aa c43b a23c 953c
00000240: e965 483c 3274 e13b 699a b63c 8307 2bbc
00000250: c3c1 843c 16a5 f9bc 8c10 e8bb f805 9a3c
00000260: abc3 27bb 3c44 a3bc 2405 30bc f843 eeba
00000270: 21b0 a03c 6822 9ebb 93e4 ae3c 6146 85bc
00000280: af1b ccbb 9abd d1bc 51ae cc3c d49b 483c
00000290: 3072 3dbc 2135 ff3c 7e33 ddbb 6a1b 503c
000002a0: d993 ab3c f7ee d8bc aa25 9d3c 097c c9bc
000002b0: 0ca3 d3bc dec4 d6bc 8fae 9cbc 65fa 9dbc
000002c0: 5e05 dc3c 40d1 933b f6f7 f0bb 01ae 503c
000002d0: 5cf3 dfbb d6a2 fbbb b389 64bc 4862 113c
000002e0: 400b c53c 1622 cfbc 82b1 29bc 4272 b93c
000002f0: d522 e93b 518a 80bb 19d7 6cbc 1605 e7bc
00000300: 996c 8a3c 2247 ab3c 9e01 ebbc 940d e93c
00000310: 31f8 4bbb 6e5d 92bc 57b2 383c 99b5 1738
00000320: a968 e0bb 9736 bfbc 2077 613c 2575 acbc
00000330: 9c71 cd3c b04e 933b eeeb 17bc 0729 afbc
00000340: a194 603b b209 9d3c f6fb 9a3c 3e4a 843c
00000350: 9117 153b 184f c2bc 59ee c23c 8a93 8bbc
00000360: 9ea4 eebc c0b9 fc3c 5960 003d 1926 a4bc
00000370: d5a0 fa3c ef0d 5cbc 5b41 91bc 915d d03c
00000380: 89f0 b9bb 656c 313b dd9a 9cbb 09b6 deb9
00000390: a5ee d8bb 813e 4e3b 7323 98bc 01bc c73b
000003a0: 79d2 043b fec4 833c 85c3 e6bb afd1 933c
000003b0: a54b ef3c cd11 e13c 0abd db3c a779 b53c
000003c0: fd7b 1ebc c9d4 aabc cecc c6bc 8ec1 edbc
000003d0: 9ac8 a9bc 7a85 e23b b22b ffbb 29c6 e33c
000003e0: f0bf bebb 3deb b1bc ee89 90bc a166 ca3c
000003f0: b6fb bd3c a37c 3ebc 00e4 ecbb 87f5 0dbc
0.015023605 -0.009032856 0.018293597 0.027562119 -0.002411195 -0.011971693 -0.021296982 -0.011517649
-0.016698683 0.010165328 0.009816127 0.028650193 0.02232468 -0.0019975656 -0.0032231682 0.012766971
-0.0116802305 -0.002299727 0.028401548 -0.0050042234 -0.023993583 0.003600923 -0.026695034 0.018069945
-0.016402593 0.014379164 -0.0119550545 -0.020420088 0.017158404 -0.016560413 -0.019076327 -0.019404618
-0.0081843855 -0.017373178 0.0023697203 0.005513407 -0.0072607663 0.008260414 0.01778666 -0.027421191
-0.0051618814 0.003824342 -0.01882213 -0.006583826 0.008935149 0.012718915 -0.023324909 0.0019000691
-0.018181145 -0.027617972 0.010076144 0.0014484744 0.014025014 -0.016764674 0.030173166 -0.024665914
0.005808114 0.005671912 0.0032658218 -0.02197458 0.0137449 -0.021558285 -0.002146052 -0.012289644
-0.018250896 -0.022647856 0.025870228 0.03147515 0.010572301 -0.02993439 -0.015972275 -0.012202979
0.03072296 0.014829189 -0.028519154 -0.017162949 -0.016896002 0.014777981 -0.0033490635 -0.01328459
0.0031156219 0.021947853 -0.018663486 0.010269213 0.024867225 0.019997692 -0.004746838 -0.022929734
0.011077647 -0.023271777 -0.0009376151 0.028960872 0.0050395797 -0.011590785 -0.0034347456 -0.015874326
0.011725639 -0.023980904 -0.0040497286 0.02457408 0.008484585 0.02169114 -0.0045174775 0.000565093
-0.005758747 -0.020200541 -0.016867295 -0.009412856 -0.019725105 0.013971604 -0.017705748 0.03118148
0.00012830534 -0.029452885 -0.00044011828 -0.024734482 -0.0028595112 -0.027767645 0.011035976 0.024065237
1.5159345e-05 6.249925e-05 -0.016259389 -0.013628755 -0.0005463321 0.01973707 -0.031597897 -0.0037633225
0.009710325 0.004553798 -0.009562025 0.017644595 0.0267643 -0.020431155 0.01275897 0.02106308
-0.024499895 -0.011673345 0.016775582 -0.010877929 -0.0073612216 0.009037744 0.006001796 0.018217389
0.0122313285 0.0068803066 0.022290425 -0.010438803 0.016205674 -0.030474227 -0.0070820507 0.018801674
-0.0025598805 -0.019929998 -0.010743413 -0.0018178215 0.019615235 -0.004825879 0.021349227 -0.01626891
-0.006228886 -0.025603104 0.024985464 0.012244184 -0.011562869 0.031153264 -0.006750523 0.0127018485
0.020944523 -0.026481135 0.019182999 -0.024595277 -0.025834583 -0.02621692 -0.019126205 -0.019284436
0.026858028 0.0045110285 -0.007353778 0.012736798 -0.0068344306 -0.0076793237 -0.013948846 0.00887353
0.024053216 -0.025284808 -0.010357263 0.02263749 0.007114748 -0.0039227386 -0.01445558 -0.028200667
0.016897487 0.020907942 -0.028687295 0.028448857 -0.0031123275 -0.017866816 0.011272988 3.617033e-05
-0.006848414 -0.02334146 0.013761312 -0.021051953 0.025078587 0.0044954643 -0.009272559 -0.021381868
0.0034268277 0.019169662 0.018918972 0.016148683 0.0022749642 -0.023719355 0.023795294 -0.017038126
-0.02913123 0.030850291 0.031341884 -0.020037698 0.030594269 -0.013431056 -0.01773136 0.025435241
-0.005674426 0.0027072665 -0.0047792033 -0.00042478766 -0.0066202455 0.003147036 -0.018571591 0.00609541
0.0020267053 0.016085144 -0.0070423507 0.01804432 0.029210875 0.027474308 0.02682354 0.022152735
-0.009673116 -0.020853417 -0.02426758 -0.029022958 -0.020725537 0.0069128843 -0.0077871913 0.027804451
-0.0058212206 -0.021718616 -0.017643895 0.02470714 0.023191314 -0.011626395 -0.007229328 -0.008664495
