MLP_init_params.pt (torch, 49217 bytes, 2 tensors)

layer0.weight f4 [1000, 10]
-0.066572346 0.04172935 -0.03867848 0.04935891 0.13340755 -0.014931002 -0.041568127 0.115343295
0.06085761 0.11795771 0.037191167 -0.116168685 -0.080465086 0.071999535 -0.15938304 -0.07533327
-0.17173694 -0.03440119 0.0035501865 0.05419858 0.069149815 -0.10205179 -0.12272011 -0.061491843
-0.075878516 0.14707598 -0.11791607 -0.045425396 0.0050804345 -0.16035247 -0.11108234 -0.025448395
-0.16854176 0.26262325 -0.12483566 -0.23066932 -0.033759728 -0.07657275 -0.13402583 0.2407903
0.08434323 -0.04286803 -0.17884812 0.028561838 -0.11048362 0.061790153 -0.13536023 -0.07536394
-0.013688954 -0.14589456 0.103854515 0.062100057 0.023694953 0.11811638 0.07965184 0.17957409
0.08984094 0.12491118 0.0413837 0.07126798 0.07548072 0.06541658 -0.2158814 0.17713378
-0.04851874 0.0021984016 0.06770324 0.042730663 -0.07108927 0.12798725 0.22604075 0.097164206
0.020006338 -0.06626463 0.028873282 0.07029082 0.031946342 -0.0841435 -0.037216738 -0.11971139
-0.005999931 -0.062936194 0.0025382636 0.009265202 -0.07178549 0.21439667 -0.018676212 0.029344987
0.033586502 -0.14736141 -0.009976931 0.026648764 0.049717464 -0.08122756 -0.034518413 0.156927
-0.1080256 -0.016664011 -0.017079618 -0.15137665 -0.078227885 0.11588737 -0.04700433 0.10515851
-0.030297173 -0.2220884 -0.10570493 0.063626215 -0.02529469 0.43854982 0.010104679 -0.15646425
-0.21144931 0.1131066 -0.018125953 0.03970572 -0.05238151 0.07431789 -0.06303413 0.004533501
0.064126655 0.19900176 0.03391465 -0.054564327 0.22100125 -0.044514872 0.16306482 -0.0091048395
-0.02224814 0.1918983 0.05955332 0.07710548 0.018050188 -0.095077366 -0.04501121 0.1009602
-0.066826664 -0.09913698 0.00078861346 -0.17510031 -0.00821185 0.008313036 -0.030116463 -0.11624635
0.026926428 0.19121838 -0.006943098 0.044623747 -0.022095248 -0.058947418 0.02547066 0.022857225
-0.050603103 0.2796365 -0.13646284 0.1616767 -0.1362678 0.16591562 0.06311933 0.12579688
0.034232102 0.053137884 -0.14657792 0.18024766 -0.21509893 0.19712742 -0.07993414 0.087993056
0.005686367 -0.16091868 0.11763524 0.10416268 0.030198101 0.033363774 -0.119834386 0.03317382
0.11189512 0.006548986 0.08017789 -0.027629815 -0.041326735 0.1249056 0.03616412 0.11344649
0.0037714092 0.0071069514 -0.18623066 -0.17914043 0.004443542 0.068258926 0.059590943 0.20646854
0.06415732 -0.16619208 -0.08524153 0.11678711 0.00878129 -0.06885695 0.0663211 -0.04738317
-0.2770153 -0.16971396 -0.2532782 -0.0044961795 -0.15161404 -0.0071257874 -0.30013213 0.010727376
-0.17361128 -0.17859964 -0.1418168 0.09988845 0.06986756 0.119228594 -0.015493746 -0.0026829538
-0.162782 -0.013722652 -0.067370325 -0.073808506 -0.07183636 -0.12182168 -0.15860876 -0.042469483
-0.08137446 0.03705184 -0.16084562 -0.032386538 -0.15281112 -0.25232193 0.060596537 0.096521825
0.07186606 0.13007785 0.0060316557 0.24269098 -0.23817988 0.10859095 0.031693436 -0.03428718
0.09534602 0.19966936 0.01934681 -0.05352513 -0.1308879 -0.08582843 0.046079352 -0.074555434
0.06288321 0.12299119 -0.14851174 0.12517284 0.0022274966 -0.24415398 -0.03246975 0.073949814
00000000: 1557 88bd 65ec 2a3d 536d 1ebd 922c 4a3d
00000010: fd9b 083e 29a1 74bc 5743 2abd 1b39 ec3d
00000020: d445 793d d093 f13d c455 183d d9e9 edbd
00000030: e1ca a4bd 7e74 933d 4f35 23be 5448 9abd
00000040: cfdb 2fbe 43e8 0cbd 3faa 683b 55ff 5d3d
00000050: 6b9e 8d3d 8700 d1bd ae54 fbbd dfde 7bbd
00000060: 3266 9bbd 169b 163e fb7d f1bd fb0f 3abd
00000070: c679 a63b 7033 24be 237f e3bd 2779 d0bc
00000080: 3696 2cbe 8e76 863e d7a9 ffbd 9434 6cbe
00000090: a447 0abd 2dd2 9cbd 113e 09be bb91 763e
000000a0: 25bc ac3d 6396 2fbd f623 37be 84fa e93c
000000b0: 3c45 e2bd ac17 7d3d df9b 0abe 6958 9abd
000000c0: a247 60bc 6265 15be adb1 d43d a15c 7e3d
000000d0: eb1b c23c 00e7 f13d 8120 a33d 45e2 373e
000000e0: 87fe b73d 6fd1 ff3d f481 293d f2f4 913d
000000f0: a395 9a3d 21f9 853d 0410 5dbe 8f62 353e
00000100: 96bb 46bd 0f13 103b ffa7 8a3d 5906 2f3d
00000110: 4097 91bd 170f 033e 3a77 673e 07fe c63d
00000120: 55e4 a33c c0b5 87bd a987 ec3c a2f4 8f3d
00000130: 2bda 023d 6d53 acbd 9470 18bd 3f2b f5bd
00000140: 129b c4bb b1e4 80bd ff58 263b 13cd 173c
00000150: 4504 93bd cd8a 5b3e dbfe 98bc e664 f03c
00000160: 0092 093d e9e5 16be 4876 23bc 824e da3c
00000170: 8aa4 4b3d a35a a6bd 2e63 0dbd 79b1 203e
00000180: 873c ddbd f782 88bc 8eea 8bbc 7b02 1bbe
00000190: f135 a0bd 5c56 ed3d 9d87 40bd 585d d73d
000001a0: c731 f8bc 246b 63be d47b d8bd 764e 823d
000001b0: cf36 cfbc 9a89 e03e 188e 253c 2a38 20be
000001c0: 2b86 58be 6fa4 e73d e17c 94bc 77a2 223d
000001d0: ff8d 56bd fa33 983d 0a18 81bd c38d 943b
000001e0: d654 833d 1ec7 4b3e 17ea 0a3d d87e 5fbd
000001f0: 274e 623e 3a55 36bd 77fa 263e 772c 15bc
00000200: bb41 b6bc fd80 443e 2fee 733d 7ae9 9d3d
00000210: fddd 933c ecb7 c2bd ad5d 38bd 39c4 ce3d
00000220: 6bdc 88bd 5408 cbbd f4ba 4e3a 7f4d 33be
00000230: ff8a 06bc 6633 083c cdb6 f6bc 9112 eebd
00000240: d094 dc3c c0ce 433e ed82 e3bb 64c7 363d
00000250: 1801 b5bc d972 71bd d8a7 d03c 133f bb3c
00000260: 3345 4fbd 842c 8f3e eabc 0bbe 948e 253e
00000270: c989 0bbe c9e5 293e b544 813d e6d0 003e
00000280: f636 0c3d 1ca7 593d 8618 16be d892 383e
00000290: e542 5cbe c5db 493e 83b4 a3bd b435 b43d
000002a0: b454 ba3b dec7 24be bfea f03d 3e53 d53d
000002b0: 0262 f73c 74a8 083d bb6b f5bd 45e1 073d
000002c0: 4529 e53d e098 d63b 4e34 a43d ec57 e2bc
000002d0: 3946 29bd 82ce ff3d d420 143d a256 e83d
000002e0: bf29 773b 6ee1 e83b 40b3 3ebe 9770 37be
000002f0: 229b 913b 56cb 8b3d a215 743d 7d6c 533e
00000300: ea64 833d 422e 2abe 1c93 aebd 152e ef3d
00000310: 66df 0f3c df04 8dbd 5bd3 873d db14 42bd
00000320: f3d4 8dbe 7fc9 2dbe aead 81be b054 93bb
00000330: b640 1bbe 707f e9bb ebaa 99be e0c1 2f3c
00000340: 28c7 31be d3e2 36be 6c38 11be 5192 cc3d
00000350: b916 8f3d 1f2e f43d 7bd9 7dbc 7fd4 2fbb
00000360: 53b0 26be f9d4 60bc 74f9 89bd ea28 97bd
00000370: f11e 93bd a57d f9bd 566a 22be 7bf4 2dbd
00000380: a7a7 a6bd acc3 173d b7b4 24be bfa7 04bd
00000390: 857a 1cbe 5730 81be 1334 783d 3cad c53d
000003a0: 832e 933d 2133 053e 32a5 c53b fc83 783e
000003b0: 6de5 73be ef64 de3d fad0 013d b770 0cbd
000003c0: c644 c33d 2076 4c3e 347d 9e3c 2b3d 5bbd
000003d0: 7a07 06be d1c6 afbd b4bd 3c3d 85b0 98bd
000003e0: eac8 803d cee2 fb3d 7613 18be 4f2d 003e
000003f0: 31fb 113b 8003 7abe 00ff 04bd 0073 973d

layer1.weight f4 [2, 1000]
-0.018784828 0.010141719 0.021839423 -0.0025618954 0.015412066 -0.0067983065 -0.019793445 -0.039478607
-0.014608995 0.0019394322 0.002183086 0.018500365 0.016034089 0.003019732 0.03541443 -0.015876118
-0.02173665 0.024541693 -0.019103372 -0.0071433857 0.010269705 0.0038555525 0.017643115 0.015533172
0.01708072 -0.0110083 -0.011650022 0.008791419 -0.00019858763 0.0024743634 -0.003236245 0.0008082094
0.025523368 -0.017154332 -0.004767243 0.0020817542 -0.01896424 -0.018870175 -0.014801645 -0.026454065
-0.0047268723 -0.015856396 0.017607214 -0.0009844182 0.011416445 -0.0072209705 -0.009584328 0.034525245
0.012646626 0.006581011 0.0030451901 -0.0020915584 0.035826392 0.0020234303 -0.02579854 0.0027409585
2.4364836e-05 0.033409774 0.0026116162 0.014635969 -0.01024208 0.019684631 0.006341136 0.012528965
0.0077767125 -0.013410817 -0.010804029 0.008410833 0.0120879505 0.0066807647 0.0074770823 0.0020350663
-0.009329057 0.009534102 0.0031069638 -0.038019996 0.018050494 -0.01194148 -0.014701943 0.009504846
0.009957301 -0.009585761 -0.020390546 0.0011537729 -0.021270813 -0.029076008 -0.00010398143 0.011135883
0.03518288 -0.013823375 0.008297214 0.0013437987 -0.005996037 -0.030496515 -0.005839122 0.03253264
0.010573903 0.0048549143 -0.003324852 0.030467004 -0.00448456 0.0074366713 -0.01788066 0.03951688
-0.0064950935 0.011249581 0.029343147 -0.012419858 0.010719956 -0.02334326 -0.0008727427 0.015631812
0.00798955 7.817833e-05 0.026433416 -0.0017259729 0.018321829 -0.013563214 0.022460364 0.02993694
0.023393737 -0.009645403 -0.01712939 -0.005749194 0.011693099 0.032757383 0.006505892 0.033697836
0.009838621 0.018009746 0.018978106 0.016547058 0.009462424 -0.009415311 -0.003039674 0.0134771345
0.0061499267 0.012114938 -0.029709417 -0.014981286 -0.025805535 0.003947973 0.0025053113 0.0058109653
0.019078463 0.014644979 0.031121233 0.012910328 -0.01823698 0.009749884 -0.023281539 -0.024194155
0.016394557 -0.01117223 -0.009967639 -0.019208554 -0.0034250338 -0.0011446362 -0.035189345 0.0055445717
-0.00360852 0.037570227 -0.0051485975 0.023678688 0.056763977 -0.0063413456 0.006625262 0.018394796
-0.026659051 -0.009277519 -0.009695049 0.012214491 -0.01192874 0.01632679 0.031221002 -0.0018950965
0.012121752 0.014043751 -0.0030935437 -0.004755547 0.026735049 0.035071705 0.031204162 -0.00544645
-0.028445864 -0.0043682274 -0.0032089055 -0.0067493133 -0.0067797313 0.0076895156 0.006094865 0.019575039
-0.04071899 -0.011379774 0.041345246 -0.006770665 -0.014631415 0.008131488 -0.004358524 0.0052893027
0.0013553861 0.011726191 0.0069064205 0.013579706 0.007286635 -0.032345854 0.020606777 0.036603753
-0.0021104184 0.008433509 -0.011645006 0.020899808 -0.005286479 -0.021527255 -0.006247212 0.0027020683
0.045244914 0.013728487 -0.011218273 -0.019298684 0.0068737688 0.0015902685 -0.007764221 0.016542897
0.0098100025 0.0018302867 0.021182049 0.008977462 -0.029563118 -0.003068221 -0.01048302 0.005083328
-0.006006206 0.02551659 0.013131062 -0.02743097 0.007877279 -0.018373018 0.024249805 -0.004863192
0.024004247 0.010600557 -0.0023681766 -0.0071068015 0.017266236 0.0039657643 -0.027424674 0.025151825
0.008604725 -0.00027587573 0.011319686 0.022864124 -0.027885418 -0.007307104 -0.0063482784 0.026773686
00000000: a4e2 99bc 7429 263c 97e8 b23c 79e5 27bb
00000010: e482 7c3c 54c4 debb dd25 a2bc 52b4 21bd
00000020: 915a 6fbc 8c34 fe3a 1b12 0f3b 148e 973c
00000030: ec59 833c b2e6 453b b90e 113d a20e 82bc
00000040: 0f11 b2bc a90b c93c ad7e 9cbc 1013 eabb
00000050: 4442 283c 70ad 7c3b 4b88 903c d87e 7e3c
00000060: deec 8b3c 285c 34bc bcdf 3ebc e209 103c
00000070: f63b 50b9 ee28 223b 2e17 54bb 04de 533a
00000080: 6216 d13c 3e87 8cbc 8836 9cbb 0a6e 083b
00000090: e55a 9bbc a095 9abc 9982 72bc 32b6 d8bc
000000a0: e1e3 9abb 46e5 81bc 013d 903c 9807 81ba
000000b0: 0a0c 3b3c e49d ecbb 9607 1dbc 586a 0d3d
000000c0: cb33 4f3c 86a5 d73b d091 473b 8712 09bb
000000d0: b2be 123d 879b 043b 7657 d3bc a7a1 333b
000000e0: 1663 cc37 b0d8 083d a627 2b3b b4cb 6f3c
000000f0: 66ce 27bc aa41 a13c 4ec9 cf3b 4a46 4d3c
00000100: cbd3 fe3b 0bb9 5bbc 6203 31bc 97cd 093c
00000110: 8a0c 463c 51ea da3b 5002 f53b bf5e 053b
00000120: e7d8 18bc ec34 1c3c 349e 4b3b dbba 1bbd
00000130: a1de 933c 33a6 43bc 6be0 70bc 37ba 1b3c
00000140: f323 233c 990d 1dbc 130a a7bc 323a 973a
00000150: 2140 aebc cf30 eebc 9b10 dab8 4773 363c
00000160: ec1b 103d 707b 62bc 0af1 073c 6722 b03a
00000170: 677a c4bb d4d3 f9bc 1b56 bfbb f240 053d
00000180: 2a3e 2d3c f915 9f3b c3e5 59bb f095 f93c
00000190: 37f3 92bb 52af f33b 767a 92bc 74dc 213d
000001a0: cbd4 d4bb 2a50 383c 0a61 f03c a97c 4bbc
000001b0: c1a2 2f3c 5d3a bfbc c5c8 64ba 490e 803c
000001c0: 9ae6 023c acf3 a338 e48a d83c 0a3a e2ba
000001d0: a917 963c 3e38 5ebc ccfe b73c 503e f53c
000001e0: 39a4 bf3c c107 1ebc ef52 8cbc bc63 bcbb
000001f0: 6994 3f3c 9b2c 063d 612f d53b be06 0a3d
00000200: 2b32 213c 2d89 933c f977 9b3c b28d 873c
00000210: 4808 1b3c ad42 1abc 4435 47bb 33cf 5c3c
00000220: 5385 c93b bc7d 463c 2a61 f3bc 1174 75bc
00000230: 2166 d3bc ff5d 813b 2630 243b e969 be3b
00000240: 704a 9c3c 7ef1 6f3c f5f1 fe3c d785 533c
00000250: b865 95bc fabd 1f3c edb8 bebc d232 c6bc
00000260: e14d 863c bb0b 37bc 4f4f 23bc 425b 9dbc
00000270: 8876 60bb 9e07 96ba b422 10bd 3daf b53b
00000280: eb7c 6cbb 3de3 193d 91b5 a8bb cff9 c13c
00000290: 5881 683d 10cb cfbb ba18 d93b afb0 963c
000002a0: 1564 dabc bc00 18bc fcd7 1ebc 4a1f 483c
000002b0: c370 43bc c3bf 853c 30c3 ff3c e364 f8ba
000002c0: 509a 463c c317 663c 0dbd 4abb 6bd4 9bbb
000002d0: 7603 db3c 59a7 0f3d df9f ff3c 2278 b2bb
000002e0: 4d07 e9bc 5923 8fbb 804c 52bb 5829 ddbb
000002f0: 8228 debb 55f8 fb3b 6fb7 c73b d55b a03c
00000300: f5c8 26bd 3b72 3abc a259 293d 74dc ddbb
00000310: 9ab8 6fbc ef39 053c f3d1 8ebb e351 ad3b
00000320: 36a7 b13a 361f 403c 414f e23b 6a7d 5e3c
00000330: bac4 ee3b 167d 04bd 8bcf a83c d1ed 153d
00000340: f24e 0abb b32c 0a3c b2ca 3ebc 1336 ab3c
00000350: 333a adbb ed59 b0bc 6ab5 ccbb 2f15 313b
00000360: bb52 393d 73ed 603c d9cc 37bc 4618 9ebc
00000370: 5a3d e13b 8e70 d03a 026b febb f884 873c
00000380: 22ba 203c 3be6 ef3a fa85 ad3c 3416 133c
00000390: 5a2e f2bc 3514 49bb f9c0 2bbc 0c92 a63b
000003a0: b5cf c4bb 2b08 d13c aa23 573c eab6 e0bc
000003b0: b40f 013c 0383 96bc 87a7 c63c 695b 9fbb
000003c0: 8ea4 c43c f5ad 2d3c 6933 1bbb 2ce0 e8bb
000003d0: ec71 8d3c 3ef3 813b b6a9 e0bc 330b ce3c
000003e0: d5fa 0c3c 6aa3 90b9 3476 393c 8b4d bb3c
000003f0: f66f e4bc 6e70 efbb 3805 d0bb 7d54 db3c
