MLP_init_params.pt (torch, 49217 bytes, 2 tensors)

layer0.weight f4 [1000, 10]
0	0x3dad44a0	0.08460355
1	0x3e3ac87b	0.1824054
2	0x3d22a58d	0.039708663
3	0x3df1eef3	0.11813154
4	0x3b60f17e	0.0034323628
5	0x3dd73f5d	0.105101325
6	0x3db096f2	0.086225405
7	0x3d7ec4f5	0.06219955
8	0x3d8789f5	0.0661811
9	0xbd9abf99	-0.075560756
10	0xbda4f703	-0.08054926
11	0x3cfacac5	0.030614266
12	0x3d37115b	0.044694286
13	0x3c8b1bd9	0.016981052
14	0x3d77764c	0.06041555
15	0x3e35d1e7	0.17755853
16	0xbe455fd3	-0.19274835
17	0x3b103bd8	0.0022008326
18	0xbe475707	-0.19466792
19	0xbe1a1418	-0.15046728
20	0x3c5c69de	0.013452975
21	0xbd3987b1	-0.04529542
22	0x3d1398df	0.03603446
23	0xbcbb433d	-0.02285921
24	0x3e3ed99e	0.18637702
25	0x3d65064b	0.055914205
26	0xbcd524f6	-0.0260186
27	0x3d682887	0.056679275
28	0xbdb9b25c	-0.090672225
29	0xbd17b41b	-0.037036996
30	0xbd217fdb	-0.039428573
31	0x3d41cfac	0.047317192
32	0xbd68f4d7	-0.056874122
33	0xbe4f8b0f	-0.2026789
34	0xbd8f9877	-0.07011502
35	0x3dee914a	0.116488054
36	0xbe1e5503	-0.15462117
37	0xbd96db4d	-0.07366047
38	0x3c4ec4fd	0.012620208
39	0xbdbbffea	-0.09179671
40	0x3db73fd5	0.08947722
41	0x3e12ef2f	0.14349054
42	0xbda4339d	-0.08017657
43	0xbd36562b	-0.04451577
44	0x3d40367e	0.046926968
45	0x3e4ee1ce	0.20203325
46	0xbd64b637	-0.055837836
47	0xbd22d4e6	-0.039753817
48	0x3e41ae73	0.18914203
49	0x3e2ec9f7	0.17069231
50	0x3c30f843	0.010801378
51	0xbb9bb984	-0.00475234
52	0xbdd99c90	-0.10625565
53	0x3d1e8500	0.038701057
54	0x3d36110c	0.04444985
55	0xbca9bdd0	-0.020720392
56	0xbdaa7849	-0.08323724
57	0x3d8cdd13	0.06878104
58	0x3e5d43f6	0.21607956
59	0x3e20a4ac	0.15687817
60	0xbe0cac53	-0.13737611
61	0xbe0e7288	-0.13910878
62	0xbdf0be7c	-0.11755082
63	0xbe109b12	-0.14121655
64	0xbd4190d4	-0.04725726
65	0xbc01bbde	-0.007918326
66	0xbe4e93e9	-0.20173611
67	0xbd9ab8ec	-0.07554802
68	0xbe1e8130	-0.15478969
69	0xbd89fa3a	-0.0673718
70	0x3d26caad	0.04072063
71	0xbccec032	-0.02523813
72	0xbda383f5	-0.07984153
73	0xbd909942	-0.070604816
74	0xbe36044e	-0.1777508
75	0xbc20a72d	-0.009805483
76	0xbdb48008	-0.088134825
77	0xbe42c41b	-0.19020121
78	0xbb993012	-0.00467492
79	0xbdb3cf66	-0.087797925
80	0x3d6183e6	0.05505743
81	0x3e5fe012	0.2186282
82	0x3da48a43	0.08034184
83	0xbe097997	-0.13425289
84	0x3dc5e08e	0.09661971
85	0x3e3b5996	0.18295893
86	0xbd61dd1b	-0.055142503
87	0xbd7e5f8d	-0.062102843
88	0x3d58ec23	0.052959573
89	0x3d1a7e78	0.037718266
90	0xbc1e6079	-0.009666556
91	0xbcf24fdf	-0.029579101
92	0xbdd6c9c4	-0.104877025
93	0xbd6804a6	-0.056645058
94	0xbe2858e3	-0.16440158
95	0x3d5a9f3b	0.05337451
96	0xbdcd9c62	-0.10039593
97	0xbe7829c0	-0.24234676
98	0xbd659c0f	-0.056057032
99	0xbe93886e	-0.28815025
100	0xbdd5e21f	-0.1044352
101	0xbddeb8f4	-0.10875121
102	0xbdc7cf44	-0.0975633
103	0xbe028bca	-0.12748638
104	0xbd773966	-0.060357474
105	0xbd8ba7c8	-0.06819111
106	0xbde90643	-0.113781475
107	0xbd87d56a	-0.066325024
108	0xbe54012f	-0.20703577
109	0xbd2b5df1	-0.041837636
110	0x3e0fea03	0.14054112
111	0x3e65d9f8	0.2244643
112	0x3e0f753d	0.14009567
113	0xbd9e0ad8	-0.07716912
114	0x3dcdf5f1	0.10056675
115	0x3e0b4a58	0.13602579
116	0x3cbfdbaa	0.023420174
117	0x3e59a0f6	0.21252808
118	0x3e202a8b	0.15641229
119	0x3df0830c	0.11743745
120	0xbdd11168	-0.10208398
121	0xbd6f0011	-0.058349673
122	0xbe095001	-0.13409425
123	0xbd0786a0	-0.033087373
124	0xbdd0e8a6	-0.10200624
125	0xbd9d50ea	-0.07681449
126	0x3cf2e9ab	0.029652437
127	0xbdb7029f	-0.08936047
128	0xbe2656ed	-0.16244097
129	0xbdf7936a	-0.12088664
130	0xbd9f887d	-0.07789705
131	0xbd028d7f	-0.031873222
132	0xbe017245	-0.12641247
133	0xbd0cbb27	-0.03435817
134	0xbd828dcf	-0.06374704
135	0xbdc1807c	-0.094483346
136	0x3ce2e92e	0.02769908
137	0xbd801090	-0.06253159
138	0xbdecfc26	-0.11571531
139	0x3dab68b8	0.08369583
140	0xbe279ed0	-0.16369176
141	0xbdaa1cd4	-0.0830628
142	0xbe131ba1	-0.14366008
143	0xbe3bb804	-0.18331915
144	0xbdc24aff	-0.094869606
145	0xbdecb4ba	-0.11557908
146	0xbe133c60	-0.143785
147	0xbe4097e5	-0.18807943
148	0xbe4b3bbf	-0.1984701
149	0xbe6eabf1	-0.23307778
150	0xbb39dbdc	-0.0028359806
151	0x3da4096d	0.0800961
152	0x3d65d1ca	0.056108274
153	0xbe21f8a8	-0.15817511
154	0xbdcfaaff	-0.10140037
155	0xbd9e2e1e	-0.0772364
156	0x3d02c769	0.031928454
157	0xbe2dd633	-0.16976242
158	0xbe3015fb	-0.17195885
159	0x3e39be4f	0.18139003
160	0xbe0e6edc	-0.13909477
161	0xbe0d9d6f	-0.13829587
162	0xbdd5bb57	-0.10436123
163	0xbdf770f8	-0.12082094
164	0x3e5f16ec	0.21786088
165	0x3e032580	0.12807274
166	0xbde35432	-0.11100043
167	0xbd6b8e4f	-0.057508763
168	0xbe321456	-0.1739057
169	0xbea20841	-0.31646922
170	0xbd7b2032	-0.06131
171	0xbd6e5899	-0.058189962
172	0xbe7b86e8	-0.24563181
173	0xbe0daa7d	-0.13834567
174	0xbe43451b	-0.1906933
175	0xbe04af66	-0.12957534
176	0xbdba0b35	-0.09084169
177	0xbe3bcb2b	-0.18339221
178	0x3c07d60d	0.00829078
179	0xbd2f11ff	-0.04274177
180	0x3b223bf1	0.0024754966
181	0xbdec0161	-0.115237005
182	0xbdfb504e	-0.12271176
183	0xbd3ca2f9	-0.04605386
184	0xbe6080af	-0.21924089
185	0x3d736ba7	0.059428837
186	0xbd8e79be	-0.06956814
187	0xbdc6b63e	-0.09702729
188	0xbd07729a	-0.033068277
189	0xbe532934	-0.20621186
190	0x3dc7ea71	0.09761513
191	0x3e54390d	0.20724888
192	0x3bee3966	0.007270026
193	0xbe055f58	-0.13024652
194	0x3c81fcde	0.015867647
195	0x3e134145	0.14380367
196	0xbdf8f73a	-0.1215653
197	0xbdcbde86	-0.09954552
198	0x3d9bef6f	0.07614028
199	0xbdb0c130	-0.086305976
200	0x3e0f8751	0.14016463
201	0x3e1edb08	0.15513241
202	0x3def6307	0.1168881
203	0x3bfb6885	0.007672372
204	0xbaca97f8	-0.0015456667
205	0x3e79b124	0.2438398
206	0x3d66b04a	0.056320466
207	0x3bc341d4	0.005958775
208	0x3d5b50a5	0.053543705
209	0xbd687fbd	-0.056762446
210	0x3b164cca	0.0022933953
211	0xbcf3d9b2	-0.029766891
212	0xbda6f7c8	-0.08152729
213	0x3bb8a64b	0.005635058
214	0xbda90a9c	-0.08253977
215	0xbe46a6da	-0.19399586
216	0xbc9bfe6d	-0.019042218
217	0x3dea93d2	0.11453976
218	0x3d4d9a99	0.050196264
219	0x3e76288f	0.2403891
220	0x3e333d9b	0.1750397
221	0x3d22cfe6	0.03974905
222	0xbcdfaeef	-0.027305095
223	0x3d98188c	0.07426557
224	0xbdb91611	-0.09037412
225	0xbce8cfb2	-0.02841935
226	0x3da9276c	0.08259472
227	0xbccfd325	-0.025369236
228	0x3e62cb7c	0.22147936
229	0x3e2edf1f	0.17077301
230	0x3dd6db9b	0.10491105
231	0x3e23216e	0.15930721
232	0x3bfab736	0.007651235
233	0xbd3d7061	-0.04624975
234	0x3e1f6d59	0.15569057
235	0x3e66d659	0.22542705
236	0x3d80bb8e	0.06285773
237	0xbd9444ef	-0.072397105
238	0x3adff1b0	0.0017085578
239	0xbc6944e4	-0.014237616
240	0xbe1f3fb8	-0.1555165
241	0xbb497b08	-0.0030743498
242	0xbe2f156a	-0.17098013
243	0xbc6f45b9	-0.0146040255
244	0xbe184f0e	-0.14873907
245	0x3d8479c3	0.06468537
246	0xbde0c672	-0.109753504
247	0xbd343a81	-0.044001106
248	0xbd4c9427	-0.049945977
249	0xbe838d5c	-0.25693786
250	0x3d8d0be9	0.06887037
251	0x3d4dec8b	0.050274413
252	0x3e41714f	0.1889088
253	0x3e42f2a8	0.19037879
254	0xbc965323	-0.01835019
255	0x3e7ae551	0.2450154

layer1.weight f4 [2, 1000]
0	0x3c7ef109	0.015560397
1	0xbbf0c838	-0.0073480867
2	0xbbb07424	-0.005384939
3	0x3cb36e15	0.021903077
4	0xbc27f651	-0.0102515975
5	0xbd05346f	-0.032520708
6	0xbc29f32c	-0.010372918
7	0xbd34d7f3	-0.044151258
8	0xbccf98d6	-0.025341433
9	0xbc97f9a8	-0.018551663
10	0x3b16ed9e	0.0023029814
11	0x3c120970	0.008913383
12	0x3b1b7c71	0.0023725296
13	0x3bdbf8d9	0.0067130146
14	0x3c139d4c	0.0090096705
15	0x3c1bf1ab	0.009518067
16	0x3c2651a2	0.010151299
17	0x3d1321e0	0.035920978
18	0xbc6e0088	-0.014526494
19	0x3ca6b4e3	0.020349925
20	0xbc1f427a	-0.009720439
21	0xbc692e89	-0.014232286
22	0x3ca3a8aa	0.019977886
23	0x3cbff9db	0.02343457
24	0xbc42c646	-0.011888092
25	0xbc2aca00	-0.010424137
26	0xbc19d3c1	-0.009388865
27	0xbca8ca36	-0.020604234
28	0xbcbcee35	-0.023062805
29	0x3be1a0c2	0.006885619
30	0xbbb12e55	-0.0054071345
31	0xbcbfb442	-0.023401383
32	0xbb12b1e1	-0.0022383856
33	0x3c6174cb	0.013760756
34	0xbc66cf6e	-0.014087541
35	0xbc6123c1	-0.013741435
36	0xbb9c6f4c	-0.00477401
37	0x3c165ee2	0.009177895
38	0xbcaf4a1b	-0.02139764
39	0x3c8b5e6d	0.0170128
40	0xbcc80bfd	-0.024419779
41	0x3c7892f0	0.015171751
42	0xbd0ad9d5	-0.033899147
43	0x3b268dbe	0.0025414075
44	0xbce2e265	-0.027695844
45	0xbccfcbea	-0.025365788
46	0xbc4eb7c8	-0.012617059
47	0xbca9d1fa	-0.020730007
48	0x3d20811f	0.03918564
49	0xbc2ec294	-0.010666508
50	0xba6ebca5	-0.000910709
51	0xbc599bef	-0.013281806
52	0xbcad4d62	-0.021155063
53	0x3bb27145	0.0054456317
54	0x3c72f1ce	0.014828159
55	0xba567769	-0.00081812456
56	0xbc25b4e5	-0.010113929
57	0xbc50a631	-0.012734936
58	0x3c02040d	0.007935536
59	0xbcddf57b	-0.027094593
60	0xbb5d5964	-0.0033775205
61	0x3cd7a419	0.026323365
62	0xbbde6377	-0.0067867595
63	0x3af3b596	0.0018593546
64	0x3c2db191	0.010601417
65	0x3c931620	0.017954886
66	0xbce0a959	-0.027424501
67	0x3c4d00d5	0.012512405
68	0xbc49f468	-0.012326337
69	0xbb96b209	-0.00459886
70	0xbc42008a	-0.011840949
71	0x3c8a3349	0.016870158
72	0x3ca39bf8	0.019971833
73	0xbcdabe92	-0.0267022
74	0x3c535de2	0.012900801
75	0x3cea7f15	0.02862505
76	0xbc151872	-0.0091000665
77	0xbc80d04b	-0.015724322
78	0xbcd6605d	-0.026168996
79	0x39d36ab1	0.00040324547
80	0xbc728716	-0.014802715
81	0xbd1f318e	-0.03886562
82	0x3ce9005d	0.028442556
83	0x3c90d966	0.017681789
84	0xbcaa2401	-0.020769121
85	0xbbd49ab4	-0.0064881686
86	0x3b27feeb	0.002563412
87	0x3c7e6064	0.015525911
88	0xbb0b7084	-0.0021276781
89	0xbd03c415	-0.03216942
90	0xbc223599	-0.009900474
91	0x3c027612	0.0079627205
92	0xbca8007a	-0.02050804
93	0x3afb99bc	0.0019195597
94	0xbd1bfc87	-0.038082626
95	0x3d177d22	0.03698457
96	0x3cf321bd	0.029679174
97	0xbc812d2a	-0.015768606
98	0xba77e0ce	-0.0009455801
99	0xba8f7cfd	-0.0010947284
100	0xbc1878d4	-0.009306151
101	0xbb20dddd	-0.0024546303
102	0x3c5b0b7e	0.013369439
103	0xbaeb417d	-0.0017948594
104	0x3c48fd99	0.012267494
105	0x37d2e53c	2.5140696e-05
106	0x3c9fa48f	0.019487647
107	0x3c410fcb	0.0117835505
108	0x3acf4838	0.001581437
109	0xbc8218b2	-0.015880916
110	0xbca5b67e	-0.02022862
111	0x3c350270	0.011047944
112	0x3ca9db1c	0.020734362
113	0xbce4772e	-0.02788886
114	0xbb90d895	-0.00442035
115	0x3cc28193	0.023743426
116	0xbaa3b083	-0.0012488518
117	0xbb1b22b7	-0.0023671815
118	0x3c79d0c9	0.015247532
119	0xbc8d303a	-0.01723491
120	0xbd135561	-0.035970096
121	0x3c2279a3	0.009916696
122	0xbd01932e	-0.031634502
123	0xbb35a83d	-0.0027718686
124	0xbc9ca1d7	-0.01912014
125	0x3ba3407c	0.0049820524
126	0x39d46d04	0.00040517014
127	0x3b350fe5	0.0027627882
128	0x3ca251e9	0.019814448
129	0x3cbfe946	0.023426663
130	0x3c84d3e3	0.016214317
131	0xbcf76750	-0.03020063
132	0x3d2783a7	0.040897038
133	0x3d31488f	0.043282088
134	0x3c58d87d	0.013235209
135	0xbd1f516c	-0.03889601
136	0xbbec1597	-0.007204722
137	0x3be27d92	0.006911942
138	0x3cb1daab	0.021710714
139	0xbaee2643	-0.0018169362
140	0xbbce2a6a	-0.0062916772
141	0x3bb93fb6	0.005653347
142	0x3ce01994	0.027355947
143	0xbc9dc2e3	-0.019257968
144	0x3bdcc533	0.006737375
145	0x3cb62682	0.022235159
146	0x3ca66833	0.020313358
147	0xbb9a274b	-0.004704391
148	0xbc7b6de8	-0.015346028
149	0xbbfd56f8	-0.0077313147
150	0x3c15eac5	0.009150212
151	0x3b79f7bb	0.0038142044
152	0xbc21f985	-0.00988615
153	0x3c1c3d28	0.009536065
154	0xbc84bb93	-0.016202724
155	0xbcf96c4d	-0.03044715
156	0xbca410a1	-0.02002746
157	0xbc4078a8	-0.011747517
158	0xbc83b30b	-0.016076585
159	0x3c0ae2fe	0.008476971
160	0xbc9a31f0	-0.01882264
161	0x3b139745	0.0022520584
162	0x3bb8fb7b	0.005645213
163	0xbaf9a05a	-0.0019044981
164	0xbc8e12b3	-0.0173429
165	0x3b9f4dfa	0.0048615905
166	0x3c94f5c5	0.018183598
167	0x3cf08498	0.0293601
168	0xbba17402	-0.0049271593
169	0xbc2a1036	-0.010379842
170	0xbcc69402	-0.024240497
171	0xbbeebb48	-0.0072855093
172	0xbbc45aeb	-0.0059922836
173	0xbc6d3b83	-0.014479521
174	0xbd5e2465	-0.054233927
175	0xbcaae237	-0.02085982
176	0xbc18eaa4	-0.009333286
177	0xbbe6d5b3	-0.007044518
178	0xbce5f714	-0.028071918
179	0x3c9a47a6	0.018832993
180	0xbcaa668b	-0.02080085
181	0x3ca97753	0.020686781
182	0xbd08b404	-0.0333748
183	0x3b13a5e5	0.00225293
184	0x3bc20746	0.005921277
185	0xbaaced19	-0.0013193219
186	0x3c65d119	0.014026904
187	0xb9f5878f	-0.0004683104
188	0x3d190167	0.037354853
189	0x3c121d42	0.008918108
190	0xbb475b04	-0.003041924
191	0x3c665c45	0.014060085
192	0x3cbc508b	0.022987625
193	0xbc38b672	-0.011273967
194	0xbcf5b5ec	-0.029993974
195	0x3c0f3865	0.008741473
196	0x39bc1a83	0.00035877907
197	0x3c154739	0.009111219
198	0x3ceb6aac	0.028737389
199	0xbb52dee6	-0.0032176315
200	0xbc00520e	-0.007832063
201	0xbc8a1cd7	-0.016859455
202	0xbcb900c2	-0.02258337
203	0x3af5d2b3	0.001875481
204	0x3d3d7ff9	0.046264622
205	0x3bd8ce13	0.006616363
206	0xbc26d178	-0.010181777
207	0xbb0727d8	-0.0020623114
208	0x3cc198f5	0.023632506
209	0x391d37b2	0.00014993435
210	0xbcaf5871	-0.021404477
211	0x3b11866b	0.0022205363
212	0xbbb3bce5	-0.0054851645
213	0xbc8ae880	-0.016956568
214	0x3b870cb0	0.0041213855
215	0xbba96a9f	-0.005170181
216	0xbc276fd8	-0.010219537
217	0xbc844311	-0.016145261
218	0x3c817252	0.015801582
219	0x3c8ce674	0.017199732
220	0x3ba6b2ce	0.005087233
221	0x3bca3c41	0.0061717336
222	0x3b7db883	0.0038714714
223	0x3b2e2acf	0.002657581
224	0xbcc04492	-0.023470197
225	0xbc3d57dd	-0.011556593
226	0x3c8face9	0.017538505
227	0xbae10305	-0.0017167038
228	0xbcbda597	-0.023150248
229	0xbc2f85a4	-0.010713015
230	0xbccd4f24	-0.025062151
231	0x3c158a65	0.009127234
232	0xbb94acab	-0.004537185
233	0x3cd59e38	0.026076421
234	0x3c71f4cb	0.014767836
235	0x3aaa99fa	0.0013015859
236	0xbb7efc36	-0.0038907654
237	0xbc714cca	-0.014727781
238	0xbcd15aa0	-0.025555909
239	0xbb76a06c	-0.003763224
240	0x3b14f3ae	0.0022728252
241	0x3a81d92f	0.0009906645
242	0xbb183b72	-0.0023228792
243	0x3bd4cb65	0.006493973
244	0x3c577873	0.013151276
245	0xb9c47817	-0.00037473507
246	0x3d5a2051	0.053253476
247	0xbbcb576b	-0.0062054894
248	0x3c72b2f6	0.014813175
249	0x3cf34e69	0.029700475
250	0xbc84d052	-0.016212616
251	0x3bf30452	0.0074162865
252	0x3c468a34	0.012117911
253	0xbc86f602	-0.016474728
254	0x3d46cf4c	0.048537537
255	0xbd14864e	-0.036260895
