MLP_init_params.pt (torch, 49217 bytes, 2 tensors)

layer0.weight f4 [1000, 10]
000000 a1 44 14 3d f0 7b d6 3d c7 47 8c 3d 23 8a bd 3b
       0.036198262 0.10472858 0.06849628 0.0057842894
000010 2d c4 a3 3d a1 24 48 bd 1f 17 5a 3c 64 da b0 3d
       0.07996402 -0.048863057 0.013311177 0.08635405
000020 f8 21 84 bd a8 06 f0 bc 5e 0f 1b 3d 05 34 05 3d
       -0.064517915 -0.029300049 0.037856452 0.032520313
000030 8d 56 15 be fc d0 a3 bd df 27 02 be 9b 37 87 3d
       -0.14583798 -0.07998845 -0.12710522 0.06602403
000040 66 87 d9 bd 97 c9 e6 3c 4a 64 e4 bc 64 21 3f be
       -0.10621528 0.028172297 -0.027879853 -0.18665081
000050 b9 1a a3 3d 9d 2c 09 3b a1 c9 2d 3d 46 2d f6 3a
       0.07964081 0.0020931133 0.042428616 0.0018781803
000060 36 6e fe 3d a9 5e df bd 20 a7 03 3e 3e 61 71 3d
       0.12423365 -0.10906727 0.12856722 0.058930628
000070 ba 20 a8 38 80 56 af 3e 17 5f 2d bd 6a 63 8d 3d
       8.01696e-05 0.34245682 -0.042327013 0.06903727
000080 3b dc 88 3d 46 c6 09 3e 18 81 11 3e 2c 3a 9d 3e
       0.06682631 0.13454542 0.14209402 0.30708444
000090 73 eb 87 3d 0b f7 e5 bc 74 82 cb bd 5f 8f 37 bd
       0.06636705 -0.0280719 -0.09936991 -0.044814464
0000a0 7f 3a 6a 3b 8f 63 a3 3b 92 6e 0a 3e eb 89 b9 3d
       0.0035740433 0.0049862335 0.13518742 0.09059509
0000b0 3c 65 82 3d 41 d9 b7 3e ef b5 b6 bd 13 9c e7 bd
       0.06366965 0.3590794 -0.0892142 -0.11309066
0000c0 e0 63 e3 3d 34 c2 0b be 88 ab 90 bd 82 ba eb 3d
       0.11103034 -0.13648301 -0.07063967 0.11510183
0000d0 c4 2d 8f bd 35 dd ec bc cb 5a 1c 3e a9 bf 2a 3e
       -0.06991151 -0.028914073 0.1526901 0.16674675
0000e0 cf 50 03 3c 6d 11 89 3c 54 20 0a bd 6b 44 43 bd
       0.008014872 0.016731942 -0.033722237 -0.04767267
0000f0 95 8f ae bd 42 48 93 bd bc fc 8d 3d 45 c7 98 bd
       -0.0852348 -0.071915165 0.06932971 -0.07459883
000100 c1 f2 c6 bd 45 7d 26 3e 4c 48 aa b9 9e 37 1c 3d
       -0.097142704 0.16258724 -0.00032478792 0.03813898
000110 76 3e 26 be b5 60 bc bc 3a df 12 3d 2a 3a dd 3d
       -0.16234764 -0.022995332 0.035857417 0.108021095
000120 24 60 ad bc af 4b 1f 3d 66 9d 06 3e 9a 63 34 3e
       -0.021164007 0.038890537 0.1314598 0.1761612
000130 b6 6e ab bd dc eb 9d bd a9 66 84 3d 40 16 4f 3a
       -0.08370726 -0.07711002 0.06464893 0.0007899739
000140 9d 4d 20 bd c7 9f 21 be e5 3d 15 3d dd 1b 7a be
       -0.039136518 -0.15783606 0.03643598 -0.24424691
000150 f7 ef 3e be fb 10 91 bd c3 a9 a2 bd a4 23 a4 bd
       -0.18646227 -0.07083317 -0.07942536 -0.080146104
000160 16 88 34 be ca bc bf bc 54 c6 01 3e b5 aa 85 3d
       -0.17630038 -0.023405451 0.12673312 0.065267004
000170 a1 e1 34 be ef cd 8a 3d c6 c5 0b be 87 36 19 be
       -0.17664196 0.0677756 -0.13649663 -0.14962207
000180 69 a6 45 be 90 f1 26 be e2 30 54 3c 33 25 35 3d
       -0.19301762 -0.16303086 0.012951108 0.04422493
000190 34 a9 ea 3d a5 69 2c bd 5a 9e da bc 2a 06 8a 3c
       0.11458054 -0.042092938 -0.026686836 0.016848642
0001a0 3c 4e 5c 3c 0c 7a bc 3d 91 eb 90 bc 15 c6 1d 3e
       0.013446387 0.09202966 -0.017690452 0.15407594
0001b0 d6 88 c6 bc d4 59 64 bc 36 1a 55 3d 1a b9 d9 bd
       -0.02423517 -0.013937432 0.05202695 -0.106310084
0001c0 e1 4e f8 bb 7b 90 16 3d 2e 74 44 bd f1 b2 c6 3b
       -0.0075777625 0.03675888 -0.04796236 0.006063812
0001d0 67 78 2d bd 90 a0 2f bc 07 a0 cf bc 8a 0f 29 3e
       -0.042351153 -0.010719433 -0.025344862 0.16509834
0001e0 21 a3 92 3b c4 d5 d2 3d 59 2e 47 3d 51 dc f0 bc
       0.004475013 0.10294679 0.048628185 -0.02940193
0001f0 ab 4c 8d 3d fb 46 3b 3e db dc 04 bd ca 3b ec bc
       0.06899389 0.18288796 -0.032437187 -0.028837103
000200 93 54 0e 3d 24 07 91 bc e6 36 c2 bd 4d 9a dc 3d
       0.034748625 -0.0177036 -0.09483127 0.10771618
000210 80 67 f5 3d a1 91 97 bd 9a 52 9c 3d ec 0c c5 bd
       0.11982632 -0.074008234 0.076329425 -0.09621605
000220 1b f5 c4 bd bb c2 1c 3d cd e7 0d 3c c2 b2 4f bd
       -0.09617063 0.038271647 0.008661223 -0.050707586
000230 6f e8 d2 bc 18 a1 59 3d 5c f3 4b 3e 67 fa 82 bd
       -0.025745599 0.053132147 0.19917053 -0.06395417
000240 45 fe fc bc 8c 2a ae 3c 8b bc e2 3b 2d 06 ee 3d
       -0.030882964 0.021260522 0.0069194487 0.11622272
000250 6e fa 93 3d ba 28 7f 3d 36 14 5e be 1f fc 46 3d
       0.072255 0.0622947 -0.21687397 0.048580285
000260 c2 f2 70 bd 0b 02 3d be 04 90 47 be 24 1a 70 be
       -0.058825262 -0.1845781 -0.19488531 -0.23447472
000270 01 86 58 be 61 6c 5c be e4 6c 06 be 99 5a 59 bd
       -0.21144868 -0.21525718 -0.13127476 -0.053064916
000280 fa 62 5b 3d 36 7c ca 3d 3d 87 97 bd 61 6a 32 bb
       0.05356119 0.098869726 -0.073988415 -0.0027224051
000290 3f 42 c1 bc f9 21 e8 bd 1c 3a 45 3d 5d 77 59 3d
       -0.023591159 -0.11334605 0.04815112 0.05309235
0002a0 ee 27 f5 bc 63 9c a3 3d 47 12 1a 3e 0e 3d 11 3e
       -0.029926267 0.07988813 0.15046035 0.14183447
0002b0 04 26 6b 3e 25 3a 2d 3e 28 aa f3 3d d9 ed 89 3e
       0.2296372 0.16916712 0.11897689 0.26939276
0002c0 31 fa 18 3e cd 33 4e 3e 84 4e 12 3e e1 e3 c7 3d
       0.1493919 0.20136948 0.14287764 0.09760261
0002d0 cd 8e bb bc 9a 03 5b 3e 5e cb 57 bd 44 12 78 3d
       -0.022895241 0.21388093 -0.05268418 0.060564294
0002e0 5f 85 2e 3e 8b 42 5a be 69 ac 1d 3e a1 8a f8 3c
       0.17043065 -0.21314447 0.153978 0.03033954
0002f0 c4 4d 73 3d ff b8 8f 3e 8e bd 06 be 3c a9 27 3e
       0.059400335 0.28070828 -0.13158247 0.16373152
000300 6e 2b 66 bd 9c 31 0b be 57 a1 53 3e fb 83 35 3d
       -0.05619376 -0.13593143 0.20667015 0.04431532
000310 13 0d 98 bd 2c d7 42 bc ec b3 9a bd c6 22 b9 3d
       -0.07424369 -0.011892121 -0.075538486 0.09039836
000320 5f bb 3c bd d2 2d 0e 3d 95 6c 28 bc 91 00 be bd
       -0.04607713 0.034711666 -0.010279794 -0.09277452
000330 54 af 0d 3e 64 8a b2 bd 0b ae bc bd f5 96 dc 3c
       0.13836414 -0.08717802 -0.092128836 0.02692745
000340 5e 6a a3 bd e3 b7 1b be 22 52 04 be 29 0d 10 be
       -0.07979272 -0.15206866 -0.12921956 -0.1406752
000350 01 53 41 be e7 00 8f be 4e 3e 50 be 6d f6 db bd
       -0.1887932 -0.27930376 -0.20336267 -0.10740361
000360 a9 3d 4d be d1 6b c7 bd c3 fc a8 bd 55 e8 03 be
       -0.20043053 -0.09737361 -0.082513355 -0.12881596
000370 55 5e dd bc 15 df 88 bd 51 db 2a 3c c1 a7 c5 3d
       -0.02702252 -0.066831745 0.010428266 0.09651137
000380 fd 2e aa bd 69 a3 b6 bd 46 60 48 bd a8 15 fb bd
       -0.083097436 -0.08917887 -0.04891994 -0.1225999
000390 94 5e 8e bd c4 17 8f 3d b2 60 83 bd e3 ab d1 3c
       -0.06951633 0.06986955 -0.064149275 0.025594657
0003a0 2c 07 0a 3e a5 05 09 3e c1 7f bc bd 38 c9 13 bb
       0.13479298 0.1338106 -0.092040546 -0.0022550356
0003b0 78 ac 0f bc ca 75 a6 3c fb 00 a4 3c 5d 57 eb 3d
       -0.008769147 0.020319838 0.020019999 0.114912726
0003c0 a4 e4 d2 3d 8b 27 37 3e d5 5b d5 3d de 84 5d 3d
       0.10297516 0.17886178 0.10417906 0.05408179
0003d0 c5 8f 2e 3e 8c 05 3f 3e ef 35 20 3e 86 21 c7 3d
       0.17047031 0.1865446 0.15645574 0.09723191
0003e0 66 b9 2d 3d e6 b2 5b bd b1 cd b9 3d c4 97 d3 3d
       0.042413138 -0.053637408 0.09072436 0.10331681
0003f0 58 8b 93 bd d6 0b fd 3d a5 10 fd 3d e1 91 06 3e
       -0.07204312 0.12355773 0.1235669 0.13141586

layer1.weight f4 [2, 1000]
000000 83 ed e7 3b 53 4f 9e bc 85 10 df 39 a0 d2 f0 3c
       0.007077874 -0.019324934 0.00042546183 0.029397309
000010 77 00 6d bb e8 e2 a0 3b 85 04 df 3b a3 34 14 bc
       -0.0036163607 0.004909862 0.0068059587 -0.009045753
000020 42 d1 b8 3b 18 27 6a bc 1c ba 22 bc ba 5b 2b 3c
       0.00564018 -0.014291547 -0.009932067 0.010458881
000030 80 0b 59 bb 95 68 14 bc 8c 0b 15 3b 3d 79 cb bb
       -0.0033118427 -0.009058137 0.0022742478 -0.006209521
000040 e6 3f 92 bc 68 16 0b 3c 29 f7 43 3a 57 99 f8 bb
       -0.017852735 0.008489229 0.00074754894 -0.007586639
000050 9a 60 e7 3b 2d 05 d7 3b cc 3f 98 3c 2b ff 18 bc
       0.0070610764 0.0065618963 0.018585108 -0.009338181
000060 af f6 05 bc 95 91 5a ba b4 3e a8 3a 0d c4 ef 3c
       -0.00817649 -0.00083377335 0.001283607 0.029268289
000070 71 88 8e 3c 60 f1 6a 3b 7b ca 0f bc 07 5a 89 bc
       0.017399045 0.0035849437 -0.008776302 -0.016766561
000080 74 b6 2a 3c 7d c7 e5 bb bd ea 44 bc bf 52 1a ba
       0.010419477 -0.0070123062 -0.012018857 -0.0005886964
000090 d3 91 97 bc 46 8f 8e 3c ac 31 c0 bb f5 78 62 3a
       -0.018502152 0.017402302 -0.0058652963 0.000863924
0000a0 57 f3 2a 3b 83 ae e0 3b 69 55 50 3c a1 e3 e9 3b
       0.0026084983 0.006856741 0.012715676 0.007137731
0000b0 19 9f a1 bc 63 41 e4 3b 0c 69 e9 3b 30 a5 8d 3b
       -0.019729184 0.0069658025 0.0071231183 0.0043226704
0000c0 a5 d7 4f 3c 62 4d 2d bc cc 34 d8 bb 15 6b a5 bc
       0.012685691 -0.0105775315 -0.0065980908 -0.020192662
0000d0 d8 c2 1e 3c 85 47 b4 bb f2 46 3f bb 78 11 30 3c
       0.009690009 -0.00550169 -0.0029186574 0.010746352
0000e0 6c a1 6f bc 65 04 1c 3c f6 a4 1f 3c 37 09 46 3c
       -0.014625888 0.009522532 0.00974392 0.012087158
0000f0 2e 85 af 3b f4 c6 9f ba de 27 2d 3c bc 93 58 3c
       0.0053564524 -0.001219003 0.010568587 0.013218816
000100 82 81 58 3b 2f 7d 5d bc 32 60 b6 bb 3a e1 8a 3c
       0.0033036177 -0.013518616 -0.0055656666 0.0169531
000110 ac e8 1f bc f9 d8 cc 3c 35 d4 fe 3b 00 67 9c 3c
       -0.009760063 0.025005804 0.007776762 0.019092083
000120 a0 2f 4f bc cb 09 2f 3b 39 0b 50 bc a6 df 2c bc
       -0.012645632 0.0026708718 -0.012697988 -0.010551369
000130 1a 2c 7e bc 7d 08 cf 3a c4 ea 6d 3c 32 53 87 39
       -0.015513444 0.0015795376 0.0145213045 0.00025811192
000140 51 76 5b 3c 78 9e 8b 3c b0 4c 93 3b a5 bb 41 bc
       0.013394908 0.017043337 0.004495226 -0.011824523
000150 91 f5 d2 3b 82 ca 26 3c e0 f6 61 bc 73 6d f1 3c
       0.006437965 0.010180118 -0.01379177 0.029471135
000160 dc a2 0b 3c 7a 1f 1f 3c e5 90 c3 bb 9b 0d 08 3c
       0.008522715 0.009712094 -0.0059682005 0.008304025
000170 c6 aa fb 38 97 ca f5 bb 9a 35 29 bc 8e 69 fb 3b
       0.00012000422 -0.007500957 -0.010327721 0.007672495
000180 32 b5 48 3c 4e 77 17 bc 7c 43 f2 ba 4e 9e 42 bc
       0.012250232 -0.009244753 -0.0018483247 -0.011878563
000190 1d 22 16 3a 3c 6b c3 bb 38 f3 0a 3b 31 e4 61 ba
       0.0005727129 -0.005963711 0.0021202099 -0.0008617072
0001a0 40 7c c0 ba 2a 6c c3 3b 03 af a0 3c e3 8a 5e 3c
       -0.0014685467 0.005963822 0.019614702 0.013582918
0001b0 4c 84 f3 3b 37 e3 d6 bc 07 c0 3f 3c 47 47 65 3c
       0.0074315425 -0.026231391 0.011703498 0.013994045
0001c0 a2 9e b3 3a 3f f8 9a 3b 67 61 b0 3c 51 3e 42 bc
       0.0013703892 0.0047293003 0.02153082 -0.011855678
0001d0 f8 e1 43 bc 51 35 5c bc b6 64 d4 3c 49 ce 88 bc
       -0.011955731 -0.013440446 0.025926929 -0.016699927
0001e0 46 08 98 3b 5f b9 af bc 32 48 24 bb 1e 69 4b bc
       0.004639658 -0.021450697 -0.0025067446 -0.012415199
0001f0 de ce 82 bb 69 03 b5 3c 71 b1 c9 bb c6 11 6b 3c
       -0.0039919456 0.022096353 -0.006155186 0.014347499
000200 05 83 0e bc 0b d3 ba bb 7b 48 17 3b 05 3b 4a bc
       -0.00869823 -0.005701428 0.0023083973 -0.012343173
000210 b9 cf 0e bb e7 6a 3d bc 1b 5b 2f bc be 8f 2b bc
       -0.0021791293 -0.011561132 -0.010702874 -0.0104712825
000220 05 31 41 3c 08 b7 ec 37 96 44 2e bd 01 93 b2 3b
       0.011791472 2.8218623e-05 -0.042545877 0.005449653
000230 13 e8 88 3b 77 3e f5 3c cd 29 7a 3c b5 e7 1a 3c
       0.004178056 0.029937012 0.015268755 0.009454657
000240 38 9d 32 3b f1 2e 89 3c c9 ce b9 bc 95 25 df bc
       0.0027254354 0.016746016 -0.02268161 -0.0272396
000250 00 75 6e 3c 42 20 de 3c f5 51 da 3a bd 65 66 bc
       0.014554262 0.027114991 0.0016656505 -0.014062342
000260 79 f6 0d bc da b4 aa 3c d1 57 a4 3a c7 dc 8d bc
       -0.008664721 0.02083819 0.0012538378 -0.017317189
000270 b6 97 84 bc 6d bc fb 3b b2 19 d9 3b 07 26 41 bc
       -0.016185623 0.007682374 0.0066253776 -0.011788852
000280 f8 1b fa 3c 4d 6c ed 3a 40 b8 27 3b 6d 2c 70 3b
       0.030530915 0.0018113941 0.0025592 0.0036647574
000290 13 82 c1 ba f6 c1 34 3c 13 c0 b0 bb fe 09 cd 3a
       -0.0014763497 0.011032572 -0.005393991 0.0015643237
0002a0 a6 0f a7 bb c9 60 8f bc 87 96 06 bc 08 8d 3d ba
       -0.005098301 -0.017502205 -0.008214599 -0.0007230793
0002b0 83 3b 03 bd c8 63 b6 bc 89 65 c8 bc 6e 74 48 3c
       -0.032039177 -0.022264376 -0.024462478 0.01223479
0002c0 1a 74 75 3c d9 2e 48 bc f8 04 ac 3b 7f 1c 0a 3c
       0.014981294 -0.012218201 0.0052496158 0.008429646
0002d0 fc 06 7d bb aa c5 ff 3a c1 a8 f8 bb c8 bb 9c 3b
       -0.00386089 0.0019513865 -0.0075884764 0.0047831275
0002e0 10 44 cb 3a f0 27 a9 bb 9c 51 00 3b 78 c6 d0 3b
       0.0015507955 -0.0051622316 0.0019579893 0.0063713156
0002f0 5a 9b b8 bc 59 10 3a bc 37 4c 9a bc 57 7a 38 bc
       -0.022535015 -0.011356437 -0.01883517 -0.011259637
000300 41 64 b6 3b 92 31 0f 3a c2 1d 4b 3c 54 fe 3c 3c
       0.0055661504 0.00054624036 0.0123972315 0.011535246
000310 ca 6f 3f bc 43 cf f9 bc 34 5b bc 3b 16 66 f6 bc
       -0.011684367 -0.030494338 0.005748177 -0.030077975
000320 fc f8 ce 3b 46 96 5e bc ad 81 71 bb ee 5c 02 bd
       0.0063163023 -0.013585633 -0.0036850974 -0.031826906
000330 e1 a8 05 bc d5 81 92 bc d1 7f 08 bc b8 2a 11 bc
       -0.00815794 -0.017884174 -0.008331255 -0.008860283
000340 bb c0 e2 bc 41 47 da bb 89 40 2f bb cb 32 44 3c
       -0.027679792 -0.006661326 -0.0026741347 0.011975001
000350 da 20 a9 bb 7b d4 d8 bc ad 26 2e bc 7b 0c 8b 3c
       -0.005161387 -0.026468506 -0.010629338 0.016973725
000360 bb 60 c3 3b 30 46 4d bc f5 f9 2a 3c 9c a9 8c bb
       0.005962459 -0.012528941 0.010435571 -0.00429268
000370 59 f7 3e bb fd f2 35 3c 17 8d 7e bc 25 17 ed bb
       -0.002913913 0.011105296 -0.015536568 -0.007235425
000380 b9 cf 77 bc ae 7f 16 bc 7a dc ab bb 3f 2d c4 bb
       -0.0151252085 -0.009185715 -0.0052447887 -0.005986839
000390 4f b3 10 3c 99 3a c1 bb 09 e5 20 bd 64 6c 6f 3c
       0.008831813 -0.005896878 -0.039280925 0.014613245
0003a0 96 7c 9b bc 70 d3 81 3b f6 a5 61 bc f2 fb 90 3c
       -0.018980306 0.003961973 -0.013772478 0.017698262
0003b0 31 66 87 bc a8 5c 11 3c 42 8e 8d bb cf 05 9a bc
       -0.01652822 0.008872189 -0.004319937 -0.018801598
0003c0 47 b6 03 3c a1 4f 9f bc 6e 0a 8f bc bb 10 12 3d
       0.008039064 -0.01944715 -0.017461028 0.035660487
0003d0 09 75 99 bc 5c 3f 49 bb 9e 70 62 3b 59 61 b9 3c
       -0.018732565 -0.003070793 0.0034551988 0.022629427
0003e0 70 7d 97 b9 b9 57 ff b8 d5 06 61 3c 8e c2 e1 bb
       -0.00028894423 -0.00012175687 0.013734539 -0.006889648
0003f0 dd 62 04 bc a3 57 68 bc f4 2c 4d bc 25 e5 c2 bc
       -0.0080802115 -0.0141810505 -0.012522925 -0.023790905
