MLP_init_params.pt (torch, 49217 bytes, 2 tensors)

layer0.weight f4 [1000, 10]
0.26650673 -0.1789309 0.06215526 -0.042765845 0.2998704 0.16050799 0.07801667 0.2591491
-0.010380616 -0.046440735 0.07242647 -0.1598849 -0.21463092 0.060278542 0.16131914 -0.13336253
-0.17415874 -0.2503373 -0.0889742 -0.25390178 0.030696517 -0.25078973 0.19360183 0.08934059
-0.18188305 -0.19750403 -0.030718883 0.023102587 -0.1378229 0.25509453 -0.20700128 -0.06369716
0.042060874 0.2674481 0.2591256 -0.26506126 0.014992127 0.057374313 0.03741672 0.12660226
-0.22732387 -0.017432969 -0.17109646 -0.27517918 0.050516468 -0.05004138 0.16898976 -0.22363572
-0.2329065 0.28203547 0.24230842 0.30010355 0.025047325 0.18714792 -0.11118782 0.06604367
0.27320385 0.04500641 0.016828176 -0.07272633 -0.1939617 -0.10173432 0.1839377 -0.04105156
-0.16883591 0.2695945 0.0946901 0.30433038 0.21298505 0.14251474 -0.13439152 0.05167849
-0.28665936 -0.26445478 -0.14625531 -0.2343087 -0.17174906 0.20432344 -0.1282498 -0.23962937
0.09160342 0.17272909 -0.12497267 0.15783304 0.29063913 -0.2153778 -0.025624325 -0.3017125
0.043247003 0.14570008 -0.0026950706 0.19230466 -0.14136268 -0.17461699 0.21559848 0.012425017
0.24537827 -0.31180373 -0.2662619 -0.26692382 -0.2665742 0.055508032 -0.18937427 0.18247351
0.23685107 0.2445318 0.24386893 -0.135935 -0.28300038 -0.21665098 0.2843657 0.1264748
-0.2707375 -0.16375376 0.2723743 0.26066872 0.30961573 -0.27177826 -0.26498443 -0.22912788
-0.24213105 -0.10912042 -0.15267593 -0.20499177 0.22855227 0.24646807 -0.30314252 -0.30027524
-0.29920632 0.24707161 0.15296449 0.25474498 0.2506539 0.057251595 0.17561269 -0.087337114
0.055774927 0.26088428 -0.14413525 0.1788134 0.09388513 -0.06499644 0.28425187 -0.085813016
-0.09941298 0.21789911 -0.010072474 -0.29529974 0.028194997 0.19980825 -0.30235347 -0.06912278
-0.11108118 -0.13041094 -0.24304606 -0.0127456095 -0.008675172 0.22552578 -0.0063677076 -0.048925728
0.3000918 -0.02697377 -0.14353555 0.12221574 -0.038377423 -0.18984003 0.18162492 -0.16254716
-0.029159984 -0.18393159 0.2647539 -0.04343306 0.07408294 0.12031126 0.15757564 0.2370064
-0.27538267 -0.054454155 -0.00044585307 -0.15430552 -0.28194135 -0.043913055 -0.18242402 0.26255322
0.20560129 -0.07001417 0.13037956 0.020026611 -0.054984298 0.06553696 -0.074015714 -0.15634465
-0.029429287 -0.22813061 0.07423206 -0.16032249 -0.29071286 -0.085861884 0.1952592 0.13856806
-0.19782504 0.0094706 -0.2475537 0.06367597 0.27029 0.03497839 0.100751676 0.21866056
-0.07512436 -0.1775501 0.12264875 -0.31585708 0.28934267 0.13024242 -0.29609442 -0.23446059
0.053658403 0.07116218 -0.04381537 0.01371978 -0.078757785 0.17525151 -0.031331968 -0.27451912
-0.23232035 0.30071402 -0.015898366 0.14024149 -0.06364874 -0.006064435 0.18569465 -0.15558477
0.19708896 -0.20624375 -0.19060223 -0.306595 -0.11808542 -0.2838133 0.16041067 0.039201163
0.10410358 -0.18419315 0.058829006 -0.24783261 0.061042003 0.2775269 0.11917191 0.09430202
-0.07082804 0.02559462 0.20591165 -0.26763174 0.16874765 -0.1804861 0.13270624 0.13538401
00000000: 9273 883e a939 37be 8496 7e3d 3d2b 2fbd
00000010: 9d88 993e 355c 243e 34c7 9f3d 31af 843e
00000020: 7613 2abc a438 3ebd 5454 943d deb8 23be
00000030: 35c8 5bbe a2e6 763d d830 253e 3090 08be
00000040: ab56 32be 362c 80be 1b38 b6bd 6aff 81be
00000050: 4377 fb3c 8367 80be 8f3f 463e 33f8 b63d
00000060: 8d3f 3abe 7f3e 4abe 2ba6 fbbc a341 bd3c
00000070: 7221 0dbe c09b 823e 25f8 53be a873 82bd
00000080: 0648 2c3d f5ee 883e 1cac 843e 1cb6 87be
00000090: 8aa1 753c 5401 6b3d 4642 193d 06a4 013e
000000a0: 97c7 68be 96cf 8ebc e933 2fbe 49e4 8cbe
000000b0: 5bea 4e3d 31f8 4cbd a70b 2d3e c300 65be
000000c0: 0b7f 6ebe f466 903e b31f 783e 2ca7 993e
000000d0: 0c30 cd3c b4a3 3f3e 71b6 e3bd e741 873d
000000e0: 60e1 8b3e a458 383d 3edb 893c 8bf1 94bd
000000f0: e59d 46be 155a d0bd 2a5a 3c3e ae25 28bd
00000100: 52e3 2cbe 4a08 8a3e e2ec c13d 31d1 9b3e
00000110: c118 5a3e 62ef 113e ee9d 09be d3ac 533d
00000120: 04c5 92be 9e66 87be f4c3 15be 9fee 6fbe
00000130: fcde 2fbe 2a3a 513e ea53 03be 6761 75be
00000140: 939a bb3d e5df 303e acf1 ffbd fc9e 213e
00000150: a7ce 943e ff8b 5cbe 1bea d1bc 107a 9abe
00000160: c523 313d 6732 153e c89f 30bb 83eb 443e
00000170: 61c1 10be ccce 32be d9c5 5c3e 4c92 4b3c
00000180: 7144 7b3e bda4 9fbe 7b53 88be 3daa 88be
00000190: 6a7c 88be 645c 633d 54eb 41be 56da 3a3e
000001a0: 1689 723e 8b66 7a3e c7b8 793e 8b32 0bbe
000001b0: 6de5 90be c1d9 5dbe 6298 913e 9c82 013e
000001c0: 1b9e 8abe 11af 27be a574 8b3e 5f76 853e
000001d0: f485 9e3e 8526 8bbe 0aac 87be 80a0 6abe
000001e0: 34f1 77be 877a dfbd 1457 1cbe 5de9 51be
000001f0: 9b09 6a3e 2062 7c3e 7f35 9bbe adbd 99be
00000200: 9231 99be 5700 7d3e b9a2 1c3e ef6d 823e
00000210: b555 803e a680 6a3d d0d3 333e cddd b2bd
00000220: 4074 643d a092 853e 3198 13be dc1a 373e
00000230: d946 c03d db1c 85bd 7689 913e bcbe afbd
00000240: 0899 cbbd f220 5f3e 0507 25bc 8731 97be
00000250: 32f9 e63c 899a 4c3e 13ce 9abe 3e90 8dbd
00000260: 887e e3bd 728a 05be 11e1 78be f6d2 50bc
00000270: 4f22 0ebc 3bf0 663e 34a8 d0bb 5866 48bd
00000280: a2a5 993e 18f8 dcbc fcfa 12be 3f4c fa3d
00000290: a531 1dbd 6d65 42be e2fb 393e c372 26be
000002a0: ebe0 eebc 9058 3cbe d38d 873e dde6 31bd
000002b0: ccb8 973d c065 f63d 825b 213e ceb1 723e
000002c0: f5fe 8cbe 520b 5fbd 63c1 e9b9 4402 1ebe
000002d0: 9e5a 90be 2dde 33bd 5dcd 3abe 606d 863e
000002e0: 2589 523e 9763 8fbd 3882 053e d90e a43c
000002f0: 3737 61bd 3e38 863d 8d95 97bd d018 20be
00000300: b015 f1bc 129b 69be fa06 983d 942b 24be
00000310: 51d8 94be 5bd8 afbd 07f2 473e c9e4 0d3e
00000320: a692 4abe 932a 1b3c b87e 7dbe 8c68 823d
00000330: 7363 8a3e 8045 0f3d e556 ce3d 8ee8 5f3e
00000340: cdda 99bd b2cf 35be 452f fb3d 05b8 a1be
00000350: b924 943e 455e 053e b099 97be 7016 70be
00000360: eac8 5b3d 7abd 913d bf77 33bd eec8 603c
00000370: c34b a1bd 2275 333e f355 00bd c58d 8cbe
00000380: 63e5 6dbe 30f7 993e 4a3d 82bc 779b 0f3e
00000390: 455a 82bd 2bb8 c6bb bd26 3e3e 9d51 1fbe
000003a0: b0d1 493e 9031 53be 3b2d 43be 05fa 9cbe
000003b0: c5d6 f1bd fa4f 91be b242 243e 6691 203d
000003c0: 4234 d53d 219d 3cbe aff6 703d d5c7 7dbe
000003d0: 2e07 7a3d 0118 8e3e 6710 f43d 6b21 c13d
000003e0: 4b0e 91bd cfab d13c 81da 523e 0707 89be
000003f0: 2fcc 2c3e 59d1 38be 25e4 073e 1ba2 0a3e

layer1.weight f4 [2, 1000]
-0.00033206862 -0.019888856 -0.012459292 0.031136964 -0.004945734 -0.017588172 -0.017099848 0.00804548
0.016731607 0.025616964 -0.019273236 0.0037272654 -0.021158114 -0.008888124 -0.00042241067 0.023191914
0.016299581 -0.019702472 -0.016502824 -0.0008626502 -0.030825194 0.019446785 0.012511325 0.029104102
-0.016108822 0.02166519 0.0297187 0.016202278 -0.0071149706 -0.006508155 0.011302527 0.015463169
-0.0108184265 -0.0071375053 -0.029932747 0.011053472 -0.026124598 0.018741148 -0.018518846 -0.018904904
-0.02868056 -0.0159568 -0.031103423 0.030378317 -0.009276312 0.0063480563 -0.005415441 0.017695498
0.01516169 0.0050640656 0.013866241 0.012921611 0.00071155746 0.007673381 -0.021120595 0.021584691
-0.015840705 -0.014538668 -0.031215206 -0.012126457 0.01904945 0.028892186 0.023142334 -0.0028598984
0.0151959285 0.023277245 0.023086948 0.01654782 0.022002982 0.0037354666 0.024797862 0.014165444
0.018531164 -0.0040148827 0.031246945 0.029811166 0.023629222 0.0055096517 0.0022783312 -0.0113347415
-0.0048432867 -0.006782235 0.009263283 -0.02257602 0.00015127035 -0.021142747 -0.017633619 -0.03054851
0.015043551 0.020195624 -0.020373398 -0.004185553 -0.007243238 0.031242762 0.0054844916 0.0047899145
-0.00613086 0.007162338 0.015846906 0.011837171 0.00482638 -0.0074741407 -0.02087297 -0.02586461
0.022957101 -0.00024860815 -0.02107592 -0.019108046 -0.001709067 0.012315449 -0.023583166 0.0038807443
0.012246404 -0.015943078 0.018811708 0.027862182 -0.020278167 0.006505808 -0.01909002 0.0054357317
-0.02461786 0.03062394 0.014115678 0.02072478 0.031393297 -0.019216834 -0.004827661 0.023119606
-0.017925497 -0.012143303 -0.008615935 -0.011718275 0.02494334 0.0012981632 0.030639283 0.023144932
-0.006154186 -0.0041055866 -0.0023622692 0.009929795 -0.009452179 0.014003145 0.014629844 -0.03142319
0.03130937 -0.01104576 0.02633127 -0.0301514 -0.0049923644 0.0151540935 -0.028793292 -0.030890502
0.0015684076 0.014250067 -0.0070674834 0.015968367 0.015535728 -0.010832866 0.022220418 -0.003046618
-0.00937716 -0.01458149 -0.0312585 0.024153933 0.015168419 0.013980044 -0.026262684 -0.02953193
0.030572757 -0.010725027 -0.01016024 -0.023358613 -0.010388271 0.030473344 0.025123091 -0.01136934
-0.011530036 -0.028895017 -0.025444753 0.007857407 -0.000719008 0.003095796 0.024421103 0.011241967
-0.022816602 0.0078121414 0.018204091 -0.0066170064 0.02789597 -0.020528149 0.01682265 0.023846734
-0.02936441 0.022971286 0.0288045 -0.023896683 -0.010201995 0.027274463 0.010036699 0.030324876
0.03131582 -0.006255338 0.0035478808 0.014638751 0.019027974 -0.021079343 0.006097176 -0.010481864
-0.02496845 0.0030775724 0.006898039 0.009554979 0.021324445 2.885225e-05 -0.008025507 -0.026493523
-0.0006225994 -0.030435747 0.0038230042 -0.023061022 0.025276309 0.0054343576 -0.0153960455 0.026425363
0.021457369 0.030814959 0.014333396 -0.026585162 -0.0043638144 -0.015284621 0.01028547 -0.010586165
-0.0031238294 -0.018490413 -0.025749348 0.012014514 0.030006226 -0.0027661682 -0.0012697597 0.029993484
-0.0073403893 -0.014443128 -0.0072030295 -0.02581881 -0.021819536 -0.0033053989 0.0281542 0.024325661
0.004364282 -0.0060229995 0.002255451 -0.007490834 0.008041059 0.00868087 0.0012605959 0.00251206
00000000: 7f19 aeb9 f4ed a2bc 0f22 4cbc f212 ff3c
00000010: d30f a2bb 1215 90bc fb14 8cbc 30d1 033c
00000020: b910 893c abda d13c e8e2 9dbc 2345 743b
00000030: c853 adbc 7e9f 11bc 0077 ddb9 f8fc bd3c
00000040: b386 853c 1467 a1bc ee30 87bc 7a23 62ba
00000050: 1e85 fcbc dd4e 9f3c 4dfc 4c3c ba6b ee3c
00000060: a6f6 83bc 327b b13c a274 f33c a4ba 843c
00000070: b324 e9bb 5c42 d5bb 3c2e 393c 3b59 7d3c
00000080: c53f 31bc bce1 e9bb 8535 f5bc 9f19 353c
00000090: 4103 d6bc 0987 993c d6b4 97bc 75de 9abc
000000a0: 7ef3 eabc d6b7 82bc 9bcc febc f3db f83c
000000b0: acfb 17bc 5b03 d03b 0374 b1bb 26f6 903c
000000c0: bd68 783c 76f0 a53b 3b2f 633c 2ab5 533c
000000d0: d087 3a3a fc70 fb3b 1905 adbc 61d2 b03c
000000e0: 5ec4 81bc 9833 6ebc 08b7 ffbc 0cae 46bc
000000f0: 980d 9c3c 4eaf ec3c fe94 bd3c 226d 3bbb
00000100: 58f8 783c ecaf be3c d720 bd3c 4b8f 873c
00000110: 993f b43c bbce 743b e324 cb3c 2e16 683c
00000120: abce 973c 478f 83bb 98f9 ff3c 8c36 f43c
00000130: 1292 c13c 4f8a b43b 0e50 153b 5ab5 39bc
00000140: 6fb4 9ebb 833d debb 06c5 173c 58f1 b8bc
00000150: 539e 1e39 8e33 adbc 6174 90bc de40 fabc
00000160: 3a79 763c 4b71 a53c 1de6 a6bc f726 89bb
00000170: af58 edbb d2f0 ff3c 40b7 b33b b7f4 9c3b
00000180: 62e5 c8bb 0cb2 ea3b 5fd1 813c b2f0 413c
00000190: 9c26 9e3b a3e9 f4bb cafd aabc 05e2 d3bc
000001a0: 8810 bc3c 9f57 82b9 68a7 acbc 7a88 9cbc
000001b0: c602 e0ba bdc6 493c 7c31 c1bc 1654 7e3b
000001c0: 24a5 483c 0f9b 82bc 031b 9a3c 3b3f e43c
000001d0: 661e a6bc ac2e d53b ac62 9cbc 391e b23b
000001e0: 65ab c9bc 0fdf fa3c 7245 673c 04c7 a93c
000001f0: 4296 003d 9f6c 9dbc 5b31 9ebb 5465 bd3c
00000200: 7ed8 92bc b4f4 46bc da29 0dbc 02fe 3fbc
00000210: fa55 cc3c 2127 aa3a 3cff fa3c 719a bd3c
00000220: 0ea9 c9bb 2888 86bb 4dd0 1abb 94b0 223c
00000230: 50dd 1abc 726d 653c 03b2 6f3c 9ab5 00bd
00000240: 413e 003d 46f9 34bc adb4 d73c 1200 f7bc
00000250: fd96 a3bb e048 783c e9df ebbc 140e fdbc
00000260: 0793 cd3a 1d79 693c 5996 e7bb 18d0 823c
00000270: 9189 7e3c 557c 31bc 9807 b63c c5a9 47bb
00000280: a9a2 19bc 34e7 6ebc ea08 00bd 78de c53c
00000290: f684 783c 8e0c 653c d724 d7bc f2ec f1bc
000002a0: b873 fa3c 06b8 2fbc 2377 26bc 905a bfbc
000002b0: 9133 2abc 3ca3 f93c f1ce cd3c 7846 3abc
000002c0: 7ae8 3cbc 3eb5 ecbc 8471 d0bc 5bbc 003c
000002d0: cf7b 3cba d7e2 4a3b c40e c83c 3a30 383c
000002e0: e2e9 babc fefc ff3b bf20 953c 79d3 d8bb
000002f0: 1786 e43c a62a a8bc a7cf 893c 3a5a c33c
00000300: a28d f0bc 472e bc3c 6af7 eb3c fac2 c3bc
00000310: 4526 27bc b26e df3c f770 243c e06b f83c
00000320: 0445 003d 94f9 ccbb 9083 683b 5fd7 6f3c
00000330: 8ee0 9b3c 96ae acbc d2ca c73b 20bc 2bbc
00000340: a38a ccbc 19b1 493b f208 e23b 7d8c 1c3c
00000350: 9ab0 ae3c bc07 f237 6b7d 03bc f208 d9bc
00000360: f035 23ba 6354 f9bc 5e8b 7a3b 78ea bcbc
00000370: 4310 cf3c b212 b23b b23f 7cbc 017a d83c
00000380: 5dc7 af3c a76f fc3c 9fd6 6a3c 20c9 d9bc
00000390: 54fe 8ebb 596c 7abc 6384 283c 9871 2dbc
000003a0: 29b9 4cbb 3579 97bc 4cf0 d2bc 86d8 443c
000003b0: 9ecf f53c 9a48 35bb 116e a6ba e5b4 f53c
000003c0: a687 f0bb dfa2 6cbc 6407 ecbb f881 d3bc
000003d0: e2be b2bc 649f 58bb a3a3 e63c 9c46 c73c
000003e0: 4002 8f3b 955c c5bb 30d0 133b ac75 f5bb
000003f0: a5be 033c 353a 0e3c 943a a53a 60a1 243b
