MLP_init_params.pt (torch, 49217 bytes, 2 tensors)

layer0.weight f4 [1000, 10]
0	0xbd7a1333	-0.061053466
1	0x3d6224c5	0.055210847
2	0xbd93eca1	-0.07222868
3	0xbac9028e	-0.0015335844
4	0xbe842ed5	-0.2581698
5	0x3c894f8c	0.016761564
6	0xbd880325	-0.06641225
7	0x3e442196	0.19153437
8	0x3e5444e6	0.20729408
9	0x3da6e84e	0.08149777
10	0x3dc21852	0.09477295
11	0x3eaa0b0b	0.3321155
12	0xbe388c94	-0.18022376
13	0xbe4abc0b	-0.19798295
14	0xbea219b6	-0.3166024
15	0x3d9a8489	0.0754481
16	0x3eb30456	0.34964246
17	0x3df81e7b	0.12115189
18	0xbe5a5719	-0.21322288
19	0x3daa8569	0.08326227
20	0xbc1de328	-0.009636678
21	0x3dfc1552	0.12308754
22	0xbb734b72	-0.0037123826
23	0x3e0d7a0b	0.13816087
24	0xbe27a54d	-0.16371651
25	0x3d3e316a	0.046433844
26	0x3e0e9599	0.13924254
27	0xbe6a8253	-0.22901277
28	0xbe815d5b	-0.25266537
29	0x3e8804a9	0.26566055
30	0xbd3c8045	-0.046020765
31	0xbdc02adf	-0.09383177
32	0x3cb17dbd	0.021666402
33	0xbe591b7a	-0.21201888
34	0xbe8bf39b	-0.27334294
35	0xbeb10af2	-0.34578663
36	0xbe8029c2	-0.2503186
37	0x3d0c0eb9	0.034193728
38	0x3e862db7	0.26206753
39	0x3e66b3d9	0.22529544
40	0x3d9ca3a7	0.07648402
41	0xbc7347eb	-0.01484869
42	0x3efd6326	0.49489707
43	0x3dde6202	0.10858537
44	0xbe0f3baf	-0.13987611
45	0x3e136349	0.14393343
46	0xbed6c84a	-0.41949683
47	0xbe31ef86	-0.17376527
48	0xbde26a22	-0.110553995
49	0xbdd091fe	-0.10184096
50	0xbdd83ab4	-0.10558072
51	0x3aba3e35	0.0014209213
52	0xbe34f206	-0.1767045
53	0xbd1cadd5	-0.038251717
54	0xbec14840	-0.37750435
55	0xbe2d147d	-0.16902347
56	0xbe840e4c	-0.25792158
57	0x3e2052e5	0.15656622
58	0x3df1cd09	0.118066855
59	0x3eb1c950	0.34723902
60	0xbd880e9a	-0.0664341
61	0x3e94066c	0.2891115
62	0xbeb9b28e	-0.3626904
63	0xbdd3c25d	-0.10339806
64	0xbeae8efd	-0.34093466
65	0x3d892fe8	0.066985905
66	0x3ccdf290	0.025140077
67	0x3e41dc72	0.1893175
68	0xbe2ec7a3	-0.17068343
69	0x3df6c66f	0.12049567
70	0x3e13b868	0.14425814
71	0x3e74b91b	0.23898737
72	0xbdc3b5df	-0.095561735
73	0xbecb01a8	-0.396497
74	0xbd705668	-0.058676153
75	0x3e574a52	0.21024445
76	0xbe9775e1	-0.29582122
77	0xbecb4163	-0.39698324
78	0xbe4a9cd2	-0.19786385
79	0x3e14fa6c	0.14548653
80	0x3e403656	0.18770728
81	0x3e9a55db	0.30143628
82	0xbdac4da2	-0.08413245
83	0xbe869a87	-0.2628977
84	0xbc804072	-0.01565573
85	0x3d82ebc0	0.06392622
86	0xbd428c59	-0.047497127
87	0xbe2cd718	-0.16878927
88	0xbc8e418f	-0.017365245
89	0x3eb12f57	0.3460643
90	0xbd844a86	-0.06459527
91	0xbd2ef01a	-0.042709447
92	0x3dae9f4c	0.08526477
93	0x3dc5aacd	0.09651718
94	0xbd49cf8f	-0.04927021
95	0xbc80325b	-0.015649011
96	0xbe1e67be	-0.15469262
97	0x3d0eb885	0.03484394
98	0x3d880d50	0.06643164
99	0xbbe6f7e2	-0.007048593
100	0x3ce93b51	0.028470667
101	0x3dea8599	0.11451263
102	0xbdc05fcf	-0.09393274
103	0xbe60a810	-0.21939111
104	0xbe13a8d8	-0.14419878
105	0xbd562e06	-0.052289985
106	0xbdaea61d	-0.08527777
107	0xbdd50570	-0.10401428
108	0x3d6cc667	0.0578064
109	0x3e13265d	0.14370103
110	0xbd7a40c0	-0.061096907
111	0xbcc94593	-0.024569308
112	0xbdc0691e	-0.093950495
113	0xbea68769	-0.32525185
114	0xbdd1550d	-0.102213
115	0x39c1da71	0.0003697458
116	0xbe75cbee	-0.24003574
117	0xbea1eedc	-0.31627548
118	0xbe69eb8e	-0.22843763
119	0xbe39a472	-0.18129137
120	0xbda49455	-0.080361046
121	0x3c7e982a	0.015539208
122	0xbd47beef	-0.048766073
123	0xbe2bb9b3	-0.16770057
124	0xbe56489c	-0.20926136
125	0xbd688b1a	-0.056773283
126	0xbe715afb	-0.23569863
127	0xbe216a5d	-0.1576323
128	0xbcc559a9	-0.024090605
129	0xbcea68e1	-0.028614463
130	0x3d741084	0.059586063
131	0x3e945a15	0.28974977
132	0xbcc4ea5f	-0.024037538
133	0x3e079b8f	0.13242935
134	0xbd83746e	-0.064186916
135	0x3e951fe6	0.291259
136	0x3e6440fe	0.22290418
137	0x3de797bb	0.11308237
138	0xbdcdc9c2	-0.10048248
139	0x3d163d9f	0.03667986
140	0x3b7ad1dd	0.003827206
141	0x3c1f3951	0.009718255
142	0x3caf1869	0.021373944
143	0xbca9e9ac	-0.020741306
144	0xbda52110	-0.08062947
145	0x3d88531a	0.06656475
146	0xbe65a83a	-0.22427455
147	0xbdbd416a	-0.09240992
148	0x3d8cd394	0.06876293
149	0x3de6265b	0.112377845
150	0x3e61a391	0.22035052
151	0x3e23feff	0.16015242
152	0x3e8e0b36	0.27742928
153	0x3d3a4c58	0.045482963
154	0x3dc1e912	0.09468283
155	0x3eac6139	0.33667925
156	0xbaf6ef80	-0.0018839687
157	0x3d89609c	0.0670788
158	0x3e815787	0.2526209
159	0x3e82133a	0.25405294
160	0xbd00510c	-0.031327292
161	0x3e0dd001	0.13848878
162	0xbe055fc0	-0.13024807
163	0xbd38bb09	-0.045100246
164	0xbde18367	-0.11011391
165	0x3e144c01	0.14482118
166	0xbe1d1e85	-0.15343674
167	0x3c057476	0.008145442
168	0xbe6c48dc	-0.23074669
169	0xbde16fc1	-0.110076435
170	0xbc82a8c0	-0.015949607
171	0x3d880014	0.0664064
172	0xbe6b5945	-0.22983272
173	0xbf017b6d	-0.5057896
174	0xbe9660e7	-0.29370806
175	0xbc3d405b	-0.011550988
176	0xbee10943	-0.4395238
177	0xbe216969	-0.15762867
178	0x3d8fe41c	0.0702593
179	0x3d57bca2	0.05267013
180	0x3e670439	0.22560205
181	0x3ed538a2	0.4164477
182	0xbe528ac8	-0.20560753
183	0xbea4725e	-0.32118505
184	0xbe50e1db	-0.20398657
185	0xbc5bfa5d	-0.0134263905
186	0xbe2b4d87	-0.16728793
187	0x3dc994da	0.09842844
188	0xbd55321f	-0.052049752
189	0xbcd2d00b	-0.025733968
190	0xbdc1d34e	-0.09464131
191	0xbca237dc	-0.019802026
192	0xbe01c353	-0.12672167
193	0xbdb2b554	-0.08725992
194	0xbe981598	-0.29703975
195	0xba51eb2e	-0.0008007762
196	0xbc9700d3	-0.01843301
197	0xbe842785	-0.258114
198	0xbe8fe17f	-0.28101727
199	0x3d7a06a5	0.061041493
200	0xbd47f8de	-0.048821323
201	0x3e454d0c	0.19267672
202	0xbe91c8a8	-0.284734
203	0xbde9ba43	-0.1141248
204	0xbea5a8de	-0.32355398
205	0x3d1e10df	0.03859031
206	0x3dcfc839	0.10145611
207	0x3da2f491	0.079568036
208	0xbe702be0	-0.23454237
209	0xbe884c44	-0.26620686
210	0xbc9e31b7	-0.019310815
211	0x3e0b3ba7	0.13596974
212	0xbdb20525	-0.086923875
213	0xbe3aa7d6	-0.18228087
214	0xbd7063bf	-0.058688875
215	0x3e58b879	0.2116412
216	0xbdfe647d	-0.1242151
217	0x3c947907	0.018124117
218	0xbd7f612e	-0.062348537
219	0xbd5804f5	-0.052739102
220	0xbd38d689	-0.04512647
221	0xbdc261e3	-0.09491327
222	0x3e3f0865	0.18655546
223	0x3cb2ac0c	0.021810554
224	0xbe06bcc9	-0.13157953
225	0x3e4b4bf0	0.19853187
226	0xbe3592a7	-0.17731725
227	0xbe529a2b	-0.20566623
228	0xbcf04aa4	-0.029332466
229	0x3d5e0eae	0.05421322
230	0x3e1cb1d6	0.15302214
231	0x3d99d2b4	0.075108916
232	0x3df5eeab	0.12008413
233	0xbdb6d24a	-0.08926828
234	0x3d675561	0.056477908
235	0x3dc2d4b4	0.09513226
236	0xbbf57af4	-0.007491464
237	0x3d7823e5	0.060581107
238	0x3e2f769b	0.17135088
239	0xbe084ab2	-0.13309744
240	0xbcf44502	-0.029818062
241	0x3e03c69b	0.1286873
242	0xbdfe5df3	-0.12420263
243	0x3dee77ae	0.11643921
244	0xbe126966	-0.14298019
245	0x3d6af993	0.05736692
246	0xbe3c237b	-0.1837291
247	0xbd199c1e	-0.0375024
248	0xbd97e065	-0.07415847
249	0xbd1da809	-0.03849033
250	0x3e2baa89	0.16764273
251	0x3eb54707	0.35405752
252	0xbda9a4ea	-0.08283408
253	0xbe62eb07	-0.22159968
254	0xbe14b691	-0.14522769
255	0x3e8dc03c	0.27685726

layer1.weight f4 [2, 1000]
0	0x3c34e438	0.01104074
1	0x3cae855c	0.021303825
2	0x3d589f0a	0.052886046
3	0xbc8cb180	-0.017174482
4	0x3d04fa17	0.032465067
5	0x3ca51be4	0.0201549
6	0xbd454548	-0.048161775
7	0x3d38dea7	0.045134213
8	0xbd2ef9ff	-0.042718884
9	0x3c636637	0.01387935
10	0x3d1fea21	0.039041642
11	0xb97f3938	-0.0002434001
12	0x3ccf8196	0.025330346
13	0xbc6d43d0	-0.0144815
14	0x3d2a1d96	0.04153212
15	0x3ce98775	0.028506974
16	0xbb748599	-0.0037311076
17	0xbd2b069a	-0.041754343
18	0x3c76b896	0.015058657
19	0xbd2e19df	-0.04250514
20	0xbc5e007f	-0.013549923
21	0xb9ff90c0	-0.00048745237
22	0xbcc6352a	-0.024195272
23	0x3c1060e2	0.008812161
24	0xbd7067c5	-0.058692712
25	0x3d27ae15	0.040937502
26	0x3d583ee8	0.052794367
27	0x3beb8f7c	0.0071887355
28	0xbcf52ed1	-0.02992955
29	0x3d513b97	0.05108222
30	0x3c222edc	0.009898867
31	0xbd298039	-0.04138205
32	0x3cf2d677	0.02964328
33	0xbb0d8637	-0.002159489
34	0xbc848d33	-0.01618061
35	0xbccfad1f	-0.025351105
36	0xbc1bd2c7	-0.009510702
37	0x3ca3cb22	0.019994322
38	0x3c53a6cd	0.012918186
39	0xbc93e765	-0.018054673
40	0xbceca565	-0.02888746
41	0xbcc6ee9f	-0.024283705
42	0xbd1f1447	-0.038837697
43	0xbd08ad36	-0.03336831
44	0x3c7b7fda	0.015350306
45	0xb85985d4	-5.186147e-05
46	0xbd637e31	-0.055540267
47	0x3b559619	0.0032590686
48	0x3d50544b	0.050861638
49	0xbbb0aed5	-0.0053919354
50	0x3b1b2bc6	0.0023677214
51	0x3cdd2b3d	0.026998157
52	0x3d49b5bb	0.049245577
53	0xbd274245	-0.040834684
54	0xbc40c007	-0.011764533
55	0xbb0facf6	-0.002192316
56	0x3d14135f	0.036151286
57	0x3cc0f0bd	0.023552293
58	0x3d25ac51	0.040447537
59	0xba9b258f	-0.0011836755
60	0x3ca08cef	0.019598452
61	0x3cd9f95f	0.026608167
62	0x3d37dfdf	0.044891234
63	0x3c76316c	0.0150264315
64	0xbcce94b2	-0.025217388
65	0xbd06b522	-0.032887585
66	0xbd7004c3	-0.05859829
67	0xbc9aaea7	-0.018882109
68	0xbc247ef1	-0.010040031
69	0x3c829b22	0.015943114
70	0xbd55610d	-0.052094508
71	0x3d649bde	0.05581271
72	0x3d264926	0.040597104
73	0xbd93ea46	-0.072224185
74	0x3c651c2e	0.013983769
75	0x3b10c644	0.0022090832
76	0xbd944dcb	-0.072414
77	0x3cf1da51	0.029523047
78	0x3cfbac69	0.03072186
79	0x3c266178	0.010155074
80	0x3bfda139	0.0077401665
81	0xbcf3edc5	-0.029776463
82	0xbbfc2525	-0.0076948577
83	0x3cf67b37	0.03008805
84	0xbc30a9d5	-0.010782679
85	0xbc844397	-0.01614551
86	0x3b73bd14	0.0037191557
87	0xbce41c3f	-0.0278455
88	0x3cf98013	0.030456578
89	0xbc0a4515	-0.008439322
90	0x3a06db14	0.00051443395
91	0x3c47c483	0.012192848
92	0xbd237a8c	-0.03991179
93	0xbcc7ccd5	-0.024389664
94	0x3da2ad4c	0.0794321
95	0x3c92decf	0.017928509
96	0xbc615087	-0.013752109
97	0xbc1e659e	-0.009667782
98	0x3d981e37	0.07427638
99	0x3cf6ee5f	0.030142961
100	0x3dd873c7	0.10568958
101	0xbcb3ca58	-0.021947071
102	0xbbe7272e	-0.007054231
103	0xbc6b2cb8	-0.0143539235
104	0xbd017279	-0.03160331
105	0xbdb1730b	-0.08664521
106	0x3c85685d	0.016285116
107	0xbd0a6fe8	-0.03379813
108	0x3d87e622	0.06635691
109	0xbd858353	-0.06519189
110	0xbd482449	-0.04886273
111	0xbba26737	-0.004956152
112	0xbcb7cb29	-0.022435741
113	0xbb9988fa	-0.0046855183
114	0x3cee1ca1	0.029066386
115	0x39955e52	0.0002848977
116	0x3bd73cc0	0.0065685213
117	0x3c7a4bb5	0.015276839
118	0x3c7f5885	0.01558507
119	0x3d4b532c	0.049639866
120	0x3c71d505	0.0147602605
121	0xbc2d2961	-0.0105689475
122	0xbc586ff8	-0.013210289
123	0xb93861d6	-0.00017584054
124	0xbd8ad87d	-0.06779573
125	0xbc8dc562	-0.017306034
126	0x3c08f32b	0.008358757
127	0xbc61a2ed	-0.013771755
128	0x3d1bfc85	0.03808262
129	0xbbaa6244	-0.0051997025
130	0xbbc211fd	-0.0059225545
131	0xbca8081f	-0.020511685
132	0xba16a018	-0.0005745902
133	0x3d68470b	0.056708377
134	0x3d883769	0.06651194
135	0x3d0b9ac6	0.03408315
136	0xbbc22474	-0.0059247557
137	0xbd6aab68	-0.057292372
138	0xbb434b92	-0.0029799682
139	0x3ce32b1a	0.027730513
140	0xbbc9a39a	-0.006153536
141	0xbce521d8	-0.02797024
142	0xbc8c3f3e	-0.01712
143	0xbc3f4283	-0.0116735725
144	0xbbee80db	-0.0072785444
145	0x3d0e9ea5	0.034819264
146	0xbcca12a1	-0.024667086
147	0x3d21752b	0.03941838
148	0xbbf7af05	-0.0075587058
149	0x3c3ae19e	0.01140633
150	0x3b7b742e	0.003836881
151	0x3d9d33c3	0.076758884
152	0x3ab72069	0.0013971451
153	0xbbd4d4e8	-0.006495107
154	0x3d50aea6	0.050947808
155	0xbc9d6827	-0.019214703
156	0x3d8df0c2	0.069306865
157	0x3cd7105a	0.026252914
158	0xbc120b16	-0.008913776
159	0x3b65b653	0.00350513
160	0xbd32c2ee	-0.04364293
161	0x3d01b566	0.031667136
162	0x3b24b24c	0.0025130687
163	0xbc24bde3	-0.010055038
164	0xbd167522	-0.0367328
165	0xbcba2b48	-0.022725716
166	0xbd2ee1dc	-0.042695865
167	0x3c783ce1	0.015151233
168	0xbc8278bf	-0.015926717
169	0x3d533ddd	0.05157267
170	0x3cad4198	0.021149442
171	0x3d08eaf6	0.0334272
172	0xbb94149f	-0.00451906
173	0x3c9efa29	0.019406395
174	0xbd1fa143	-0.03897215
175	0x3caf05d5	0.021365086
176	0xbc376143	-0.011192623
177	0xbad5ce99	-0.0016312181
178	0xbc2c7623	-0.010526213
179	0x3c5c8c23	0.013461146
180	0xbd52e2cb	-0.051485818
181	0x3c83958b	0.016062519
182	0xbca4621c	-0.020066313
183	0xbb90bc46	-0.004416975
184	0xbd24d69a	-0.040243722
185	0xbca73bf0	-0.020414323
186	0x3c34436b	0.011002402
187	0x3b50bbdd	0.0031850256
188	0xbc8fa19a	-0.017533112
189	0x3cdbec20	0.026845992
190	0x39763618	0.0002348054
191	0xbd47166f	-0.04860538
192	0x3b322d06	0.002718748
193	0x3cc65360	0.024209678
194	0xbdba1024	-0.0908511
195	0x3b867d58	0.0041042976
196	0x3d2a6aaf	0.041605648
197	0x3d40c6b7	0.04706451
198	0x3cdf853e	0.027285215
199	0x3da0dea9	0.07854969
200	0x3cfbe9cf	0.030751137
201	0xbc4d87cd	-0.012544584
202	0x3c53cee0	0.012927741
203	0x3c5afc5c	0.013365831
204	0xbc4c5123	-0.012470516
205	0xbd1a1612	-0.037618704
206	0x3b9dcf8a	0.0048160003
207	0xbcb278a5	-0.021786043
208	0xbab73476	-0.0013977427
209	0x3c803c4f	0.015653757
210	0x3d345dde	0.04403483
211	0x3c09c79c	0.008409407
212	0x3d4e6533	0.05038948
213	0x3c885bbb	0.016645303
214	0x3d05b50f	0.032643374
215	0x3add5033	0.0016884863
216	0x3c5ae4b0	0.013360187
217	0xbd093dd5	-0.033506233
218	0x3d5b5551	0.05354816
219	0x3d63aba6	0.05558362
220	0xbb5990b5	-0.0033197824
221	0xbcbc44c0	-0.022982001
222	0x3d2830ef	0.04106229
223	0xbc657a38	-0.01400619
224	0xbc8589a7	-0.01630099
225	0xbbd4de67	-0.006496239
226	0xbc9eb0a1	-0.019371333
227	0x3abd5e3b	0.0014447639
228	0xbd1bf5f9	-0.038076375
229	0xbb95aaf5	-0.004567499
230	0x3b7e16fd	0.0038771026
231	0xbd524859	-0.051338527
232	0x3d60744e	0.054798417
233	0x3c8c3d71	0.017119141
234	0x3bd5d7c3	0.006525965
235	0xbc9db640	-0.019251943
236	0x3ca33545	0.019922862
237	0xbc8d0ea6	-0.017218899
238	0x3ac80580	0.0015260428
239	0xbcc1351e	-0.023584899
240	0x3bf25b25	0.007396119
241	0x3d109718	0.035300344
242	0x3cece360	0.028917015
243	0xbd2998a7	-0.041405346
244	0x3c9edda3	0.019392794
245	0x3c0dad51	0.008647279
246	0x3d4a4886	0.04938557
247	0xbc1056b8	-0.008809738
248	0x3d042a8c	0.03226714
249	0xbd99e28c	-0.075139135
250	0x3b73e3ae	0.0037214565
251	0xbc0d1b5c	-0.00861248
252	0xbe336d9c	-0.17522281
253	0x3d470ead	0.04859798
254	0xbdbf8ae9	-0.09352667
255	0x3bc9fb5c	0.0061639976
