MLP_init_params.pt (torch, 49217 bytes, 2 tensors)

layer0.weight f4 [1000, 10]
000000 41 3d da bd e8 1b ab bc 26 f8 36 bd fe 6d 33 3d
       -0.106562145 -0.02088733 -0.044670247 0.04380607
000010 84 28 ac bc de 61 e7 3d 03 4e d9 bd f0 d1 74 3d
       -0.021015413 0.112979636 -0.10610583 0.059770525
000020 9a c0 1d 3d 2f d3 8b bd 17 1a 8f 3d 6f 79 02 3e
       0.038513757 -0.068273894 0.06987398 0.12741636
000030 37 6e e7 bb 05 ac 9f 3d 8b 98 f0 bd 32 df 5c 3d
       -0.007062699 0.07796482 -0.11747845 0.053923793
000040 3b 82 a6 3c 73 9b 5d 3d e9 0c 07 3a 7e 84 28 3e
       0.02032577 0.054103326 0.0005151765 0.16456792
000050 3b c6 c7 ba 9c ce 58 bc 1c 4d fd 3c ba 58 fc 3d
       -0.0015241572 -0.013232853 0.030920558 0.12321611
000060 0a 97 51 bc 2d ba 19 be 32 d8 23 3e ca 3a ea 3d
       -0.012792358 -0.15012427 0.1600044 0.114369944
000070 70 23 9f 3d f8 d0 aa 3e e2 cf 40 3d fd d9 ac 3d
       0.07770431 0.33362556 0.047073252 0.084400155
000080 59 07 59 bd db 3a 46 3d 61 ac da 3d 1b 9f 14 be
       -0.052985523 0.048395973 0.1067741 -0.14513819
000090 b4 95 b1 3d a8 11 a9 3d 6f 38 f2 3d 9c d6 47 3e
       0.08671132 0.08255321 0.1182717 0.1951546
0000a0 28 6f 1d 3d 95 0a 87 bc e2 79 65 be d9 eb 8e bc
       0.038436085 -0.016484538 -0.22409776 -0.017446445
0000b0 ad a4 e8 bd 81 b2 bb 3c 3d 27 1d be 32 7b 34 be
       -0.113595344 0.022912266 -0.15347 -0.1762512
0000c0 3e 56 8f bc e6 f9 b5 bd f0 4a 39 3d 07 12 77 3d
       -0.017497178 -0.08885555 0.04523748 0.060319927
0000d0 c5 74 a0 bd d0 48 2e 3e 7b 93 0e be 95 54 7f bd
       -0.07834772 0.17019963 -0.13923447 -0.062336523
0000e0 24 c2 37 3d bf 19 9b 3d dc 16 dd 3c 72 06 b1 3e
       0.04486288 0.0757327 0.02698844 0.3457523
0000f0 28 1e db 3d ab 00 b2 3d 10 cd 33 3d d0 66 64 3d
       0.10699111 0.08691534 0.043896735 0.055762112
000100 b1 fe 83 bc a5 10 ab 3d 62 1f 44 3d f3 99 e9 3d
       -0.016112657 0.08352784 0.04788149 0.114063166
000110 66 5e d6 3c 27 59 af 3d b7 7d bc 3d 68 b9 51 3d
       0.02616806 0.08561926 0.09203666 0.051202208
000120 da b9 ba ba 3b 9a a7 bd 25 9a 32 bd a4 2a a5 3d
       -0.0014246062 -0.08183714 -0.043604035 0.08064774
000130 b8 b0 8f bd ce 14 d6 3b 42 04 37 3d b5 bb 25 be
       -0.07016128 0.006533242 0.044681795 -0.16184886
000140 14 77 82 3d d7 fb 41 bc 75 9b d4 bb b0 7d 5c bd
       0.063703686 -0.011839828 -0.0064882585 -0.053830802
000150 8f b1 0e 3d f8 7d 97 3d 46 b3 0e be c1 c8 8f 3d
       0.0348373 0.073970735 -0.13935575 0.07020713
000160 4b 2b 80 3e 2c b6 d5 bd 25 72 4c 3e 92 db 49 3e
       0.2503303 -0.10435137 0.19965418 0.19712666
000170 e3 55 98 3d f9 d7 2a 3d 92 bd 00 3e ce 7e 4d 3e
       0.074382566 0.041709874 0.12572315 0.20067903
000180 be a7 da 3d 82 64 7a 3d 60 de d0 3d 6d 88 3a 3e
       0.106765255 0.061131008 0.10198665 0.18216105
000190 09 0f 94 3d 80 70 60 bd 5e 6e 69 be 39 54 1d be
       0.0722943 -0.05479479 -0.22796008 -0.1536416
0001a0 f2 4f 9f 3c b4 ee bb bd 20 28 ce bd 6a f1 9b bd
       0.0194473 -0.091763884 -0.10066247 -0.076144055
0001b0 eb 5c 08 bc 62 da 42 3d 43 ac 96 bd 40 c2 17 bd
       -0.008322935 0.047571547 -0.07357075 -0.037050486
0001c0 38 bf 7c 3c 0a 9b 8f bd 2d 43 23 3d 0f 6c 80 bc
       0.0154264495 -0.07011993 0.039858986 -0.015676526
0001d0 2c 64 94 bd f8 f8 4c be e9 5b ba bd 7f 0e c7 3d
       -0.07245669 -0.20016849 -0.09099562 0.09719562
0001e0 71 fc d0 bb ec e8 97 3d 45 3e 11 be a5 40 43 be
       -0.0063777496 0.07417473 -0.1418391 -0.19067629
0001f0 da 28 2f 3d 53 28 99 bc 73 50 3d bd 0d 06 86 be
       0.04276357 -0.018695986 -0.0462193 -0.2617649
000200 ab d8 15 be 5f f2 14 3e c2 0a 78 bd b1 c8 75 3d
       -0.14633434 0.14545582 -0.060557134 0.060005847
000210 10 39 0c bd 83 0c be bb 92 4b 3b 3e 72 95 63 3e
       -0.034234107 -0.0057998314 0.18290547 0.22224978
000220 7d 8c bd bd 16 f6 3c be 6b 3d fa bd 7f fb d1 3d
       -0.09255312 -0.1845325 -0.12218746 0.10253047
000230 2d 09 2e 3e fe f6 e8 3d e8 cb 2e 3d 3a 26 0b be
       0.16995688 0.11375235 0.04267493 -0.13588801
000240 e7 1f 1f bd d0 c5 d0 bd 9f 84 9b 3d 88 29 48 be
       -0.038848784 -0.1019398 0.07593655 -0.19547093
000250 9c 3f 7c bd d9 7c 75 3e 1f ee aa bd 3c 1d 4d 3d
       -0.0615841 0.23973407 -0.08346199 0.05007671
000260 93 5e f1 bd 2f 63 22 3e 16 bb 69 be 8a 18 5a bc
       -0.11785617 0.15858148 -0.22825274 -0.013311515
000270 57 71 d0 bd 61 f7 f3 3d cb b2 18 bc 1e 96 99 3d
       -0.10177868 0.11912418 -0.009319971 0.07499336
000280 15 af 8d bd a9 c2 8e 3d b9 94 ae bd 88 e3 be bc
       -0.0691816 0.06970722 -0.0852446 -0.023301855
000290 78 51 b1 bc b2 84 b9 3b 04 b7 00 be d9 83 d2 bd
       -0.021645293 0.0056615705 -0.12569815 -0.10279054
0002a0 55 44 b8 bd 8e 21 92 bd ba 3d a5 bd c5 00 a1 bc
       -0.08997408 -0.07135306 -0.08068414 -0.019653687
0002b0 85 93 e7 bc ac a5 19 bd e3 98 ec bd 17 3e 02 bd
       -0.028268585 -0.037511513 -0.11552598 -0.031797495
0002c0 56 87 b0 bd a1 81 34 bc 2e c8 67 bd 61 40 8f bd
       -0.08619563 -0.011017234 -0.05658739 -0.06994701
0002d0 07 c7 f3 bd 5d 4b 0c 3d 8c 6a ab 3d d1 6b 25 bd
       -0.11903196 0.03425156 0.083699316 -0.040386025
0002e0 6e d7 33 bd 60 8a 11 be 6b 9e 89 3d 76 2d 04 bd
       -0.04390662 -0.14212942 0.06719669 -0.032269917
0002f0 f6 a9 cb bd 2a 5f e2 3d c0 6d 0d 3d 5b 8e d1 3d
       -0.09944527 0.11053307 0.034528494 0.1023223
000300 20 39 47 3d d0 98 57 3d e5 a6 7f 3d c9 f6 4d 3c
       0.048638463 0.052635968 0.062415022 0.012571045
000310 70 d9 1b 3e 99 6b 67 3d cb d5 02 3e fc 3f f0 3e
       0.15219665 0.056499097 0.12776868 0.46923816
000320 bc b0 46 3d b8 b3 ce bc 92 b8 a7 bd fe 82 14 bd
       0.04850839 -0.025232181 -0.08189501 -0.036257736
000330 9a 74 82 be 94 57 17 be d3 be 0e be 62 50 6d 3d
       -0.25479585 -0.14779502 -0.13939981 0.057937987
000340 68 c2 88 bd 58 df 39 be 60 6d 50 bd 3f 66 c1 3d
       -0.06677705 -0.18151605 -0.050885558 0.0944333
000350 95 88 d4 bd 56 7a 14 3e 1d 9e 54 be 28 6e 5a 3e
       -0.103776135 0.14499792 -0.2076344 0.21331084
000360 9e 9a d0 bc cc 03 40 3c 80 72 11 be 59 c5 38 3e
       -0.025464352 0.011719655 -0.14203835 0.18044032
000370 1c 19 32 bc b1 64 35 3d 18 6e a6 bc af 09 d6 3d
       -0.010870244 0.04428548 -0.020316169 0.10451066
000380 d2 65 00 3d 6b 6b b2 3d 89 53 07 3e f9 5e 0a 3c
       0.031347103 0.087118946 0.1321546 0.008445495
000390 5c 60 c3 bd e7 02 ce 3e 40 8e aa 3d 41 91 d5 3d
       -0.095398635 0.4023659 0.08327913 0.104280956
0003a0 31 fb 3f bd 47 1a 4c be 85 66 35 3c a0 63 93 3d
       -0.046870414 -0.19931899 0.011071806 0.07196736
0003b0 7c 80 d0 bd 88 8f c3 bd 15 0b 79 3d 43 56 fc bc
       -0.101807564 -0.09548861 0.060801584 -0.030802852
0003c0 c4 4f 07 be 35 f9 62 3d a2 be d5 bd fa 7f fc 3d
       -0.13214022 0.055413444 -0.10436751 0.12329097
0003d0 a5 4b 15 be 63 a1 81 3e 82 93 6d bd 53 d6 ff 3d
       -0.14579637 0.2531844 -0.058002003 0.12492051
0003e0 11 2a c0 bc 56 9c 75 bd 35 72 a2 3d 7a 45 a4 bc
       -0.023457559 -0.059963547 0.079319395 -0.02005266
0003f0 9e fd 5f be 37 93 b5 3d 39 3d 09 be 67 1c a9 bd
       -0.21874091 0.0886597 -0.13402261 -0.082573704

layer1.weight f4 [2, 1000]
000000 70 d0 d9 bc 49 70 c5 3c 58 90 d5 bc 8e db 91 bc
       -0.026588649 0.024101393 -0.026069805 -0.017804887
000010 d8 b8 90 bc cd 6d db 3c 33 d7 1f bc 3a c5 88 3c
       -0.017666265 0.026785756 -0.009755897 0.016695607
000020 9d a0 5b bd 4a f1 75 bb 0a 19 ce 3c 7d 51 e6 3c
       -0.05361997 -0.0037527853 0.025158424 0.028115029
000030 eb 7b 0d 3d 1d bf 10 bd 99 a5 fc bc 22 98 95 bc
       0.034542006 -0.03533851 -0.030840682 -0.01826102
000040 74 f3 ec b8 42 ab b2 ba 56 66 71 bd 9f 6f 03 3d
       -0.000112987036 -0.0013631361 -0.058935486 0.032088872
000050 05 51 c5 3c e3 6a 11 bd d8 fe f5 bb 2a 57 77 bc
       0.024086485 -0.035502326 -0.0075071864 -0.015096465
000060 2b 75 30 3c dd 21 1f bd 09 91 87 bd f5 e7 63 3b
       0.0107701225 -0.038850654 -0.0661946 0.0034775708
000070 d1 a8 25 bc a0 53 b1 bc 84 44 a4 3c 3f 59 4b b9
       -0.01011105 -0.02164632 0.020052202 -0.00019392835
000080 de 38 39 bd 41 13 23 bc e9 79 01 3d 5d 0f 08 3c
       -0.04522025 -0.009953321 0.031610403 0.008304444
000090 be 3a a0 3a 73 21 61 bc 8a 64 bc 39 59 f7 d1 3a
       0.0012224538 -0.013740885 0.00035933062 0.001601915
0000a0 f4 2d 14 bc a8 b0 55 3c d7 a1 02 3b 9c d8 04 3c
       -0.009044159 0.013042606 0.001993289 0.008108284
0000b0 47 d0 2a 3d c5 56 7e 3a 88 3e 2a 3d 94 c6 c5 3b
       0.041702535 0.0009702261 0.04156354 0.0060356352
0000c0 bc 1b 1a 3d f6 ef 16 3a 25 92 df 3b 9f 4c 01 3c
       0.037624106 0.0005757803 0.0068228417 0.007891803
0000d0 f3 0c 43 bc 82 be 2e bd c9 16 31 3d a3 88 aa bc
       -0.011904943 -0.04266215 0.04323462 -0.020817107
0000e0 ab 1e 85 bb e6 2c 58 bc 8b 69 21 bb c4 e5 50 bb
       -0.004062494 -0.013194298 -0.002462956 -0.0031875232
0000f0 e3 ac cd 3b ce 14 1c bc c3 19 74 bb ff dc e1 bb
       0.006276713 -0.009526445 -0.00372468 -0.0068928
000100 07 6f bc 3c f7 f7 9f bc 98 64 63 bc 82 4f 32 3d
       0.02300216 -0.019527419 -0.013878964 0.043532856
000110 63 2e 10 3c 06 68 b9 bc f2 73 39 bd 67 40 3e bd
       0.008800122 -0.02263261 -0.04527659 -0.046448138
000120 55 04 90 bc f6 c1 b8 3c 94 99 c5 bc 47 36 5c bd
       -0.01758019 0.022553425 -0.024121083 -0.0537627
000130 ed b0 58 bd 23 5d 2d 3c 06 2e d7 bc 10 5f a9 3c
       -0.052903105 0.010581288 -0.026267063 0.020675212
000140 89 c8 24 3c f9 65 64 b9 fd 76 80 bc 40 4b 57 3d
       0.010057577 -0.00021781762 -0.015681738 0.052562
000150 4c 61 b0 bc 53 6e 08 bb 69 1e 84 3c 65 c4 48 bc
       -0.02153077 -0.0020817711 0.016127782 -0.012253855
000160 a5 16 58 3c 55 21 26 bd 76 5a 22 bc e3 03 31 3d
       0.013188993 -0.04055913 -0.009909263 0.043216597
000170 b2 9e 58 bd ce ee 0d 3d 0f 65 f8 bc e5 1f 64 bc
       -0.05288572 0.03465157 -0.030321626 -0.01392362
000180 f1 0e b9 3c dc 14 8a 3c 08 58 51 bc 9e 65 36 b8
       0.022590132 0.01685565 -0.012777336 -4.348682e-05
000190 c8 fb 01 bd ae 45 81 3c 54 d1 c1 bb 89 ed 4b bc
       -0.031734258 0.015780296 -0.0059148464 -0.0124467695
0001a0 55 ec ea 3c 13 f9 f4 bc 6a 2e 6a 3c 34 2f 40 3c
       0.028677145 -0.029903924 0.014293293 0.011730004
0001b0 2d 03 d3 bc a0 9d 2c bb 84 b3 02 3c 95 22 1b 3d
       -0.02575835 -0.002633907 0.00797737 0.037874777
0001c0 0d 79 0c bc 93 8a 43 3c 82 d8 f7 3a 74 b9 ad 3c
       -0.008573783 0.011934894 0.0018909129 0.021206595
0001d0 ec 8b de 3c e1 90 50 3d 34 d2 f4 3c ff 24 50 3d
       0.02716633 0.050919417 0.029885389 0.050816532
0001e0 85 ca 37 bc 94 b6 f3 ba 71 ad 99 3c 4c e5 62 3c
       -0.011217718 -0.0018593841 0.018759461 0.013848614
0001f0 a2 8c 5b bc 95 b6 af 3c 58 cd f9 3c de d6 9e bc
       -0.013400229 0.021449367 0.030493423 -0.019389566
000200 23 15 04 3c c7 ae 80 3a 92 b7 d7 bb 70 47 e3 3c
       0.00806168 0.0009817713 -0.0065831626 0.027744025
000210 f5 1a 05 3d 16 a9 ed bc 8e 43 b2 bc ce cd 6b bc
       0.03249641 -0.02901129 -0.021760728 -0.014392329
000220 93 74 e9 3c 18 c2 a6 3b 56 c6 4b bb e1 27 04 3d
       0.02849797 0.0050890557 -0.003109356 0.032264594
000230 bd 82 db 3c 4d 3f cf 3b b5 91 bd 3c a6 5b b0 b7
       0.02679574 0.0063246847 0.023140768 -2.1023512e-05
000240 7e 4c f0 3c 71 2e 0b 3d 80 5d 9c 3c 13 b4 ca bc
       0.02933335 0.033979837 0.019087553 -0.02474407
000250 05 5b 00 3c 73 27 a4 bb 70 aa 8a bc 91 d6 5b 3c
       0.007834201 -0.0050095855 -0.016926974 0.013417856
000260 e9 e8 01 bc d8 8e 5a bc 45 37 0c 3d 7d 37 d8 bc
       -0.007929065 -0.013339721 0.034232397 -0.026393646
000270 a8 3f 6d bc 13 8c 82 bb 9c 93 08 bb c0 ed 01 3c
       -0.014480509 -0.0039839833 -0.0020839935 0.007930219
000280 26 51 ce bc df 67 f0 3c 14 ff a8 3c 2e 1e 97 3c
       -0.025185179 0.029346405 0.020629443 0.018447008
000290 08 9b 4a 3c 85 51 19 39 90 11 5e 3b ab 46 db 3c
       0.012366064 0.00014621585 0.003388498 0.026767096
0002a0 2b ec dc 3c c5 f3 bc bb 6e 70 09 3b 90 18 cf bb
       0.026968082 -0.0057663643 0.0020971554 -0.0063200668
0002b0 72 7b 30 bc 5a ca e4 3b 57 e0 d4 bc 3e 2b 10 bd
       -0.010771619 0.00698213 -0.02598588 -0.03519749
0002c0 67 e4 0e bd 81 ba e9 bc 01 5f ec 3b 20 e5 8c 3c
       -0.03488579 -0.028531315 0.007213474 0.017199099
0002d0 6a df 3d 3b 32 a5 51 3c 83 a8 cf bc 60 53 55 38
       0.0028972276 0.012795733 -0.025348907 5.0860806e-05
0002e0 85 4e ac bc 92 16 3a 3d 4c c8 61 bc 95 05 f7 b9
       -0.021033535 0.04543168 -0.013780665 -0.0004711567
0002f0 16 f9 07 bd 45 87 2e 3d d7 a4 5a 3c 39 42 22 3c
       -0.03319653 0.04260947 0.013344965 0.009903484
000300 f7 40 07 b9 ad 1e c0 bc 2d 7a 08 bd 8e 80 9d 3c
       -0.00012898805 -0.023452127 -0.03331964 0.019226339
000310 0f 18 87 bc a1 a7 9c bc 00 b8 12 bb 05 91 4d bc
       -0.016490964 -0.0191229 -0.0022387505 -0.012546782
000320 cd 76 1d bb 51 24 c7 bc 58 fd ec bb 52 0d db bb
       -0.002402711 -0.02430931 -0.0072323494 -0.0066849375
000330 cd cd b3 bc ed 92 0f 3b a6 cc 05 3c 25 5d 01 3c
       -0.02194872 0.0021907643 0.008166468 0.007895743
000340 dc 78 18 3d 44 dd 64 3c 89 63 09 bd 38 27 9b bc
       0.037224635 0.013968769 -0.03354219 -0.0189396
000350 0e 83 41 bd fd b2 80 3b 51 fa 52 3d c2 e8 a9 3c
       -0.047244124 0.003927587 0.05150825 0.02074087
000360 e0 95 dd 3c f6 c8 a7 bc dc 3d fe bc 21 f6 86 bb
       0.027049005 -0.020481568 -0.031035356 -0.0041186963
000370 1e dd 9b bc 57 b6 a2 3c 60 b7 ab 3c 12 e7 74 3d
       -0.019026335 0.019862337 0.020961463 0.05979068
000380 af 2a dc 3a cb 24 a3 3c 41 d7 fa 3a 03 13 0a 3b
       0.0016797389 0.019915005 0.0019137637 0.002106846
000390 39 5a ec bc e0 ab 24 3c 6c 21 2c 3b 79 2b 4c bd
       -0.028851615 0.010050744 0.0026265038 -0.049846146
0003a0 0d 4b 46 3c 82 3b 34 3c 31 62 02 bd 51 63 8d 3c
       0.012102854 0.011000516 -0.031831924 0.017259272
0003b0 a4 8e e2 3c 32 05 49 3c 1a 92 fe bc e7 da 37 3c
       0.027655907 0.012269305 -0.031075526 0.011221624
0003c0 d5 51 69 bd 34 12 61 bc b2 77 b5 bb 17 2c 1a bd
       -0.056962807 -0.01373725 -0.0055379504 -0.037639704
0003d0 f6 9b b0 3c 4e 2c 61 bc bf a6 27 3d 76 6b 65 bd
       0.021558743 -0.013743473 0.040930506 -0.056010686
0003e0 28 f8 b9 3c 51 3e 95 bc 6c 0c 13 bd 38 03 d9 38
       0.022701338 -0.018218191 -0.03590052 0.00010347966
0003f0 c3 10 00 bd aa 70 63 bb e2 00 db bc 9c 56 d5 3c
       -0.031265985 -0.0034704604 -0.02673382 0.026042275
