MLP_init_params.pt (torch, 49217 bytes, 2 tensors)

layer0.weight f4 [1000, 10]
00000000: 66d4 43bd fb3e 913e b426 983e 451f 75bd
00000010: 3c9b 9dbe e0d7 573e 4a72 2cbe 04d1 a63c
00000020: 86f0 8c3e 4d71 cc3d 70c7 c2bd 1507 81be
00000030: 0752 6a3e e7a1 00be 6784 9d3e adf3 9c3d
00000040: e575 28be 0732 4b3e cd05 53be 5125 bdbd
00000050: a0c5 463e 231e f0bd d3a2 1f3e 490c a5bd
00000060: fefe 18be 7905 9abe 4926 94be 1ae0 853d
00000070: 772e 69be e466 84be 4d55 57be f9c6 723e
00000080: b5d6 82be a40c debd 0b04 863e dce5 4b3e
00000090: 0612 993e d0b7 9cbd 5a5d c23c 6600 9cbc
000000a0: e8b3 cb3d 8ee8 7a3e 4404 91be 8bf2 83bd
000000b0: 1565 673e e6d3 85be 3589 a0bd a64a 32be
000000c0: 2da9 823e 0fd6 46be 40ad 0c3e 943f 89bc
000000d0: 1439 223e dd3e 99be eb9e 21be 875e 50bb
000000e0: 7702 96be f39c 803e b1c7 f6bd 37a5 e43d
000000f0: 5966 a43d 5bb0 68bd 2314 7c3e 10d5 e5bb
00000100: 5eef 553e a4d0 4dbb 8dfc e63d 24c6 2cbe
00000110: 1673 8cbe bc56 28bd e31b 4fbd b5fd c3bd
00000120: c63c 9b3e 7b60 65be a8b8 52bc 5343 af3c
00000130: e8e5 8cbe ce37 383e 7a2d 043d 4979 4dbd
00000140: c2cf 993e 1af9 dcbd 14f3 463d 6c0d 55bd
00000150: 260b dc3d 80af 203e 8158 31bc 686e dabd
00000160: d00b 34be 547e 093e 2d11 60bd 822c 893e
00000170: 2fb0 303d 9b9a 5cbd 1789 cbbd f838 ac3d
00000180: 31d4 7d3e e90b 483e ec70 bd3d 6af7 6dbd
00000190: c734 8dbe b94f b3bd 5181 7dbe c839 e7bd
000001a0: 3624 c1bd 9a04 f7bd d0dc 5dbe 4eca e63d
000001b0: 58b8 89bb f62c 17be e5b8 a1be d023 2c3e
000001c0: 24ae 853e 1335 b13d 63eb 4bbd e2b5 953e
000001d0: 6186 da3d 566c adbd 793a 8a3e 3695 9b3b
000001e0: 8dc1 9d3e f409 943e 25fb 703e ece2 133e
000001f0: 2cbb 9dbe 36d9 543c 4363 993e bfd7 32bd
00000200: d7b2 89be 8d70 783e 4535 9f3d 44df 203e
00000210: 59c3 8cbe 5d5f 01bd bdaa 6b3e fc88 49be
00000220: 39ff 943d 3b65 e43d 3fac c13d 569f 2cbe
00000230: 2ab9 29be 546b 79bd fa17 92be 643f f6bd
00000240: 2a92 973d 9b57 d43b 862d 413e b025 8dbe
00000250: 9cc8 8c3e bee8 a73d a74e 61be 3505 1f3e
00000260: 448b 38be e8f0 94be 603b e5bd 0f5d 723e
00000270: 79d0 0bbe d615 413d 3878 49be 1fce 3bbe
00000280: 6156 b7bd 41cc 4d3c a04e 923d 1978 813e
00000290: aeaf 7d3e 41eb 7fbe 1f8f 2ebe 1e54 ad3d
000002a0: dffc 4e3e 1805 d7bb 55e9 863e 797d bdbd
000002b0: e72a 15bd 35ac 48be 8a5c 823e ab6e 80be
000002c0: fb8e 38be 0f04 4ebd 3532 12be 8ee6 d9bd
000002d0: 3075 abbd 6648 dbbc 1641 6b3e a46c 723d
000002e0: 5fa6 20bc e180 773e fcd2 0f3e 5ccb 3c3e
000002f0: 5eeb 333e 5beb 0cbe 9c0a 1b3e 1653 66be
00000300: 8d2d 543e fd18 96be 7bd6 9c3b 9fae e9bc
00000310: 8fa7 453e 6bbe d93d f3a1 67be bb61 87be
00000320: d993 5f3e 8739 7b3e 7616 453e bc17 37bd
00000330: 98c1 12bd 2cc1 a03d e47a 4b3d af05 81be
00000340: 48b9 103d 502f 9fbd ff8d 97be c629 8ebe
00000350: dafd dd3b ae61 0cbe ab79 953e cdd4 983e
00000360: 2f65 0e3e 8fcc 863e 53d1 7f3e e423 53be
00000370: 134b 9abe 827b fd3d 6138 863e 6ba8 9c3d
00000380: 0291 5bbd 7010 d13d 1eb0 5abd 094a 883e
00000390: 8ac1 8c3d 6a2d 7d3e 205e c9bd e600 c83d
000003a0: 1d71 8dbe 9473 bf3c 921b 8d3e f6b6 d93d
000003b0: 8dd2 2b3e e564 023e 5f23 2ebe 611f 253e
000003c0: d06d 28be 0c71 9bbe 4b0e 8f3d 789b 3bbd
000003d0: eff0 93be 310a 753e 6d60 9e3e e9d8 74be
000003e0: 83f3 283e cdd4 f5bd cb4a 82be a489 1b3e
000003f0: 993a 763e 2519 01bd f046 dcbd dd67 713e
-0.04780998 0.28368363 0.29717028 -0.059844274 -0.30782497 0.21078444 -0.16840473 0.020363338
0.27527255 0.09982548 -0.09510696 -0.25200716 0.22882853 -0.12561761 0.30765077 0.07663665
-0.16451223 0.19843303 -0.20607682 -0.09235633 0.19411325 -0.11724498 0.15589456 -0.08058984
-0.14941022 -0.300823 -0.2893546 0.065368846 -0.22771631 -0.2585975 -0.21028633 0.23708715
-0.25554433 -0.10842255 0.2617496 0.19911903 0.29896563 -0.07652247 0.023726154 -0.019043159
0.09946424 0.24502775 -0.28323567 -0.06442746 0.22597153 -0.26138228 -0.0783867 -0.17411289
0.25519696 -0.19417594 0.13737965 -0.01675395 0.15842086 -0.29930773 -0.15783279 -0.0031794624
-0.29298756 0.25119743 -0.12049807 0.11164325 0.08027334 -0.05680881 0.24617057 -0.0070139244
0.20892093 -0.0031404877 0.11278639 -0.1687246 -0.27431554 -0.04109834 -0.050563704 -0.09569875
0.30319804 -0.22400086 -0.012861408 0.021394407 -0.27519155 0.17990038 0.032269932 -0.050164495
0.3004132 -0.107897 0.04857166 -0.052014753 0.10744314 0.15691948 -0.010824324 -0.106655896
-0.17582631 0.13427097 -0.05470388 0.2679177 0.04313677 -0.05385838 -0.09938257 0.084093034
0.24787976 0.19535793 0.09250054 -0.05809728 -0.27579328 -0.0875544 -0.24756362 -0.11290318
-0.09430735 -0.120614246 -0.21666265 0.11269055 -0.0042028837 -0.14763245 -0.31586376 0.16810536
0.2610942 0.08652701 -0.04978503 0.29240328 0.10670162 -0.08467929 0.26997736 0.004748012
0.3081173 0.28913844 0.23533304 0.14442033 -0.30806863 0.01299124 0.29958543 -0.043662783
-0.26894256 0.24261685 0.07773832 0.15710169 -0.27492788 -0.031585086 0.2301435 -0.19681162
0.07275242 0.11152121 0.094566815 -0.16857657 -0.1657454 -0.06089337 -0.28533918 -0.120238096
0.074009255 0.00648017 0.18865022 -0.27567816 0.27496803 0.08198689 -0.2200266 0.1552933
-0.18021876 -0.29090047 -0.111929655 0.23668312 -0.13653745 0.047139965 -0.19674766 -0.18340348
-0.08952022 0.012560905 0.07143903 0.2528694 0.24774048 -0.24992086 -0.17046784 0.0846331
0.2021365 -0.0065618865 0.26349893 -0.09252448 -0.036417868 -0.19596942 0.25461227 -0.25084433
-0.18023293 -0.05029684 -0.14276965 -0.10639678 -0.08371961 -0.02676792 0.22974047 0.05918564
-0.009805291 0.24170257 0.14045328 0.1843695 0.17570254 -0.13761656 0.15140766 -0.22492632
0.20720501 -0.2931594 0.0047863103 -0.028525649 0.193022 0.106320225 -0.22620372 -0.2644175
0.21833743 0.24533664 0.1924685 -0.04470037 -0.035829157 0.078493446 0.049677745 -0.2519965
0.035332948 -0.07772696 -0.29600522 -0.27766246 0.006774646 -0.13709137 0.29194388 0.29849854
0.13905786 0.2632794 0.24982195 -0.2061916 -0.30135402 0.12377073 0.2621489 0.07649311
-0.053605087 0.10208213 -0.053390615 0.26618984 0.06872852 0.24724355 -0.09832406 0.09765796
-0.2762536 0.023370542 0.27560097 0.106306 0.16779537 0.127338 -0.1700568 0.16125251
-0.1644814 -0.30359685 0.06985148 -0.045802563 -0.28894755 0.23929669 0.30932942 -0.2391087
0.16499142 -0.12003479 -0.25447688 0.15189224 0.2404579 -0.03151812 -0.10755718 0.23574777

layer1.weight f4 [2, 1000]
00000000: 5484 ed3c 8e1a d5bc 387e 62bc ccc1 923c
00000010: ad1a 3bbb 9f63 ea3c f165 febc 4795 f8ba
00000020: cf4f 893c e744 adbc f728 e3bc 2ddd e13c
00000030: 6599 913c c44a 24bc 5a52 f6bc 406e a7bc
00000040: 741b 0f3c 3a03 98bc 5f3d c83b 48e7 173c
00000050: bb50 9cbc ecb3 38bb 3864 9dba 5aa9 c7bc
00000060: 7c86 84bc f4cc 22bc 4ad8 e03c d0d4 7dbc
00000070: 507c 183b 335e 763c 8b78 f1bb d2eb 9abb
00000080: 6372 cf3c 397c 8b3c d9b9 ed3c 3c68 dabc
00000090: e224 b83c cae1 5b3b dffc f8bc 8263 bfbc
000000a0: 92ce 6c3c fbe4 9cbc 9797 f8bc 4a39 813b
000000b0: d283 fcbc 5192 c9bc 06b0 b13b 12b1 73bc
000000c0: fc75 ae3c 8050 9a3c d386 153c cccb c63c
000000d0: c19e 73bc df14 043b de06 af3c 4a9c debc
000000e0: 37d6 9cbc 3251 96bc ab95 d43c 328f ac3c
000000f0: 3c0c d1bb bc8c edbc 4f51 ef3b 0e2b 74ba
00000100: a15f 9cbc 09b1 8c3b 2f6e 4ebc bf03 973c
00000110: a3f4 e63c 4601 1fbc 9274 cfba 65f9 af3c
00000120: 2e53 01bd cd31 1ebc e66b ebbc 1c26 27bb
00000130: 4d8e d3bc dc64 91bc f4da 4b3b 3abb 7f3b
00000140: 025b 9cbc 2a65 e23c 4d4c 743c f555 be3c
00000150: f244 923c d1fd 063c 2585 f33a 8482 893b
00000160: aeea 48bc 63e1 873c 2f43 973c aefc dbbc
00000170: 810d d73b 2ff5 cb3c cf60 ae3c 9eba c03b
00000180: cbe3 80bc 2d66 be3c aa0c c43c 523e 61bc
00000190: c90a 1e3c b7e5 403c 395f 773c 3c4b bdbc
000001a0: a29b 90bc 5cb7 5c3c 9b50 41bc 3a8d 8a3c
000001b0: 1548 b0bc 03da 79bc a48d 8cbc c94b dfbb
000001c0: 4ac9 debc 8b01 a73c 09b7 f6bb dbfd 233c
000001d0: 3985 d33c c1cc f93c 6446 96bc b5a1 e43b
000001e0: 6aec 68bc 3c80 6a3b 3fa8 febc 5a03 a53a
000001f0: d86f dbbc 198e 6fbb b27e cdbc 53a1 5abc
00000200: b19c cabc 509e 72bc 8129 c8bc f797 aebc
00000210: b34b ed3c 942a b9ba a09b 7abc f03c 9b3c
00000220: 7e28 bd3c 79c7 683c fdfd 903c ef01 f5bc
00000230: af6c b93c 55d3 9f3b dcc9 833c 015d d83c
00000240: 39c9 69bc 6da6 b13c 2ce6 ae3b 65c0 54bc
00000250: 9075 a13c 0dc4 09bb e1cb 8ebb 8e3b 003d
00000260: 83ea cebb ea01 39bc a45a 093b 29bf 833b
00000270: bec1 313c e069 e83b 66cc 82bc fa30 453c
00000280: 014a b03c ef76 9fbc dde2 e13c 6a49 d1bc
00000290: ae66 ff3c f208 31bb 7a09 743c b45b 83bb
000002a0: 14df f23c d373 39bb a56a ebbb f6f3 48bb
000002b0: 1f29 dc3b 6238 3ebb a66a f73b 890a 09bc
000002c0: 3841 bb3c 88a0 b23c 6284 a9bc 3c0a 283c
000002d0: 3689 e33c d76f eabc 6b0b aabb 6032 d9bc
000002e0: b67c 6d3b f021 843c 10ff 2bbc dcc8 08bc
000002f0: c3fc 803c 4b79 abbc e5cc 8c3c f842 6f3c
00000300: cfe8 dc3c 06ff 3d3c 5f1b 12bc 7d48 65bc
00000310: cf79 9b3c 72fe c23c a490 893c 574c 7f3c
00000320: 10b9 673c 3dc3 dd3a 1294 213a d427 31ba
00000330: 4bec b0bb 8b5c 213c 2f85 a23c c79f a5bc
00000340: 6004 e7bc 1744 7f3c d5b9 483c d46e edbc
00000350: 5e05 5c3c b2f2 40bc ff16 36bc 067f c8bb
00000360: fc0f d539 493a 28bc eb5a 18bc 96cc 003c
00000370: 6c48 04ba 8d51 fabc c47c d43c cf64 82bc
00000380: 0250 1fbc e3d4 67bc c5c5 59bc f500 61bc
00000390: f9c2 f6bc 9b2e d9bc 1696 bf3a 22bd d73c
000003a0: 3667 abbc 4463 dcbc 089e b8bc e4f8 f83c
000003b0: 6e0a b23a 92b7 e0bc 9f08 ffbc 91ee 3dbc
000003c0: ce1b f33c 5fae 00bd 4c38 1b3c b608 a53a
000003d0: 27e8 98ba 2bfe 79bc 81e8 1eba 63d5 963a
000003e0: e9c3 f2bc 604b b0bc 7f01 343c 19b2 05bc
000003f0: 6c42 f83c b239 4abc 844c 4cbc 4e43 3bbc
0.028993763 -0.026013639 -0.013824038 0.017914675 -0.0028549836 0.028611956 -0.031054469 -0.0018965387
0.016761689 -0.02115102 -0.027729494 0.027571285 0.01777334 -0.010027591 -0.030068565 -0.020438313
0.008734573 -0.018556226 0.0061108316 0.00927145 -0.019081464 -0.0028183414 -0.0012008017 -0.024372745
-0.016177408 -0.00993656 0.027446885 -0.015492633 0.0023267455 0.015037107 -0.007369106 -0.004727819
0.025323099 0.017027007 0.029019283 -0.026661031 0.022478525 0.0033551329 -0.030394016 -0.023362879
0.014453547 -0.019152155 -0.030345721 0.003943597 -0.030824576 -0.024605902 0.005422595 -0.01487376
0.021296494 0.018837214 0.009126383 0.0242671 -0.014869393 0.0020154042 0.02136558 -0.027174134
-0.019145114 -0.018349264 0.025950273 0.021064375 -0.0063796323 -0.028997771 0.007303394 -0.0009314277
-0.019088568 0.004293565 -0.012599512 0.018434403 0.028192824 -0.009704893 -0.0015827587 0.021481225
-0.031573467 -0.009655428 -0.028737973 -0.0025504893 -0.02582469 -0.017748289 0.0031105848 0.0039021508
-0.019086365 0.02763613 0.01491077 0.023234347 0.017855141 0.0082392255 0.0018579109 0.004196467
-0.012262983 0.016586965 0.018464653 -0.026853886 0.006562889 0.024897186 0.021286396 0.0058816215
-0.01573362 0.02324208 0.02393182 -0.0137477685 0.009646126 0.011773518 0.015098386 -0.023107164
-0.017652337 0.013471451 -0.011799003 0.016913045 -0.021518746 -0.015249732 -0.017157383 -0.006814454
-0.027195591 0.020386478 -0.0075291437 0.010009254 0.025820361 0.030493142 -0.018344112 0.006977285
-0.014216522 0.0035782 -0.031086085 0.00125895 -0.02678673 -0.0036553203 -0.025084827 -0.013344127
-0.02473292 -0.014808252 -0.024433853 -0.021312697 0.02896676 -0.0014127069 -0.015295893 0.018949956
0.023090597 0.014207714 0.017699236 -0.029908149 0.022634832 0.0048774877 0.016087465 0.026411535
-0.014269167 0.021685803 0.005337497 -0.012985324 0.019709378 -0.0021021396 -0.0043578004 0.031306796
-0.006314577 -0.01129196 0.0020958567 0.004020591 0.010849414 0.0070926994 -0.015966605 0.012035603
0.021519663 -0.019465892 0.027573997 -0.025547702 0.031176891 -0.0027013388 0.0148948375 -0.0040087346
0.029647388 -0.0028297796 -0.007184344 -0.003066299 0.006718769 -0.0029025306 0.0075505553 -0.008364328
0.022858247 0.021805063 -0.020693008 0.010256346 0.027775388 -0.028617783 -0.0051893494 -0.026513278
0.0036237664 0.016129464 -0.010497823 -0.00834867 0.015745526 -0.02093186 0.017187545 0.014603369
0.02696648 0.011596447 -0.008917659 -0.013994333 0.018978981 0.02380297 0.016792603 0.015582166
0.014143243 0.0016919147 0.0006163727 -0.0006757949 -0.005399262 0.009848724 0.019838898 -0.02021779
-0.028200328 0.015580199 0.012251337 -0.028983511 0.013429014 -0.011776613 -0.011113881 -0.006118658
0.00040638435 -0.0102678025 -0.00929902 0.007861277 -0.0005046192 -0.030556465 0.0259384 -0.01591721
-0.009723665 -0.014149877 -0.013291781 -0.013733138 -0.030122267 -0.026511481 0.0014616873 0.026335303
-0.020923238 -0.026902802 -0.022536293 0.030392118 0.001358343 -0.027431283 -0.03113204 -0.011592523
0.029676344 -0.031416293 0.009473871 0.0012591097 -0.0011665866 -0.015258352 -0.00060618675 0.0011507686
-0.029634433 -0.021520317 0.010986685 -0.008160138 0.03030511 -0.012342857 -0.012469415 -0.011429621
