MLP_init_params.pt (torch, 49217 bytes, 2 tensors)

layer0.weight f4 [1000, 10]
0	0x3d35417e	0.04425191
1	0x3d049845	0.032371778
2	0x3db51345	0.08841566
3	0xbda7288a	-0.08162029
4	0xbe26b251	-0.1627896
5	0xbc350a23	-0.01104978
6	0xbdd968e0	-0.106157064
7	0xbb54a179	-0.0032444878
8	0x3ca867f1	0.020557376
9	0xbc95f1cd	-0.018303776
10	0x3e28db6a	0.1648995
11	0x3d3b98b9	0.045799945
12	0xbc25eb3d	-0.010126886
13	0xbe0c5e63	-0.1370788
14	0x3ccb0657	0.024783297
15	0x3c9f2239	0.019425498
16	0xbe47320d	-0.19452687
17	0x3d38af23	0.0450889
18	0xbd68a7ed	-0.05680077
19	0xbd81c550	-0.063364625
20	0x3e3469a2	0.1761842
21	0x3d082d94	0.03324659
22	0x3db5dc24	0.08879879
23	0x3dd1895f	0.102312796
24	0xbcbb36ec	-0.022853337
25	0x3e31810c	0.17334384
26	0x3c9ff0f2	0.019524071
27	0x3cbc8ea3	0.023017233
28	0xbbadb2f6	-0.005300875
29	0x3d4f3d80	0.05059576
30	0xbb87ac81	-0.004140437
31	0xbd84b1fa	-0.06479259
32	0xbcc72f4b	-0.024314543
33	0xbe624776	-0.22097573
34	0xbd1fec8d	-0.03904395
35	0xbe235b11	-0.15952708
36	0xbe454db8	-0.19267929
37	0xbe99a940	-0.3001194
38	0xbe2e2555	-0.17006429
39	0x3dfdd9db	0.12395068
40	0x3e10af11	0.14129283
41	0xbc6a8458	-0.01431378
42	0xbe132317	-0.14368854
43	0xbd09e169	-0.033662234
44	0xbdf4df63	-0.1195667
45	0xbe1c6785	-0.15273865
46	0xbcfe0108	-0.031006351
47	0xbe5be48f	-0.21473907
48	0xbd63fef3	-0.05566306
49	0x3e480c5f	0.19535969
50	0x3e239fb4	0.1597889
51	0x3d2592ec	0.04042332
52	0xbd7458de	-0.059655063
53	0xbd9d4661	-0.07679439
54	0xbdb77d76	-0.08959477
55	0x3d3c92cc	0.046038434
56	0xbe0fcf41	-0.14043905
57	0xbe70a409	-0.23500074
58	0xbdd66d37	-0.1047005
59	0xbd3575b9	-0.044301722
60	0xbc21cc30	-0.009875342
61	0x3e655787	0.2239667
62	0x3c2b967c	0.01047289
63	0xbdb79649	-0.089642115
64	0xbcd47cbe	-0.025938388
65	0x3c0ca90e	0.008585228
66	0xbd83a038	-0.06427044
67	0xbc2fb3ff	-0.010724067
68	0xbde12395	-0.10993115
69	0xbe3982e0	-0.18116331
70	0xbd49f63d	-0.049307097
71	0xbd131690	-0.03591019
72	0xbd100330	-0.03515929
73	0xbdc40939	-0.095720716
74	0xbce8c497	-0.028414054
75	0xbe89ef9d	-0.26940623
76	0xbda300be	-0.07959126
77	0xbc808354	-0.015687622
78	0xbdd75688	-0.105145514
79	0x3c9f440a	0.019441623
80	0xbc66b8de	-0.014082162
81	0x3e001ab0	0.1251018
82	0xbd81385c	-0.06309578
83	0xbe09f1a0	-0.13471079
84	0xbc9d7ba2	-0.019223992
85	0xbdcee75b	-0.10102721
86	0x3df1ee02	0.118129745
87	0xbda5a91d	-0.080888964
88	0xbdf72995	-0.12068478
89	0x3e44449f	0.19166802
90	0xbde71708	-0.1128369
91	0x3db9426f	0.09045874
92	0xbce392da	-0.027779985
93	0x3d40b539	0.047047827
94	0x3c070f17	0.008243344
95	0x3e0fdd65	0.14049299
96	0xbd55e842	-0.05222345
97	0xbd1e061b	-0.03858004
98	0xbc9ba091	-0.018997462
99	0x3d0fce6a	0.03510896
100	0xbc87f753	-0.016597426
101	0x3b100bea	0.0021979758
102	0x3d120468	0.035648733
103	0xbcf3cfc1	-0.02976215
104	0xbd918cfb	-0.07106968
105	0x3e05d9bd	0.13071342
106	0xbd4bcb22	-0.04975427
107	0xbca86b93	-0.020559108
108	0xbe0909cc	-0.13382643
109	0x3dc676ba	0.09690614
110	0x3d33bbbe	0.043880217
111	0xbd5c45d4	-0.05377753
112	0x3c8ea891	0.017414363
113	0xbdfc6ae5	-0.12325076
114	0xbdca21b3	-0.09869709
115	0xbd7bf2c5	-0.06151082
116	0xbe12a1b0	-0.14319491
117	0xbddd47ea	-0.10804732
118	0xbe06ad87	-0.13152133
119	0xbd51e6da	-0.051245548
120	0x3e0112ed	0.12604876
121	0x3e575b43	0.21030907
122	0x3d276922	0.040871747
123	0x3d24f463	0.040272128
124	0x3dda6a9a	0.10664864
125	0xbc987460	-0.01861018
126	0x3d9e3884	0.07725623
127	0xbc857ffb	-0.016296377
128	0xbdf55c80	-0.119805336
129	0x3e8482cb	0.25881037
130	0xbd493a3c	-0.049127802
131	0xbd786510	-0.060643256
132	0xbd2fdaea	-0.042933382
133	0xbe1b81ef	-0.15186284
134	0xbe47c239	-0.19507684
135	0xbd1fee23	-0.039045464
136	0xbdf1e91f	-0.118120424
137	0xbde99721	-0.11405779
138	0xbe23f343	-0.16010766
139	0xbd12a01f	-0.035797235
140	0x3e7954f8	0.2434882
141	0x3ddc497b	0.10756203
142	0x3dc0891a	0.0940115
143	0x3d3e312f	0.046433624
144	0xbd0ade73	-0.03390355
145	0x3e836be4	0.25668252
146	0x3c46c79d	0.012132552
147	0xbe495d70	-0.1966455
148	0x3d03fae7	0.0322217
149	0x3e55addd	0.20867105
150	0xbe50650c	-0.20351046
151	0x3cf28863	0.02960605
152	0x3d563947	0.052300718
153	0x3d0266ed	0.03183644
154	0xbc844bb2	-0.016149376
155	0x3df6623b	0.12030455
156	0xbdbb7a21	-0.091541536
157	0x3cab546a	0.020914275
158	0xbdb852c3	-0.090001605
159	0xbe127ec3	-0.14306168
160	0xbe3e33f8	-0.18574512
161	0x3c6a3123	0.014293942
162	0xbde8073f	-0.11329507
163	0xbdc316c2	-0.09525825
164	0x3caee0eb	0.021347484
165	0xbb757d42	-0.0037458693
166	0xbdb36c68	-0.08760911
167	0x3d46cf99	0.048537824
168	0xbbad0f33	-0.005281353
169	0xbdbde50d	-0.092722036
170	0xbcb6893c	-0.022282235
171	0x3d92d493	0.071694516
172	0xbd6f8a0b	-0.058481257
173	0xbd945307	-0.07242399
174	0x3e378a9c	0.17923969
175	0xbaf8dc27	-0.0018986509
176	0xbddec677	-0.10877698
177	0xbd2d09fe	-0.042245857
178	0xbdc1c416	-0.094612285
179	0xbe1153f3	-0.1419218
180	0xbd946d47	-0.072474055
181	0x3d8c106c	0.0683907
182	0xbdb35b4e	-0.08757649
183	0xbc3ffa14	-0.011717338
184	0xbda25d64	-0.07927969
185	0x3e3e93e6	0.18611106
186	0xbd8b6ea2	-0.06808211
187	0xbe2201ec	-0.15821046
188	0xbe0900d0	-0.13379216
189	0x3be3c3b5	0.0069508203
190	0xbdbd9f79	-0.092589326
191	0x3c42749f	0.011868625
192	0xbdbc15c6	-0.091838405
193	0xbd577a6e	-0.052606992
194	0x3e38e430	0.18055797
195	0x3e074610	0.1321032
196	0xbe123824	-0.14279228
197	0xbdf6b7fe	-0.120468125
198	0xbd9bd227	-0.07608443
199	0xbdd688b5	-0.104752935
200	0x3d0401b3	0.032228183
201	0x3dc78ff9	0.097442575
202	0xbd95dbba	-0.073173
203	0x3dea98d3	0.1145493
204	0xbd918ca9	-0.07106907
205	0x3cf0d46f	0.029398171
206	0xbd83c4e9	-0.06434042
207	0x3e482650	0.19545865
208	0x3dd80fcf	0.1054989
209	0x3e1a38b2	0.1506069
210	0xbdcc2c37	-0.09969371
211	0xbbd4caa2	-0.0064938823
212	0xbd899039	-0.067169614
213	0xbdd832a2	-0.105565324
214	0xbe4bc6aa	-0.19900003
215	0x3d8d04cb	0.0688568
216	0xbe3be2d4	-0.18348247
217	0xbdec8741	-0.11549235
218	0x3d8268ea	0.06367667
219	0xbd53da1f	-0.05172169
220	0xbbfa3462	-0.007635639
221	0x3dd4a6bc	0.103833646
222	0x39dd5e90	0.0004222286
223	0xbcd56051	-0.026046904
224	0x3d4052fa	0.046954133
225	0xbc9ed292	-0.019387517
226	0x3e35b3bb	0.17744343
227	0x3def6a4b	0.11690196
228	0x3da0963e	0.078411564
229	0x3e96cb58	0.29452014
230	0xbe0b6936	-0.13614354
231	0x3d8eb79f	0.06968617
232	0xbd9f32b2	-0.07773341
233	0x3d49e780	0.04929304
234	0x3d631911	0.055443827
235	0x3e4cb48d	0.1999075
236	0xbe00de60	-0.1258483
237	0x3ddac952	0.1068293
238	0xbb3442a3	-0.002750554
239	0xbe07ad9a	-0.13249817
240	0x3e62494a	0.2209827
241	0x3e099c50	0.13438535
242	0x3c72eae8	0.014826514
243	0xbd3e680c	-0.046485946
244	0xbd9e3262	-0.077244535
245	0x3d29e573	0.041478585
246	0xbe5d48c0	-0.21609783
247	0xbd2102ba	-0.03930924
248	0x3ddc782d	0.10765109
249	0x3d1b553b	0.03792308
250	0x3dc1e192	0.09466852
251	0x3e05b988	0.13059056
252	0xbc89d3de	-0.016824659
253	0x3d543740	0.051810503
254	0xbc9fc619	-0.01950364
255	0x3e18a569	0.14906849

layer1.weight f4 [2, 1000]
0	0xbbedcf3f	-0.0072573717
1	0x3cbaa357	0.022782965
2	0x3ccad6fd	0.024760718
3	0x3ccbf42b	0.024896702
4	0xbd2791f3	-0.040910672
5	0xbb93e923	-0.004513876
6	0x3d9f1853	0.07768311
7	0xbb675d52	-0.0035303426
8	0xbcd78b9e	-0.026311692
9	0xbc68a531	-0.014199541
10	0xbca762cc	-0.020432852
11	0xbaddd9f8	-0.0016925922
12	0x3c1502a0	0.009094864
13	0xbbee6d75	-0.007276232
14	0xbc1087b3	-0.008821416
15	0x3cb8f0f1	0.022575827
16	0xbd1c1099	-0.038101766
17	0xbc8f4e96	-0.017493527
18	0x388e6308	6.789534e-05
19	0x3cba4513	0.022738015
20	0x3ca5890b	0.020206949
21	0x3ae71faf	0.0017633344
22	0x3ce585ca	0.028017897
23	0xbd1adba3	-0.03780712
24	0x3bb824a8	0.005619604
25	0x3cc40379	0.023927437
26	0x3bc4f030	0.006010078
27	0x3957e688	0.00020589877
28	0x3b0ba4af	0.0021307876
29	0x3caa32a0	0.020776093
30	0x3caea57e	0.021319147
31	0x3c5f5959	0.013632142
32	0xbc706edb	-0.0146748675
33	0xbc792e38	-0.015208773
34	0xbbd28ed0	-0.006425716
35	0x3cec9697	0.0288804
36	0x3b8f2d6b	0.004369428
37	0x3c8e4384	0.017366178
38	0x3c314c93	0.010821479
39	0x3d022d99	0.031781767
40	0x3cd7d0e5	0.026344726
41	0x3c3c60fd	0.011497733
42	0xbc771b89	-0.0150822485
43	0x3bac362d	0.0052554817
44	0x3c480e21	0.0122104
45	0x3cbdac9a	0.023153592
46	0xbc8925e8	-0.016741708
47	0xbc8a79dd	-0.016903812
48	0x3c413386	0.011792069
49	0x3cb22ca0	0.021749794
50	0x3afea0d6	0.0019426595
51	0xbb896bd4	-0.0041937623
52	0x3beeb812	0.0072851265
53	0x3bc84834	0.006112123
54	0x3c535065	0.0128975855
55	0xbb729c38	-0.0037019383
56	0x3c813143	0.01577056
57	0x3c6183f5	0.013764371
58	0xbcc369da	-0.023854185
59	0xbcb6daca	-0.022321124
60	0xba90d5fa	-0.0011050098
61	0x3c25dc1c	0.010123279
62	0xbc5623de	-0.013070075
63	0xbc0722f7	-0.008248082
64	0xb7dfe7a5	-2.669154e-05
65	0xbcd4f3d3	-0.02599517
66	0x3ca5c32c	0.020234667
67	0xbc5f8989	-0.013643631
68	0xbb94fefc	-0.004546998
69	0x3ced80f6	0.028992157
70	0xbc8f6053	-0.017501986
71	0x3cf7bde5	0.030241916
72	0xbceab3b4	-0.028650142
73	0x3cf9a9c5	0.03047646
74	0x3d5a8519	0.053349588
75	0xbcb62c97	-0.022238059
76	0xbcfc21b3	-0.030777788
77	0x3cdbe422	0.02684218
78	0x3a71eeab	0.00092289847
79	0x3c0063ec	0.007836323
80	0x3c336ba4	0.0109509565
81	0xbc113c08	-0.00886441
82	0x3abbd1fa	0.0014329546
83	0xbc9bfc88	-0.019041315
84	0x3c716907	0.014734513
85	0xbc63461a	-0.013871694
86	0x3cab1be5	0.020887325
87	0x3cca8a5a	0.024724174
88	0x3c97902e	0.018501367
89	0xbb53c8eb	-0.0032315801
90	0x3cb46681	0.022021534
91	0xbc3fa368	-0.011696674
92	0x3bfe76e2	0.007765637
93	0x3b4a8418	0.0030901488
94	0xbd27b353	-0.0409425
95	0x3cf0be2f	0.029387562
96	0x3cac4ba3	0.02103216
97	0xbc6226a5	-0.013803159
98	0xbcc4894f	-0.023991255
99	0x3d740d9b	0.059583288
100	0x3ae728f0	0.0017636102
101	0x3c652a71	0.01398717
102	0x3c9ef7e4	0.019405313
103	0x390905dc	0.00013067521
104	0x3cba95a9	0.022776442
105	0x3c44757a	0.011990899
106	0x3cbe299a	0.023213197
107	0x3cdb2467	0.026750756
108	0xbd0ea5c7	-0.034826066
109	0x3c9fdf60	0.019515693
110	0x3c4857b8	0.012227945
111	0xbbdab912	-0.006674894
112	0x3bc65782	0.006052912
113	0x3ca4581e	0.020061549
114	0x3b701109	0.0036631247
115	0xbc1588b0	-0.009126827
116	0xbb825436	-0.003977324
117	0xbcd70dd8	-0.026251718
118	0xbc77caef	-0.015124067
119	0xbc5d0539	-0.013490015
120	0x3d074c9b	0.03303204
121	0xbd4acc81	-0.049511436
122	0xbca8f756	-0.020625751
123	0x3c17cd5b	0.009265269
124	0x3c08ce11	0.008349911
125	0xbc542e60	-0.01295051
126	0xbca8166d	-0.020518506
127	0xbc40a8ef	-0.011759027
128	0xbc0872fb	-0.008328195
129	0x3c0a2d1b	0.008433606
130	0x3cf86c84	0.030325182
131	0xbc744e68	-0.014911272
132	0xbbd988fa	-0.0066386433
133	0x3c035261	0.008015246
134	0xbb3880b3	-0.0028152883
135	0x3c1942c2	0.009354295
136	0x3a84b0d7	0.0010123503
137	0x3d362514	0.044468954
138	0xbc8da756	-0.017291706
139	0xbd07f3c0	-0.033191442
140	0xbcfd7138	-0.030937776
141	0x3b3488af	0.002754729
142	0x3cd6ee18	0.026236579
143	0xbc6c3a6b	-0.014418225
144	0x3cf9f238	0.030511007
145	0x3d148d67	0.036267664
146	0xbc85d283	-0.016335731
147	0xbbbb5a29	-0.005717535
148	0x3ce14e05	0.027503023
149	0xbcc818e9	-0.02442594
150	0xbc025ede	-0.007957188
151	0xbb0a28dc	-0.0021081483
152	0x3cfc1783	0.03077293
153	0xbc79e2bd	-0.0152518125
154	0xbbdcd7f8	-0.0067396127
155	0xbd0e0d59	-0.034680698
156	0x3b91d4a3	0.004450397
157	0x3cad5ee5	0.021163413
158	0xbb4750a2	-0.003041305
159	0xbd28fa5e	-0.041254394
160	0x3c846bb7	0.016164644
161	0xbc2791b5	-0.01022761
162	0xbcc5906f	-0.024116723
163	0xbc896cd2	-0.016775522
164	0xbc3e54f9	-0.011616939
165	0xbc5d883a	-0.0135212485
166	0x3d319b2b	0.04336087
167	0x3c4d9b1d	0.012549189
168	0x3d055810	0.032554686
169	0xbd3d92c3	-0.04628254
170	0x3bfe8d2f	0.0077682952
171	0xbc933b5a	-0.017972637
172	0xbc241e76	-0.010017028
173	0x3d468826	0.048469685
174	0xbc5a3e89	-0.013320574
175	0x3a9b0573	0.0011827186
176	0xbc97af96	-0.018516343
177	0xbd2cb34d	-0.042163182
178	0x3cc6998d	0.02424314
179	0x3bf16f92	0.0073680365
180	0x3ccc7e48	0.02496256
181	0xbcbe83d9	-0.02325623
182	0x3b5fdfb2	0.0034160432
183	0xbc3b2c03	-0.011424067
184	0xbc0e922d	-0.008701843
185	0x3c4c3249	0.012463161
186	0x3ce06634	0.027392484
187	0x3bd9dede	0.0066488823
188	0x3c736266	0.014855003
189	0xb9736ed7	-0.00023215577
190	0x3cca7feb	0.0247192
191	0xbbae4889	-0.0053187055
192	0xbc6369f9	-0.013880246
193	0xbce88edb	-0.028388431
194	0xbcc6737d	-0.024224991
195	0x3b9cf985	0.0047904872
196	0x3a1df30b	0.0006025291
197	0x3b0cdc6d	0.0021493689
198	0xba583436	-0.0008247526
199	0x3c55c90b	0.013048421
200	0x3cd074ca	0.025446314
201	0x3c224bb2	0.0099057425
202	0xbc71d5f1	-0.01476048
203	0xbb8b9e3e	-0.0042608073
204	0xbc8630b2	-0.016380642
205	0x3b2ae022	0.0026073535
206	0xbd146b7f	-0.03623533
207	0x3c2a07d8	0.010377847
208	0xbbc13736	-0.0058964742
209	0xbcab20ee	-0.020889726
210	0xbcab021c	-0.02087503
211	0xbd17225a	-0.036897995
212	0x3cb82d04	0.022482403
213	0xbc415f0f	-0.011802449
214	0x3d144701	0.036200527
215	0x3cb3bca4	0.021940537
216	0xbcca37bc	-0.02468478
217	0xbcf6480d	-0.030063653
218	0xbc83f9fa	-0.016110409
219	0xbcea28ca	-0.028583903
220	0xbbc36e74	-0.005964095
221	0xbcdcdb47	-0.026960028
222	0x3c33c580	0.010972381
223	0xbcbc6035	-0.022995094
224	0x3b96cd4d	0.0046021105
225	0xbcdfb91d	-0.027309949
226	0x3ba591c6	0.005052778
227	0xbd06704f	-0.03282195
228	0x3b6c18e9	0.003602559
229	0xbd22a649	-0.039709363
230	0xbd18305c	-0.037155494
231	0x3ba7385f	0.0051031555
232	0xbcf314a7	-0.029672934
233	0x3cc3d755	0.02390639
234	0xbc05f366	-0.0081757065
235	0xbbcd59d7	-0.0062668133
236	0x3b59e2dc	0.003324679
237	0x3c6c1eee	0.014411671
238	0x3c0299b5	0.007971217
239	0xbbcfc1ef	-0.0063402574
240	0x3c7ac68d	0.015306127
241	0x3c98eaf3	0.01866672
242	0xbcedc314	-0.029023685
243	0x3c95c534	0.01828251
244	0xbd2474fa	-0.04015062
245	0x3c1946df	0.009355276
246	0xbcd65a76	-0.026166182
247	0xbb80955f	-0.0039240564
248	0xbcd32bf0	-0.025777787
249	0xbcd37e7b	-0.025817147
250	0x3ba83629	0.0051334095
251	0x3c71e043	0.014762941
252	0x3c3fb336	0.011700442
253	0xbc45b00c	-0.012065899
254	0xbce14f58	-0.027503654
255	0x3c49473b	0.012285049
