MLP_init_params.pt (torch, 97217 bytes, 2 tensors)

layer0.weight f4 [2000, 10]
-0.15685797 0.00038623228 -0.19652946 0.27313066 -0.14512607 0.21479377 -0.23039317 -0.20908707
0.170195 -0.17776768 0.17184094 -0.21369967 -0.039839204 -0.3154834 0.24472184 -0.0813802
-0.1964621 -0.10648795 -0.13274962 -0.053178795 -0.18265733 -0.27556297 0.06620338 0.37228483
-0.22038835 0.17500305 0.3427591 -0.011985451 -0.22319748 -0.14095686 -0.27263787 0.23122548
-0.16464226 -0.26892206 0.14541838 -0.2918934 0.26249322 0.26186863 0.029696785 -0.12848042
0.12250084 0.028889325 -0.11425405 0.12271728 -0.08492237 -0.2825758 -0.1546385 0.25457814
0.1492958 0.10203572 -0.16167827 -0.070154935 0.06055616 0.30154142 -0.04067975 -0.11893345
0.22225624 0.11618354 -0.1084207 -0.17355725 -0.15244527 0.21068203 0.1356628 -0.15044375
-0.106845394 0.13743393 0.09198107 0.17374143 0.1365208 -0.12842101 -0.18950543 -0.31459573
-0.0032280867 0.1415561 -0.0194899 -0.13183829 -0.19534734 0.27504644 0.12162063 0.17931753
-0.18801622 0.29657283 0.12576617 -0.20120952 0.22231813 -0.02959328 -0.13877665 0.18601482
0.18227547 0.2672622 0.25104862 0.2805645 0.29087237 -0.08611174 -0.07551056 0.23789728
0.27828467 -0.30262843 -0.13576539 -0.15025303 0.19462423 -0.061609976 -0.030099064 0.22545935
-0.24672416 -0.20120135 -0.1808799 0.33977574 0.04533423 -0.11410888 0.2322703 0.17304672
-0.2637035 0.1234504 -0.027164679 -0.26146054 -0.11746118 0.20130071 -0.24096018 0.08084601
-0.20894645 -0.2412565 -0.14206168 0.31949928 -0.15253219 -0.07024892 0.14453539 0.04724676
-0.07404522 -0.04003224 -0.12611456 -0.3273683 -0.31822148 0.009951368 0.054071493 0.25216714
0.17925328 0.27248943 0.15963587 -0.01131117 0.10342582 0.13164555 0.21382324 0.22670902
0.20483029 -0.044124175 -0.123256564 -0.2007716 0.029324515 0.18732561 -0.09737912 0.08381375
0.2633559 0.20795548 0.22127305 0.16466816 0.19218272 -0.14329258 0.021277009 0.11915684
0.006236124 -0.0760218 0.06269165 -0.0779688 -0.21100716 -0.14590304 0.12099513 -0.17062514
0.15990666 -0.12212134 -0.052815456 -0.29683846 0.03952877 -0.062490102 0.10950993 0.035033856
0.2858513 0.11715916 -0.32466742 0.17582572 0.15875517 -0.0785136 -0.28475642 -0.22449364
-0.055194855 0.2091592 -0.24847165 -0.18704702 -0.0669482 -0.29679665 -0.19071747 -0.019512732
-0.028742574 0.10797702 -0.12266743 -0.23302701 0.07341815 -0.15537696 0.09601477 0.060287282
-0.20445585 0.053208757 0.14012504 -0.0034201755 -0.30605572 0.14496434 0.041137855 0.27614605
-0.094981216 -0.14167781 0.08015522 -0.07339177 -0.3475363 0.33638 0.18765298 0.18356757
-0.24418308 -0.1187127 0.20172854 0.31542742 -0.11952415 -0.26693138 0.23891005 0.080382474
-0.26513144 -0.10074991 0.26814657 -0.2780731 -0.34597132 -0.10881807 0.31327972 -0.012521931
-0.02881852 -0.022812655 -0.18108788 0.18227355 -0.04758705 0.20068358 -0.23709221 -0.10327703
-0.04991632 0.16536327 -0.09064413 0.116502024 0.29021057 0.32078496 -0.28180525 -0.21645491
0.026177883 -0.18918985 -0.17816901 0.05299914 -0.2576329 0.17738727 -0.25820628 -0.22739269
00000000: 609f 20be 387f ca39 053f 49be c8d7 8b3e
00000010: ee9b 14be e6f2 5b3e 30ec 6bbe ec1a 56be
00000020: 9947 2e3e bb08 36be 12f7 2f3e 16d4 5abe
00000030: 6f2e 23bd 0a87 a1be 5d98 7a3e aaaa a6bd
00000040: 5c2d 49be 5b16 dabd 84ef 07be 02d2 59bd
00000050: 860a 3bbe 9716 8dbe a395 873d 1e9c be3e
00000060: 7cad 61be 0034 333e 1f7e af3e a05e 44bc
00000070: e18d 64be ff56 10be 3197 8bbe 5fc6 6c3e
00000080: fb97 28be 27b0 89be 8ee8 143e 0d73 95be
00000090: 8365 863e a513 863e ac46 f33c 5f90 03be
000000a0: b8e1 fa3d 4ea9 ec3c 07fe e9bd 3353 fb3d
000000b0: c8eb adbd c6ad 90be 8e59 1ebe 1158 823e
000000c0: 00e1 183e 1bf8 d03d fd8e 25be 64ad 8fbd
000000d0: bc09 783d a363 9a3e cf9f 26bd 6193 f3bd
000000e0: 2497 633e a3f1 ed3d ac0b debd feb8 31be
000000f0: 9d1a 1cbe 08bd 573e 30eb 0a3e ed0d 1abe
00000100: c2d1 dabd 7bbb 0c3e 9260 bc3d 46e9 313e
00000110: 1ccc 0b3e cc80 03be b60d 42be b112 a1be
00000120: 4f8e 53bb 15f4 103e 48a9 9fbc 9e00 07be
00000130: 2209 48be e3d2 8c3e 3d14 f93d 049f 373e
00000140: 5387 40be 65d8 973e d9c8 003e de09 4ebe
00000150: 5da7 633e 9b6d f2bc 771b 0ebe ab7a 3e3e
00000160: 6ca6 3a3e 97d6 883e 7289 803e 26a6 8f3e
00000170: 39ed 943e 5a5b b0bd 48a5 9abd 589b 733e
00000180: 547b 8e3e 1df2 9abe 1506 0bbe eedb 19be
00000190: 934b 473e be5a 7cbd 5092 f6bc d1de 663e
000001a0: 42a5 7cbe ba07 4ebe 9538 39be 16f7 ad3e
000001b0: 63b0 393d ebb1 e9bd 44d8 6d3e 2933 313e
000001c0: 2504 87be 90d3 fc3d 7688 debc 28de 85be
000001d0: 7d8f f0bd c621 4e3e 44be 76be 9892 a53d
000001e0: 0ff6 55be f20b 77be 9e78 11be 6995 a33e
000001f0: 6631 1cbe aade 8fbd 1601 143e d285 413d
00000200: 05a5 97bd d9f8 23bd 2d24 01be d19c a7be
00000210: eded a2be 100b 233c 127a 5d3d 0d1c 813e
00000220: 2c8e 373e bc83 8b3e 9677 233e 7c52 39bc
00000230: ebd0 d33d 17ce 063e 7bf4 5a3e 6926 683e
00000240: 08bf 513e 8dbb 34bd f06d fcbd 1297 4dbe
00000250: f739 f03c 49d2 3f3e b46e c7bd 8ba6 ab3d
00000260: 96d6 863e 48f2 543e 6795 623e c59e 283e
00000270: 8ccb 443e 4abb 12be 1f4d ae3c 8008 f43d
00000280: 6658 cc3b 51b1 9bbd 7b64 803d 1bae 9fbd
00000290: 4312 58be 9b67 15be 4bcc f73d 5bb8 2ebe
000002a0: 92be 233e c11a fabd 0555 58bd 36fb 97be
000002b0: ebe8 213d 9ff5 7fbd be46 e03d a97f 0f3d
000002c0: 1a5b 923e 24f1 ef3d cf3a a6be a80b 343e
000002d0: b790 223e bdcb a0bd 98cb 91be a9e1 65be
000002e0: 0014 62bd d42d 563e 5a6f 7ebe 4189 3fbe
000002f0: 231c 89bd bbf5 97be 714b 43be 2ad9 9fbc
00000300: 8c75 ebbc 0e23 dd3d 1039 fbbd a29e 6ebe
00000310: 415c 963d 231b 1fbe 64a3 c43d ccef 763d
00000320: e05c 51be 6df1 593d f07c 0f3e 0625 60bb
00000330: 56b3 9cbe 8871 143e 2b80 283d 0463 8d3e
00000340: 8385 c2bd fd13 11be 6c28 a43d 6d4e 96bd
00000350: 47f0 b1be 003a ac3e 1a28 403e 23f9 3b3e
00000360: 210b 7abe a51f f3bd ed91 4e3e b47f a13e
00000370: 14c9 f4bd 3bab 88be d6a4 743e 919f a43d
00000380: 4fbf 87be f855 cebd 824a 893e 995f 8ebe
00000390: 2723 b1be 02dc debd 3366 a03e c928 4dbc
000003a0: d114 ecbc 9be1 babc 1a6f 39be eba5 3a3e
000003b0: a3ea 42bd ff7f 4d3e 4dc8 72be e882 d3bd
000003c0: 0e75 4cbd fd54 293e a1a3 b9bd 9d98 ee3d
000003d0: 7b96 943e ed3d a43e c748 90be 5ba6 5dbe
000003e0: 0073 d63c fcba 41be f071 36be a015 593d
000003f0: 76e8 83be 02a5 353e 9d33 84be a1d9 68be

layer1.weight f4 [2, 2000]
1.3331436 0.9975061 2.0955105 1.1612545 1.4261175 1.0774559 0.8154679 1.622787
1.1305106 1.429371 1.4854909 1.3255455 1.4150202 1.5421524 1.2246742 1.3822978
0.43333828 1.2064159 1.1381409 0.66389644 1.1148005 1.7073876 1.5361819 0.8890933
1.0961566 0.8835987 1.3275801 1.3260256 1.0746603 0.9732613 0.9148644 1.3936838
0.72911185 1.597858 0.7507952 1.9798405 0.86520123 1.3135332 1.5114726 1.076987
0.86926675 1.2793138 1.5802802 1.9663754 1.5319915 1.6771595 1.2568676 0.5258332
1.1800703 1.8459821 2.0790982 1.4523683 1.0464944 1.001175 1.1697464 1.3942108
1.3653673 0.97019064 2.11536 1.1180382 0.97182935 1.1617439 0.79029065 1.5671406
2.1803217 0.939447 1.5188501 0.5640718 1.2619176 1.0232948 1.2623802 0.935605
1.203098 1.375472 1.1216065 0.7444462 1.327899 0.9694781 1.4337511 1.1175157
1.5678885 1.1511502 1.5244712 0.99661666 0.6055808 1.511293 1.7172601 1.4351957
0.71879286 0.81241167 1.0387466 1.5412014 0.5896269 0.8474581 0.82262266 0.77571493
1.49055 1.2432748 1.4867676 1.1572368 0.7643737 0.96555823 1.3250369 0.81411254
1.0890266 2.275409 1.7945501 0.87401855 0.26625913 1.1921653 1.3014967 1.1135749
0.80390304 1.0726645 1.6410409 0.80317146 0.60502434 0.78218323 1.2950739 1.9835297
0.88835776 0.9229328 0.9378472 1.0060806 1.0286893 1.0690621 1.5141114 1.5625821
0.7649707 1.3989439 1.0648673 0.86271214 1.376842 1.5970376 1.6169957 1.5359282
1.0527269 1.2310506 0.9265907 1.1643212 1.7223222 0.8794161 1.2127128 0.98765934
0.65637124 1.6960852 1.5127622 1.6172155 0.5685124 1.152465 0.78278625 1.4488013
1.3470272 0.64231515 0.88671505 0.86172056 1.0441889 1.089674 2.1019313 1.1501161
1.0346512 0.99289227 0.92165375 1.2389978 0.6481918 0.855705 0.90271413 1.5908637
0.9664155 1.0420767 0.9752964 1.4320328 0.67623204 1.9082656 1.3602104 1.1080141
1.2558081 1.1183562 1.1471521 1.3323125 1.3341213 0.92936355 1.3361565 1.5625011
1.4826423 1.3296733 0.6719972 1.2803818 0.79445875 1.4860039 1.009767 1.6811761
0.9491063 2.0419927 0.81078714 1.1754684 1.3612354 1.6680417 1.0770577 0.6138619
2.062579 0.886645 1.1061127 0.72059536 2.0386639 0.7187676 1.3144716 1.6345097
1.2417717 1.6507269 1.4969865 0.4868575 0.93786573 2.2686484 0.57920706 0.55705726
1.1446745 1.1406395 0.9824529 1.0111637 0.7806063 1.4895844 1.3177483 0.98981005
1.2972809 0.9950735 1.1608121 1.1824415 0.8961684 1.2935888 0.7522424 0.96959305
0.93617404 1.3288075 0.7089358 1.590743 1.2868426 1.08581 1.6094755 1.3544743
1.8112166 1.4522603 1.3341849 0.94568706 1.3773283 1.53951 0.78377634 1.2081677
1.0261948 1.0303203 1.0830384 1.101556 1.5961404 1.3509415 1.2441531 1.7965423
00000000: 73a4 aa3f 8f5c 7f3f d81c 0640 fda3 943f
00000010: 058b b63f 13ea 893f 81c2 503f 7cb7 cf3f
00000020: 92b4 903f a1f5 b63f 9124 be3f 7aab a93f
00000030: 621f b53f 4065 c53f 20c2 9c3f 22ef b03f
00000040: 84de dd3e d66b 9a3f 9aae 913f 1ef5 293f
00000050: c8b1 8e3f ad8b da3f 9ca1 c43f 9e9b 633f
00000060: dc4e 8c3f 8633 623f 25ee a93f 35bb a93f
00000070: 788e 893f a727 793f 8e34 6a3f 3b64 b23f
00000080: 13a7 3a3f 9c86 cc3f 1d34 403f 6a6b fd3f
00000090: d47d 5d3f db21 a83f ef77 c13f b6da 893f
000000a0: 4488 5e3f 8ec0 a33f 9f46 ca3f 30b2 fb3f
000000b0: 4c18 c43f 2aad d63f 0ae1 a03f 019d 063f
000000c0: 8b0c 973f 2449 ec3f f20f 0540 34e7 b93f
000000d0: 87f3 853f 8126 803f 40ba 953f 8075 b23f
000000e0: 5bc4 ae3f 6a5e 783f 0f62 0740 e01b 8f3f
000000f0: cfc9 783f 06b4 943f 7d50 4a3f 1098 c83f
00000100: 648a 0b40 997f 703f ae69 c23f 0267 103f
00000110: 8486 a13f 53fb 823f ad95 a13f cf83 6f3f
00000120: 1eff 993f 770f b03f cd90 8f3f 0794 3e3f
00000130: 98f8 a93f b72f 783f 2885 b73f c10a 8f3f
00000140: 92b0 c83f e458 933f df21 c33f 4522 7f3f
00000150: 5807 1b3f 0d72 c13f 2ecf db3f 7eb4 b73f
00000160: cf02 383f 36fa 4f3f a6f5 843f 1646 c53f
00000170: caf1 163f 04f3 583f 6697 523f 4195 463f
00000180: 58ca be3f a123 9f3f 674e be3f 5620 943f
00000190: ffad 433f d32e 773f cf9a a93f ae69 503f
000001a0: 3965 8b3f 4da0 1140 d1b3 e53f aebf 5f3f
000001b0: 1e53 883e df98 983f 7297 a63f 9f89 8e3f
000001c0: 97cc 4d3f 124d 893f a10d d23f a59c 4d3f
000001d0: e0e2 1a3f 293d 483f fbc4 a53f 4de4 fd3f
000001e0: 6a6b 633f 5345 6c3f c116 703f 40c7 803f
000001f0: 17ac 833f 07d7 883f 67ce c13f b102 c83f
00000200: 1fd5 433f 9810 b33f 924d 883f b4da 5c3f
00000210: 5c3c b03f ba6b cc3f b7f9 ce3f 4c99 c43f
00000220: c1bf 863f 1193 9d3f 0c35 6d3f 7a08 953f
00000230: 0e75 dc3f 6a21 613f 2c3a 9b3f 3ed7 7c3f
00000240: f207 283f 5219 d93f 31a2 c13f eb00 cf3f
00000250: 078a 113f f983 933f ae64 483f 5272 b93f
00000260: 636b ac3f c46e 243f c2ff 623f b899 5c3f
00000270: fba7 853f 707a 8b3f 0b86 0640 0137 933f
00000280: 736f 843f 302e 7e3f 80f1 6b3f 7b97 9e3f
00000290: e6ef 253f 7c0f 5b3f 4618 673f 6ca1 cb3f
000002a0: 0267 773f c562 853f 06ad 793f da4c b73f
000002b0: 8b1d 2d3f 0c42 f43f 601b ae3f 68d3 8d3f
000002c0: 52be a03f 4c26 8f3f e1d5 923f 3789 aa3f
000002d0: 7dc4 aa3f c5ea 6d3f 2d07 ab3f 0900 c83f
000002e0: 39c7 bd3f bc32 aa3f 0208 2c3f 8de3 a33f
000002f0: a661 4b3f 6035 be3f 0c40 813f c730 d73f
00000300: a1f8 723f 02b0 0240 bf8f 4f3f c075 963f
00000310: f63c ae3f 6482 d53f 07dd 893f 0e26 1d3f
00000320: 4b01 0440 2bfb 623f 1a95 8d3f f078 383f
00000330: 7879 0240 2701 383f 9b40 a83f 9d37 d13f
00000340: 60f2 9e3f 054b d33f 419d bf3f 6345 f93e
00000350: f817 703f 8931 1140 ea46 143f 4e9b 0e3f
00000360: b284 923f 7a00 923f 0982 7b3f d06d 813f
00000370: d1d5 473f b4aa be3f faab a83f 3164 7d3f
00000380: 4d0d a63f 23bd 7e3f 7e95 943f 3e5a 973f
00000390: 4b6b 653f 5194 a53f f592 403f 4037 783f
000003a0: 1aa9 6f3f 5d16 aa3f d17c 353f 779d cb3f
000003b0: 42b7 a43f d2fb 8a3f 4b03 ce3f 6a5f ad3f
000003c0: f2d5 e73f aae3 b93f 92c6 aa3f 8c18 723f
000003d0: 4b4c b03f aa0e c53f 91a5 483f 3da5 9a3f
000003e0: 5a5a 833f 89e1 833f 01a1 8a3f c9ff 8c3f
000003f0: 544e cc3f a7eb ac3f 6940 9f3f 19f5 e53f
