MLP_init_params.pt (torch, 49217 bytes, 2 tensors)

layer0.weight f4 [1000, 10]
0	0x3d1c3089	0.038132224
1	0xbe43c749	-0.1911899
2	0x3e509501	0.2036934
3	0x3dd3ae78	0.10336012
4	0xbe868492	-0.26273018
5	0x3e653e21	0.22386982
6	0x3e895f17	0.2683036
7	0xbe307b69	-0.17234577
8	0xbe8c63a0	-0.27419758
9	0xbd34e764	-0.044165984
10	0xbdacdb94	-0.08440319
11	0xbc1998c3	-0.0093748
12	0xbba02e88	-0.0048883595
13	0x3e02ca77	0.12772547
14	0xbe526258	-0.20545328
15	0xbe596b01	-0.21232225
16	0x3d6c4298	0.057680696
17	0xbe446488	-0.19178975
18	0xbe9f75be	-0.31144518
19	0xbe59b4a2	-0.21260312
20	0x3e0bf24a	0.13666645
21	0xbd582e99	-0.052778814
22	0x3e2c613e	0.1683397
23	0xbc23b306	-0.009991413
24	0x3df19dc5	0.1179767
25	0x3dd8bd95	0.10583035
26	0xbc7ac381	-0.015305401
27	0x3e8c7425	0.2743236
28	0xbe2f197f	-0.1709957
29	0xbe5a5226	-0.213204
30	0x3e917de1	0.2841635
31	0x3e777e60	0.24169302
32	0xbe8ccb37	-0.2749879
33	0xbe94f9a1	-0.29096702
34	0x3b961e44	0.0045812447
35	0xbea184bb	-0.31546578
36	0xbe2d3e63	-0.1691833
37	0xbe4f981b	-0.20272867
38	0x3c810689	0.015750187
39	0x3e635874	0.22201711
40	0xbd224e8a	-0.039625682
41	0xbd95fa82	-0.07323171
42	0x3e8300e4	0.25586617
43	0xbc7ee666	-0.015557861
44	0x3c4c9836	0.012487462
45	0xbdf40e5e	-0.11916803
46	0xbccf0021	-0.025268616
47	0x3dfa7bf0	0.122306705
48	0x3e9ebea3	0.3100482
49	0x3e3c67e8	0.18399012
50	0xbe2f0d5c	-0.1709494
51	0xbe829966	-0.2550766
52	0xbce0a559	-0.027422594
53	0xbc9d6733	-0.019214248
54	0x3deef9cd	0.116687395
55	0x3dd85993	0.1056396
56	0x3cff2866	0.031147193
57	0x3dbb2219	0.09137363
58	0x3e484f2f	0.19561456
59	0x3e951064	0.29114068
60	0xbd4dcd32	-0.050244518
61	0x3e85a803	0.26104745
62	0x3e8c193c	0.27363002
63	0x3c9eae53	0.019370234
64	0xbdfe19ae	-0.12407242
65	0xbe6e1f4b	-0.23254125
66	0xbcf86ba9	-0.030324774
67	0x3e8e5512	0.27799278
68	0x3e99ed61	0.30063918
69	0x3e9f6b4b	0.31136546
70	0xbe8f1cd6	-0.27951688
71	0x3ba71659	0.0050990996
72	0xbd06a33e	-0.032870524
73	0x3e90da6b	0.2829164
74	0x3db8888f	0.090104215
75	0x3e76f60d	0.24117298
76	0x3e0e8676	0.1391848
77	0xbdb2bd79	-0.08727545
78	0x3d4852c9	0.048907075
79	0xbdefa5eb	-0.11701568
80	0x3d62cbc9	0.055370126
81	0x3e0acc76	0.13554558
82	0xbe8261f3	-0.25465354
83	0x3dd0ca19	0.10194797
84	0xbe99551f	-0.29947755
85	0xbdcf8146	-0.10132079
86	0x3dbf406a	0.09338458
87	0x3e86acfe	0.26303858
88	0xbdc556cc	-0.09635696
89	0xbe5b5daf	-0.21422456
90	0xbe9e8594	-0.30961287
91	0xbcda3eaa	-0.026641209
92	0x3deeb74d	0.116560556
93	0xbdfaa329	-0.122381516
94	0xbe7a9a22	-0.2447286
95	0xbe8978d9	-0.26850012
96	0x3b040283	0.0020143099
97	0x3e981d19	0.297097
98	0x3e74c597	0.239035
99	0x3d1f5af8	0.038905114
100	0xbe80009a	-0.2500046
101	0x3dac65c9	0.084178515
102	0xbe5f96db	-0.2183489
103	0x3e3449ce	0.17606279
104	0x3e75147e	0.23933598
105	0xbe4e2158	-0.20129907
106	0xbe6c061b	-0.23049204
107	0xbde75bde	-0.11296819
108	0x3e2e02d2	0.16993263
109	0xbe2883c8	-0.1645652
110	0x3d933af0	0.07188976
111	0x3e3bc6f6	0.18337616
112	0x3e66e211	0.22547175
113	0x3e35c706	0.17751703
114	0x3d7bdf73	0.061492395
115	0xbe4fc37a	-0.20289412
116	0x3da4c83d	0.08046005
117	0xbe899e46	-0.26878566
118	0xbe76af3d	-0.24090286
119	0xbe53a05d	-0.20666642
120	0x3e6d8708	0.23196042
121	0x3e9ed6e0	0.31023312
122	0xbe53c64d	-0.20681114
123	0x3dd4e38b	0.10394963
124	0x3e6f4031	0.23364331
125	0x3d55a386	0.0521579
126	0x3e046c91	0.1293204
127	0x3d35b56c	0.04436247
128	0x3d858ff9	0.06521601
129	0xbe47db4a	-0.19517246
130	0xbbd97075	-0.0066357204
131	0x3d90a422	0.07062556
132	0xbe594c22	-0.21220449
133	0x3e379a5b	0.17929976
134	0xbdbe1609	-0.092815466
135	0xbc23abb2	-0.009989666
136	0xbe171d11	-0.14757182
137	0x3e9de30f	0.30837294
138	0xbe4d4885	-0.20047195
139	0x3e3e6e2f	0.18596719
140	0x3d857dfa	0.06518169
141	0xbd702f9f	-0.058639165
142	0x3e4c0b83	0.19926266
143	0xbe692d8e	-0.22771284
144	0xbe7e8ec1	-0.24859144
145	0x3d805b0d	0.062673666
146	0xbcd2d6fe	-0.025737282
147	0x3d450b8a	0.048106708
148	0x3d518b5d	0.051158298
149	0x3ea091c6	0.31361216
150	0xbe022849	-0.1271068
151	0xbe9adbe6	-0.30245894
152	0xbe563769	-0.20919575
153	0xbe56fb77	-0.20994364
154	0xbe184b4f	-0.14872478
155	0x3e242657	0.1603025
156	0x3e3bdbd0	0.1834557
157	0xbe6d6782	-0.23184016
158	0x3e331153	0.17487077
159	0x3dd1cf9f	0.10244679
160	0xbe8e5338	-0.27797866
161	0xbdafd582	-0.08585645
162	0xbd13b4ca	-0.036061086
163	0xbe2474ce	-0.16060182
164	0x3e898326	0.2685787
165	0x3e94dc55	0.2907435
166	0xbe138cad	-0.14409132
167	0xbc102410	-0.0087976605
168	0x3d25ae0c	0.040449187
169	0x3c4492bf	0.011997878
170	0x3e9da3f1	0.3078914
171	0x3e3b2cb5	0.18278773
172	0xbe6f5839	-0.23373498
173	0x3d694841	0.056953672
174	0x3e3e66d9	0.18593921
175	0xbe3bbaca	-0.18332973
176	0xbe6307c3	-0.2217093
177	0xbe119e98	-0.14220655
178	0xbde6e561	-0.11274219
179	0x3e11feba	0.14257327
180	0xbe44b01b	-0.19207804
181	0xbdf32e78	-0.118740976
182	0x3c8db650	0.017298847
183	0xbe82ec1e	-0.25570768
184	0x3dc9583e	0.09831284
185	0xbe849f93	-0.25902995
186	0x3d951d14	0.07280937
187	0x3e0feceb	0.14055221
188	0xbe0648ab	-0.13113658
189	0xbe1d407b	-0.15356629
190	0x3d783096	0.06059321
191	0xbe6ecad4	-0.2331956
192	0xbe2cc907	-0.16873561
193	0x3e28308b	0.16424768
194	0xbdd758c7	-0.1051498
195	0x3e898c4c	0.2686485
196	0x3c60d4ef	0.013722642
197	0xbe547d3a	-0.20750895
198	0x3c6c48e7	0.014421678
199	0xbd9884b9	-0.0744719
200	0x3e9ab41c	0.30215538
201	0x3e6bdc2e	0.2303321
202	0xbe70267a	-0.23452178
203	0xbcd2991a	-0.02570777
204	0xbe3c0fd7	-0.18365417
205	0x3e777f9f	0.24169777
206	0x3c8ab93f	0.016934035
207	0xbe1d8f8c	-0.1538679
208	0xbe733894	-0.23752052
209	0xbe010de8	-0.12602961
210	0xbe9bcaaa	-0.30428058
211	0xbe25c53d	-0.16188522
212	0x3e516d4e	0.20451853
213	0xbe152fda	-0.14569035
214	0x3c777544	0.015103642
215	0x3df233f5	0.11826316
216	0x3e1c61b0	0.1527164
217	0xbd23f6c4	-0.040030256
218	0xbce31e69	-0.027724462
219	0x3c3db4a2	0.011578711
220	0x3e5a8c7e	0.21342656
221	0xbd9a564e	-0.075359926
222	0xbc6740ba	-0.014114553
223	0x3e9d2b72	0.3069721
224	0x3dfe9bdd	0.12432072
225	0xbe9f113b	-0.31067833
226	0xbd2e0839	-0.04248831
227	0x3d0bfa41	0.034174208
228	0x3d9fc362	0.07800938
229	0xbe68fc34	-0.22752458
230	0xbe7e9016	-0.24859652
231	0x3e1f42b6	0.15552792
232	0x3bcbbb5c	0.0062174033
233	0xbe1ef835	-0.15524371
234	0x3dbd19fe	0.09233473
235	0x3e69fe8e	0.22851011
236	0xbb0993f3	-0.0020992726
237	0x3cbadbc2	0.022809867
238	0x3e8e74f2	0.27823597
239	0xbe2cad40	-0.16862965
240	0xbe74f3f9	-0.23921193
241	0xbe2b3783	-0.16720395
242	0xbe980b17	-0.2969596
243	0xbd110886	-0.03540852
244	0xbd8dab3c	-0.06917426
245	0x3e5181b3	0.20459633
246	0x3ea08ccd	0.31357422
247	0x3e226c5d	0.1586165
248	0xbe7a87c2	-0.2446585
249	0xbdeded38	-0.116175115
250	0xbe5e90cc	-0.21734923
251	0x3e1fe199	0.15613402
252	0xbd5a8ce9	-0.05335704
253	0x3db9a19e	0.09064029
254	0x3e0440e4	0.12915379
255	0xbdec00fa	-0.11523624

layer1.weight f4 [2, 1000]
0	0xbc372915	-0.011179228
1	0xbc6f83f6	-0.014618864
2	0xbcd041f8	-0.025422081
3	0xbc2252c3	-0.009907427
4	0xbcdce6ba	-0.026965488
5	0xbb143646	-0.0022615357
6	0xbb5656a7	-0.0032705457
7	0xbc7ff27e	-0.0156217795
8	0xbbb0b46a	-0.005392601
9	0x3cc2d59a	0.023783494
10	0xb9ebdb3b	-0.00044986032
11	0x3c85be18	0.016325995
12	0x3b28936d	0.0025722638
13	0x3ccfacbe	0.025350925
14	0x3be06fed	0.00684928
15	0xbb031279	-0.0020000024
16	0x3cf19c37	0.029493434
17	0xbcb84ba8	-0.022497013
18	0x3cb609bd	0.02222144
19	0x3c51c475	0.012803187
20	0xbcde2731	-0.027118297
21	0x3cafcb44	0.02145923
22	0x3b578237	0.003288401
23	0x3b437a3b	0.0029827494
24	0x3c1fc61e	0.009751825
25	0xbc52d5c6	-0.01286835
26	0x3ccce41e	0.025011119
27	0xbc5c7d9c	-0.013457682
28	0xbc921858	-0.017833874
29	0xbc08031e	-0.008301524
30	0x3b544755	0.003239115
31	0xbc89e43f	-0.016832469
32	0x3cc2b08d	0.023765827
33	0xbcb4ee4f	-0.02208629
34	0x3c848477	0.016176445
35	0xbb9fa1d5	-0.004871587
36	0xbb07ff8c	-0.0020751683
37	0x3bc535b0	0.006018363
38	0x3bbe7aac	0.0058129635
39	0x3cd0537f	0.025430439
40	0xbcf021b3	-0.029312944
41	0x3cdb370e	0.02675965
42	0xbba53dee	-0.005042783
43	0x3cb4d4c7	0.022074116
44	0xbcd23fce	-0.02566519
45	0xbcde8213	-0.027161634
46	0x3c8a01ea	0.016846616
47	0x3cffea82	0.031239752
48	0xbd011c29	-0.031520996
49	0x3bbbee3b	0.0057351864
50	0xbc9bd9bf	-0.019024728
51	0x3ccd9f53	0.025100386
52	0x3cbfb8cc	0.023403548
53	0xbc70ab85	-0.014689331
54	0xbcbcfd7e	-0.023070093
55	0x3ca6e16f	0.020371167
56	0xbb7931d6	-0.003802409
57	0xbc88ac22	-0.016683642
58	0xbc93a87a	-0.018024672
59	0xbccb111a	-0.024788428
60	0x3cf893d9	0.030343937
61	0x3c6018bd	0.013677773
62	0x3c9b898b	0.018986484
63	0xbceebb47	-0.029142035
64	0x3b17092f	0.0023046245
65	0xbc71b4f9	-0.01475262
66	0xbce69d88	-0.028151289
67	0xbc87696c	-0.016529761
68	0xbb306cea	-0.0026920387
69	0xbc08f308	-0.008358724
70	0xbb1aceff	-0.0023621914
71	0x3ca672b7	0.020318372
72	0xbb9a7f5a	-0.0047148885
73	0x3ca836f0	0.020534009
74	0xbbf24094	-0.007392952
75	0x3c2f1ff2	0.010688769
76	0xbbf6367a	-0.0075138183
77	0x3c9a6cc1	0.018850686
78	0xbcbd2cb5	-0.023092607
79	0x3cb9e081	0.02269006
80	0xbcefa225	-0.029252121
81	0xbc3a0256	-0.011353096
82	0x3c903835	0.017604927
83	0xbbf3ece6	-0.007444012
84	0x3c245a5b	0.010031308
85	0xbb483a4d	-0.0030552328
86	0xbc8e79e0	-0.017392099
87	0xbcc343e7	-0.02383609
88	0xbc21983b	-0.009862955
89	0x3acd4104	0.0015659635
90	0xbbeea0ac	-0.007282337
91	0xbbb1e1d2	-0.005428531
92	0x3c9bcb7e	0.019017931
93	0x3c8c1396	0.017099183
94	0xbc841bb3	-0.01612649
95	0xbc93bc01	-0.018033983
96	0x3caecb37	0.021337135
97	0x3cc501cd	0.02404871
98	0xbced3449	-0.028955596
99	0xbbd31c00	-0.006442547
100	0xbc15baf7	-0.009138814
101	0xbb6bcfec	-0.0035982085
102	0xbbbe3480	-0.0058045983
103	0x3cf278d1	0.029598625
104	0xbc0c7d84	-0.008574847
105	0x3cfad602	0.030619625
106	0xbba2de3c	-0.00497034
107	0x3ccd5fb9	0.025070058
108	0xbc658818	-0.014009498
109	0xbcbc15fe	-0.022959705
110	0xbcc281f0	-0.0237436
111	0xbc9d455f	-0.019198118
112	0x3cc1b2bb	0.023644796
113	0xbca848bf	-0.0205425
114	0xbc0a49fc	-0.008440491
115	0xbc38aeb1	-0.011272118
116	0xbcaf94cf	-0.021433262
117	0x3b0de53c	0.0021651527
118	0xbc2310ec	-0.009952765
119	0xba859b31	-0.0010193345
120	0xbcc57fa4	-0.024108715
121	0xbbb5ad6c	-0.005544355
122	0x3c3cab8a	0.0115155075
123	0x3cc38967	0.02386923
124	0x3caa9302	0.020822052
125	0x3ca6d522	0.020365302
126	0xbc3bdabb	-0.011465724
127	0x3c2a426c	0.010391813
128	0x3cac9550	0.021067291
129	0x3cebcd9f	0.028784571
130	0x3b85368e	0.0040653413
131	0x3b3ce7c5	0.002882467
132	0xbc242127	-0.01001767
133	0xbb174ad1	-0.0023085366
134	0x3cec2453	0.028825914
135	0xbcfffd7c	-0.0312488
136	0x3c8c7357	0.017144842
137	0x3c9e97ee	0.019359555
138	0xbb2cfd07	-0.0026395933
139	0xba5d3ed4	-0.0008439843
140	0x3c1fed5b	0.00976118
141	0xbcb98aa7	-0.022649122
142	0xbc7ab15d	-0.015301076
143	0xbb84e57c	-0.004055677
144	0xbc92792c	-0.017880045
145	0x3c42ab91	0.011881725
146	0xbc4fce5c	-0.012683477
147	0xbcb3a1f0	-0.021927804
148	0xbccf2ffd	-0.025291437
149	0xbbd19382	-0.006395758
150	0x3cd3e45c	0.025865726
151	0xbcd196c4	-0.025584586
152	0xbca0eaae	-0.019643154
153	0xbcd8a5d9	-0.02644627
154	0x3cb788f8	0.022404179
155	0x3cab5938	0.020916566
156	0xbd017716	-0.03160771
157	0x3c3971fd	0.011318681
158	0x3cca9b75	0.02473233
159	0x3c125b94	0.008932967
160	0x3cc15e06	0.023604404
161	0xbd01c78d	-0.031684447
162	0x3cd640ee	0.026154008
163	0xbc5a66cc	-0.013330173
164	0xbcf553ae	-0.029947128
165	0x3cd26ad2	0.025685702
166	0xbc1c78c0	-0.009550273
167	0xbba0951c	-0.0049005877
168	0xbb56e0a7	-0.0032787712
169	0xbc7358d0	-0.0148527175
170	0x3c85904c	0.016304158
171	0x3ca0cc34	0.019628622
172	0x3c96d1f9	0.01841067
173	0xbcfb60b0	-0.030685753
174	0x3c90626a	0.017625052
175	0x3b8e72dd	0.004347189
176	0xbc47c212	-0.012192266
177	0x3c55f775	0.013059487
178	0xbb9ac96a	-0.0047237175
179	0xbc9c546e	-0.019083228
180	0x3c213246	0.009838646
181	0x3c9a97f3	0.018871283
182	0xbc9101ba	-0.017701019
183	0x3cf5ba59	0.029996084
184	0xbca213b1	-0.01978478
185	0xbc7281a4	-0.014801417
186	0xbcd55e01	-0.026045801
187	0x3bc79fe0	0.0060920566
188	0xbbffc630	-0.007805608
189	0xbc35e7c0	-0.011102617
190	0x3cb8c9e3	0.022557205
191	0xbc90523f	-0.017617343
192	0x3c0c57fa	0.008565897
193	0x3a97fe82	0.0011596235
194	0x3cfd9926	0.030956816
195	0x3ccb7dfe	0.024840351
196	0xbc928f99	-0.017890738
197	0xbce69d26	-0.028151106
198	0x3ce74983	0.028233295
199	0xbcce3ffe	-0.025176998
200	0x3c722f47	0.01478178
201	0x3b10aaa1	0.002207436
202	0x3cd549d7	0.026036186
203	0xbc81c29d	-0.01583987
204	0x3cfea2fb	0.031083575
205	0x3cfd4b04	0.03091956
206	0xbcd3b680	-0.025843859
207	0xbbcfae86	-0.0063379435
208	0xbc13f3b3	-0.00903027
209	0xbbffbbb8	-0.0078043602
210	0xbc6c26e1	-0.014413566
211	0x3cf3a8ae	0.029743519
212	0x3cb40dc8	0.021979228
213	0x3cc9c4cd	0.024629975
214	0x3cc1f797	0.02367763
215	0xb952ff1e	-0.00020122199
216	0x3c226e4d	0.009913993
217	0xbc112930	-0.0088599175
218	0xbc1aa08c	-0.009437691
219	0xbb0f9947	-0.0021911429
220	0xbcb681c4	-0.022278674
221	0xb8ad435e	-8.261831e-05
222	0xbc0b0076	-0.008483997
223	0x3cf458d9	0.029827522
224	0x3cf005fd	0.02929973
225	0xbc853084	-0.016258486
226	0x3c5090d3	0.012729841
227	0x3bc77efd	0.006088136
228	0x3af29889	0.0018508594
229	0xbc6e7753	-0.014554816
230	0xbcd78875	-0.026310185
231	0xbcd54d3d	-0.026037807
232	0xbca784fc	-0.020449154
233	0x3ccbe957	0.024891539
234	0x3cc2f0b6	0.02379642
235	0x3cc662fd	0.024217123
236	0x3c7e912a	0.0155375395
237	0x3c9c06da	0.019046236
238	0x3c0ecb03	0.008715394
239	0x3c84352b	0.016138634
240	0x3c8a8167	0.016907407
241	0x3c528920	0.012850076
242	0xbca8307f	-0.020530937
243	0x3af7c701	0.0018903912
244	0x3c3b8209	0.011444577
245	0x3bd4b326	0.0064910827
246	0x3c6c5308	0.014424093
247	0x3c58ff97	0.013244531
248	0x3ce9fa75	0.02856181
249	0xbae22290	-0.0017252732
250	0xbceb04e5	-0.028688857
251	0xbaf6fc2d	-0.0018843465
252	0x3cc5834e	0.024110463
253	0x3cf273a0	0.02959615
254	0xbcba2f8e	-0.022727754
255	0xba5cf77b	-0.00084292114
